{"format": "graph-model", "generatedBy": "2.11.1", "convertedBy": "TensorFlow.js Converter v3.19.0", "signature": {"inputs": {"input_1": {"name": "input_1:0", "dtype": "DT_FLOAT", "tensorShape": {"dim": [{"size": "-1"}, {"size": "256"}, {"size": "256"}, {"size": "3"}]}}}, "outputs": {"conv2d_242": {"name": "Identity:0", "dtype": "DT_FLOAT", "tensorShape": {"dim": [{"size": "-1"}, {"size": "64"}, {"size": "64"}, {"size": "21"}]}}}}, "modelTopology": {"node": [{"name": "StatefulPartitionedCall/hrnet-gaze/conv2d_139/Conv2D/ReadVariableOp", "op": "Const", "attr": {"value": {"tensor": {"dtype": "DT_FLOAT", "tensorShape": {"dim": [{"size": "1"}, {"size": "1"}, {"size": "36"}, {"size": "18"}]}}}, "dtype": {"type": "DT_FLOAT"}}}, {"name": "StatefulPartitionedCall/hrnet-gaze/conv2d_139/BiasAdd/ReadVariableOp", "op": "Const", "attr": {"dtype": {"type": "DT_FLOAT"}, "value": {"tensor": {"dtype": "DT_FLOAT", "tensorShape": {"dim": [{"size": "18"}]}}}}}, {"name": "StatefulPartitionedCall/hrnet-gaze/up_sampling2d_1/mul", "op": "Const", "attr": {"dtype": {"type": "DT_INT32"}, "value": {"tensor": {"dtype": "DT_INT32", "tensorShape": {"dim": [{"size": "2"}]}}}}}, {"name": "StatefulPartitionedCall/hrnet-gaze/conv2d_142/Conv2D/ReadVariableOp", "op": "Const", "attr": {"dtype": {"type": "DT_FLOAT"}, "value": {"tensor": {"dtype": "DT_FLOAT", "tensorShape": {"dim": [{"size": "1"}, {"size": "1"}, {"size": "36"}, {"size": "18"}]}}}}}, {"name": "StatefulPartitionedCall/hrnet-gaze/conv2d_142/BiasAdd/ReadVariableOp", "op": "Const", "attr": {"dtype": {"type": "DT_FLOAT"}, "value": {"tensor": {"dtype": "DT_FLOAT", "tensorShape": {"dim": [{"size": "18"}]}}}}}, {"name": "StatefulPartitionedCall/hrnet-gaze/up_sampling2d_2/mul", "op": "Const", "attr": {"dtype": {"type": "DT_INT32"}, "value": {"tensor": {"dtype": "DT_INT32", "tensorShape": {"dim": [{"size": "2"}]}}}}}, {"name": "StatefulPartitionedCall/hrnet-gaze/conv2d_143/Conv2D/ReadVariableOp", "op": "Const", "attr": {"dtype": {"type": "DT_FLOAT"}, "value": {"tensor": {"dtype": "DT_FLOAT", "tensorShape": {"dim": [{"size": "1"}, {"size": "1"}, {"size": "72"}, {"size": "36"}]}}}}}, {"name": "StatefulPartitionedCall/hrnet-gaze/conv2d_143/BiasAdd/ReadVariableOp", "op": "Const", "attr": {"dtype": {"type": "DT_FLOAT"}, "value": {"tensor": {"dtype": "DT_FLOAT", "tensorShape": {"dim": [{"size": "36"}]}}}}}, {"name": "StatefulPartitionedCall/hrnet-gaze/up_sampling2d_3/mul", "op": "Const", "attr": {"value": {"tensor": {"dtype": "DT_INT32", "tensorShape": {"dim": [{"size": "2"}]}}}, "dtype": {"type": "DT_INT32"}}}, {"name": "StatefulPartitionedCall/hrnet-gaze/up_sampling2d_4/mul", "op": "Const", "attr": {"value": {"tensor": {"dtype": "DT_INT32", "tensorShape": {"dim": [{"size": "2"}]}}}, "dtype": {"type": "DT_INT32"}}}, {"name": "StatefulPartitionedCall/hrnet-gaze/up_sampling2d_5/mul", "op": "Const", "attr": {"value": {"tensor": {"dtype": "DT_INT32", "tensorShape": {"dim": [{"size": "2"}]}}}, "dtype": {"type": "DT_INT32"}}}, {"name": "StatefulPartitionedCall/hrnet-gaze/conv2d_38/Conv2D/ReadVariableOp", "op": "Const", "attr": {"value": {"tensor": {"dtype": "DT_FLOAT", "tensorShape": {"dim": [{"size": "1"}, {"size": "1"}, {"size": "36"}, {"size": "18"}]}}}, "dtype": {"type": "DT_FLOAT"}}}, {"name": "StatefulPartitionedCall/hrnet-gaze/conv2d_38/BiasAdd/ReadVariableOp", "op": "Const", "attr": {"dtype": {"type": "DT_FLOAT"}, "value": {"tensor": {"dtype": "DT_FLOAT", "tensorShape": {"dim": [{"size": "18"}]}}}}}, {"name": "StatefulPartitionedCall/hrnet-gaze/up_sampling2d/mul", "op": "Const", "attr": {"value": {"tensor": {"dtype": "DT_INT32", "tensorShape": {"dim": [{"size": "2"}]}}}, "dtype": {"type": "DT_INT32"}}}, {"name": "StatefulPartitionedCall/hrnet-gaze/up_sampling2d_6/mul", "op": "Const", "attr": {"value": {"tensor": {"dtype": "DT_INT32", "tensorShape": {"dim": [{"size": "2"}]}}}, "dtype": {"type": "DT_INT32"}}}, {"name": "StatefulPartitionedCall/hrnet-gaze/concatenate/concat/axis", "op": "Const", "attr": {"value": {"tensor": {"dtype": "DT_INT32", "tensorShape": {}}}, "dtype": {"type": "DT_INT32"}}}, {"name": "StatefulPartitionedCall/hrnet-gaze/conv2d_242/Conv2D/ReadVariableOp", "op": "Const", "attr": {"dtype": {"type": "DT_FLOAT"}, "value": {"tensor": {"dtype": "DT_FLOAT", "tensorShape": {"dim": [{"size": "1"}, {"size": "1"}, {"size": "270"}, {"size": "21"}]}}}}}, {"name": "StatefulPartitionedCall/hrnet-gaze/conv2d_242/BiasAdd/ReadVariableOp", "op": "Const", "attr": {"value": {"tensor": {"dtype": "DT_FLOAT", "tensorShape": {"dim": [{"size": "21"}]}}}, "dtype": {"type": "DT_FLOAT"}}}, {"name": "input_1", "op": "Placeholder", "attr": {"dtype": {"type": "DT_FLOAT"}, "shape": {"shape": {"dim": [{"size": "-1"}, {"size": "256"}, {"size": "256"}, {"size": "3"}]}}}}, {"name": "StatefulPartitionedCall/hrnet-gaze/conv2d/Conv2D_weights", "op": "Const", "attr": {"value": {"tensor": {"dtype": "DT_FLOAT", "tensorShape": {"dim": [{"size": "3"}, {"size": "3"}, {"size": "3"}, {"size": "64"}]}}}, "dtype": {"type": "DT_FLOAT"}}}, {"name": "StatefulPartitionedCall/hrnet-gaze/conv2d/Conv2D_bn_offset", "op": "Const", "attr": {"dtype": {"type": "DT_FLOAT"}, "value": {"tensor": {"dtype": "DT_FLOAT", "tensorShape": {"dim": [{"size": "64"}]}}}}}, {"name": "StatefulPartitionedCall/hrnet-gaze/conv2d_1/Conv2D_weights", "op": "Const", "attr": {"dtype": {"type": "DT_FLOAT"}, "value": {"tensor": {"dtype": "DT_FLOAT", "tensorShape": {"dim": [{"size": "3"}, {"size": "3"}, {"size": "64"}, {"size": "64"}]}}}}}, {"name": "StatefulPartitionedCall/hrnet-gaze/conv2d_1/Conv2D_bn_offset", "op": "Const", "attr": {"value": {"tensor": {"dtype": "DT_FLOAT", "tensorShape": {"dim": [{"size": "64"}]}}}, "dtype": {"type": "DT_FLOAT"}}}, {"name": "StatefulPartitionedCall/hrnet-gaze/conv2d_225/Conv2D_weights", "op": "Const", "attr": {"dtype": {"type": "DT_FLOAT"}, "value": {"tensor": {"dtype": "DT_FLOAT", "tensorShape": {"dim": [{"size": "3"}, {"size": "3"}, {"size": "144"}, {"size": "144"}]}}}}}, {"name": "StatefulPartitionedCall/hrnet-gaze/conv2d_2/Conv2D_weights", "op": "Const", "attr": {"dtype": {"type": "DT_FLOAT"}, "value": {"tensor": {"dtype": "DT_FLOAT", "tensorShape": {"dim": [{"size": "1"}, {"size": "1"}, {"size": "64"}, {"size": "18"}]}}}}}, {"name": "StatefulPartitionedCall/hrnet-gaze/conv2d_2/Conv2D_bn_offset", "op": "Const", "attr": {"value": {"tensor": {"dtype": "DT_FLOAT", "tensorShape": {"dim": [{"size": "18"}]}}}, "dtype": {"type": "DT_FLOAT"}}}, {"name": "StatefulPartitionedCall/hrnet-gaze/conv2d_225/Conv2D_bn_offset", "op": "Const", "attr": {"dtype": {"type": "DT_FLOAT"}, "value": {"tensor": {"dtype": "DT_FLOAT", "tensorShape": {"dim": [{"size": "144"}]}}}}}, {"name": "StatefulPartitionedCall/hrnet-gaze/conv2d_5/Conv2D_weights", "op": "Const", "attr": {"value": {"tensor": {"dtype": "DT_FLOAT", "tensorShape": {"dim": [{"size": "1"}, {"size": "1"}, {"size": "64"}, {"size": "72"}]}}}, "dtype": {"type": "DT_FLOAT"}}}, {"name": "StatefulPartitionedCall/hrnet-gaze/conv2d_191/Conv2D_weights", "op": "Const", "attr": {"value": {"tensor": {"dtype": "DT_FLOAT", "tensorShape": {"dim": [{"size": "3"}, {"size": "3"}, {"size": "36"}, {"size": "36"}]}}}, "dtype": {"type": "DT_FLOAT"}}}, {"name": "StatefulPartitionedCall/hrnet-gaze/conv2d_5/Conv2D_bn_offset", "op": "Const", "attr": {"value": {"tensor": {"dtype": "DT_FLOAT", "tensorShape": {"dim": [{"size": "72"}]}}}, "dtype": {"type": "DT_FLOAT"}}}, {"name": "StatefulPartitionedCall/hrnet-gaze/conv2d_3/Conv2D_weights", "op": "Const", "attr": {"dtype": {"type": "DT_FLOAT"}, "value": {"tensor": {"dtype": "DT_FLOAT", "tensorShape": {"dim": [{"size": "3"}, {"size": "3"}, {"size": "18"}, {"size": "18"}]}}}}}, {"name": "StatefulPartitionedCall/hrnet-gaze/conv2d_3/Conv2D_bn_offset", "op": "Const", "attr": {"value": {"tensor": {"dtype": "DT_FLOAT", "tensorShape": {"dim": [{"size": "18"}]}}}, "dtype": {"type": "DT_FLOAT"}}}, {"name": "StatefulPartitionedCall/hrnet-gaze/conv2d_154/Conv2D_weights", "op": "Const", "attr": {"value": {"tensor": {"dtype": "DT_FLOAT", "tensorShape": {"dim": [{"size": "3"}, {"size": "3"}, {"size": "18"}, {"size": "18"}]}}}, "dtype": {"type": "DT_FLOAT"}}}, {"name": "StatefulPartitionedCall/hrnet-gaze/conv2d_4/Conv2D_weights", "op": "Const", "attr": {"dtype": {"type": "DT_FLOAT"}, "value": {"tensor": {"dtype": "DT_FLOAT", "tensorShape": {"dim": [{"size": "1"}, {"size": "1"}, {"size": "18"}, {"size": "72"}]}}}}}, {"name": "StatefulPartitionedCall/hrnet-gaze/conv2d_4/Conv2D_bn_offset", "op": "Const", "attr": {"value": {"tensor": {"dtype": "DT_FLOAT", "tensorShape": {"dim": [{"size": "72"}]}}}, "dtype": {"type": "DT_FLOAT"}}}, {"name": "StatefulPartitionedCall/hrnet-gaze/conv2d_6/Conv2D_weights", "op": "Const", "attr": {"value": {"tensor": {"dtype": "DT_FLOAT", "tensorShape": {"dim": [{"size": "1"}, {"size": "1"}, {"size": "72"}, {"size": "18"}]}}}, "dtype": {"type": "DT_FLOAT"}}}, {"name": "StatefulPartitionedCall/hrnet-gaze/conv2d_154/Conv2D_bn_offset", "op": "Const", "attr": {"value": {"tensor": {"dtype": "DT_FLOAT", "tensorShape": {"dim": [{"size": "18"}]}}}, "dtype": {"type": "DT_FLOAT"}}}, {"name": "StatefulPartitionedCall/hrnet-gaze/conv2d_6/Conv2D_bn_offset", "op": "Const", "attr": {"value": {"tensor": {"dtype": "DT_FLOAT", "tensorShape": {"dim": [{"size": "18"}]}}}, "dtype": {"type": "DT_FLOAT"}}}, {"name": "StatefulPartitionedCall/hrnet-gaze/conv2d_9/Conv2D_weights", "op": "Const", "attr": {"value": {"tensor": {"dtype": "DT_FLOAT", "tensorShape": {"dim": [{"size": "1"}, {"size": "1"}, {"size": "72"}, {"size": "72"}]}}}, "dtype": {"type": "DT_FLOAT"}}}, {"name": "StatefulPartitionedCall/hrnet-gaze/conv2d_9/Conv2D_bn_offset", "op": "Const", "attr": {"value": {"tensor": {"dtype": "DT_FLOAT", "tensorShape": {"dim": [{"size": "72"}]}}}, "dtype": {"type": "DT_FLOAT"}}}, {"name": "StatefulPartitionedCall/hrnet-gaze/conv2d_7/Conv2D_weights", "op": "Const", "attr": {"dtype": {"type": "DT_FLOAT"}, "value": {"tensor": {"dtype": "DT_FLOAT", "tensorShape": {"dim": [{"size": "3"}, {"size": "3"}, {"size": "18"}, {"size": "18"}]}}}}}, {"name": "StatefulPartitionedCall/hrnet-gaze/conv2d_7/Conv2D_bn_offset", "op": "Const", "attr": {"value": {"tensor": {"dtype": "DT_FLOAT", "tensorShape": {"dim": [{"size": "18"}]}}}, "dtype": {"type": "DT_FLOAT"}}}, {"name": "StatefulPartitionedCall/hrnet-gaze/conv2d_179/Conv2D_weights", "op": "Const", "attr": {"value": {"tensor": {"dtype": "DT_FLOAT", "tensorShape": {"dim": [{"size": "3"}, {"size": "3"}, {"size": "36"}, {"size": "36"}]}}}, "dtype": {"type": "DT_FLOAT"}}}, {"name": "StatefulPartitionedCall/hrnet-gaze/conv2d_8/Conv2D_weights", "op": "Const", "attr": {"value": {"tensor": {"dtype": "DT_FLOAT", "tensorShape": {"dim": [{"size": "1"}, {"size": "1"}, {"size": "18"}, {"size": "72"}]}}}, "dtype": {"type": "DT_FLOAT"}}}, {"name": "StatefulPartitionedCall/hrnet-gaze/conv2d_191/Conv2D_bn_offset", "op": "Const", "attr": {"value": {"tensor": {"dtype": "DT_FLOAT", "tensorShape": {"dim": [{"size": "36"}]}}}, "dtype": {"type": "DT_FLOAT"}}}, {"name": "StatefulPartitionedCall/hrnet-gaze/conv2d_8/Conv2D_bn_offset", "op": "Const", "attr": {"dtype": {"type": "DT_FLOAT"}, "value": {"tensor": {"dtype": "DT_FLOAT", "tensorShape": {"dim": [{"size": "72"}]}}}}}, {"name": "StatefulPartitionedCall/hrnet-gaze/conv2d_10/Conv2D_weights", "op": "Const", "attr": {"dtype": {"type": "DT_FLOAT"}, "value": {"tensor": {"dtype": "DT_FLOAT", "tensorShape": {"dim": [{"size": "1"}, {"size": "1"}, {"size": "72"}, {"size": "18"}]}}}}}, {"name": "StatefulPartitionedCall/hrnet-gaze/conv2d_179/Conv2D_bn_offset", "op": "Const", "attr": {"value": {"tensor": {"dtype": "DT_FLOAT", "tensorShape": {"dim": [{"size": "36"}]}}}, "dtype": {"type": "DT_FLOAT"}}}, {"name": "StatefulPartitionedCall/hrnet-gaze/conv2d_10/Conv2D_bn_offset", "op": "Const", "attr": {"value": {"tensor": {"dtype": "DT_FLOAT", "tensorShape": {"dim": [{"size": "18"}]}}}, "dtype": {"type": "DT_FLOAT"}}}, {"name": "StatefulPartitionedCall/hrnet-gaze/batch_normalization_143/FusedBatchNormV3/Offset", "op": "Const", "attr": {"value": {"tensor": {"dtype": "DT_FLOAT", "tensorShape": {"dim": [{"size": "36"}]}}}, "dtype": {"type": "DT_FLOAT"}}}, {"name": "StatefulPartitionedCall/hrnet-gaze/conv2d_13/Conv2D_weights", "op": "Const", "attr": {"value": {"tensor": {"dtype": "DT_FLOAT", "tensorShape": {"dim": [{"size": "1"}, {"size": "1"}, {"size": "72"}, {"size": "72"}]}}}, "dtype": {"type": "DT_FLOAT"}}}, {"name": "StatefulPartitionedCall/hrnet-gaze/conv2d_13/Conv2D_bn_offset", "op": "Const", "attr": {"value": {"tensor": {"dtype": "DT_FLOAT", "tensorShape": {"dim": [{"size": "72"}]}}}, "dtype": {"type": "DT_FLOAT"}}}, {"name": "StatefulPartitionedCall/hrnet-gaze/conv2d_11/Conv2D_weights", "op": "Const", "attr": {"value": {"tensor": {"dtype": "DT_FLOAT", "tensorShape": {"dim": [{"size": "3"}, {"size": "3"}, {"size": "18"}, {"size": "18"}]}}}, "dtype": {"type": "DT_FLOAT"}}}, {"name": "StatefulPartitionedCall/hrnet-gaze/conv2d_226/Conv2D_weights", "op": "Const", "attr": {"dtype": {"type": "DT_FLOAT"}, "value": {"tensor": {"dtype": "DT_FLOAT", "tensorShape": {"dim": [{"size": "3"}, {"size": "3"}, {"size": "144"}, {"size": "144"}]}}}}}, {"name": "StatefulPartitionedCall/hrnet-gaze/conv2d_11/Conv2D_bn_offset", "op": "Const", "attr": {"dtype": {"type": "DT_FLOAT"}, "value": {"tensor": {"dtype": "DT_FLOAT", "tensorShape": {"dim": [{"size": "18"}]}}}}}, {"name": "StatefulPartitionedCall/hrnet-gaze/conv2d_12/Conv2D_weights", "op": "Const", "attr": {"value": {"tensor": {"dtype": "DT_FLOAT", "tensorShape": {"dim": [{"size": "1"}, {"size": "1"}, {"size": "18"}, {"size": "72"}]}}}, "dtype": {"type": "DT_FLOAT"}}}, {"name": "StatefulPartitionedCall/hrnet-gaze/conv2d_226/Conv2D_bn_offset", "op": "Const", "attr": {"value": {"tensor": {"dtype": "DT_FLOAT", "tensorShape": {"dim": [{"size": "144"}]}}}, "dtype": {"type": "DT_FLOAT"}}}, {"name": "StatefulPartitionedCall/hrnet-gaze/conv2d_12/Conv2D_bn_offset", "op": "Const", "attr": {"value": {"tensor": {"dtype": "DT_FLOAT", "tensorShape": {"dim": [{"size": "72"}]}}}, "dtype": {"type": "DT_FLOAT"}}}, {"name": "StatefulPartitionedCall/hrnet-gaze/conv2d_14/Conv2D_weights", "op": "Const", "attr": {"value": {"tensor": {"dtype": "DT_FLOAT", "tensorShape": {"dim": [{"size": "1"}, {"size": "1"}, {"size": "72"}, {"size": "18"}]}}}, "dtype": {"type": "DT_FLOAT"}}}, {"name": "StatefulPartitionedCall/hrnet-gaze/conv2d_14/Conv2D_bn_offset", "op": "Const", "attr": {"dtype": {"type": "DT_FLOAT"}, "value": {"tensor": {"dtype": "DT_FLOAT", "tensorShape": {"dim": [{"size": "18"}]}}}}}, {"name": "StatefulPartitionedCall/hrnet-gaze/conv2d_17/Conv2D_weights", "op": "Const", "attr": {"value": {"tensor": {"dtype": "DT_FLOAT", "tensorShape": {"dim": [{"size": "1"}, {"size": "1"}, {"size": "72"}, {"size": "72"}]}}}, "dtype": {"type": "DT_FLOAT"}}}, {"name": "StatefulPartitionedCall/hrnet-gaze/conv2d_17/Conv2D_bn_offset", "op": "Const", "attr": {"value": {"tensor": {"dtype": "DT_FLOAT", "tensorShape": {"dim": [{"size": "72"}]}}}, "dtype": {"type": "DT_FLOAT"}}}, {"name": "StatefulPartitionedCall/hrnet-gaze/conv2d_15/Conv2D_weights", "op": "Const", "attr": {"value": {"tensor": {"dtype": "DT_FLOAT", "tensorShape": {"dim": [{"size": "3"}, {"size": "3"}, {"size": "18"}, {"size": "18"}]}}}, "dtype": {"type": "DT_FLOAT"}}}, {"name": "StatefulPartitionedCall/hrnet-gaze/conv2d_180/Conv2D_weights", "op": "Const", "attr": {"value": {"tensor": {"dtype": "DT_FLOAT", "tensorShape": {"dim": [{"size": "3"}, {"size": "3"}, {"size": "36"}, {"size": "36"}]}}}, "dtype": {"type": "DT_FLOAT"}}}, {"name": "StatefulPartitionedCall/hrnet-gaze/conv2d_15/Conv2D_bn_offset", "op": "Const", "attr": {"value": {"tensor": {"dtype": "DT_FLOAT", "tensorShape": {"dim": [{"size": "18"}]}}}, "dtype": {"type": "DT_FLOAT"}}}, {"name": "StatefulPartitionedCall/hrnet-gaze/conv2d_238/Conv2D_weights", "op": "Const", "attr": {"value": {"tensor": {"dtype": "DT_FLOAT", "tensorShape": {"dim": [{"size": "3"}, {"size": "3"}, {"size": "144"}, {"size": "144"}]}}}, "dtype": {"type": "DT_FLOAT"}}}, {"name": "StatefulPartitionedCall/hrnet-gaze/conv2d_16/Conv2D_weights", "op": "Const", "attr": {"value": {"tensor": {"dtype": "DT_FLOAT", "tensorShape": {"dim": [{"size": "1"}, {"size": "1"}, {"size": "18"}, {"size": "72"}]}}}, "dtype": {"type": "DT_FLOAT"}}}, {"name": "StatefulPartitionedCall/hrnet-gaze/conv2d_180/Conv2D_bn_offset", "op": "Const", "attr": {"value": {"tensor": {"dtype": "DT_FLOAT", "tensorShape": {"dim": [{"size": "36"}]}}}, "dtype": {"type": "DT_FLOAT"}}}, {"name": "StatefulPartitionedCall/hrnet-gaze/conv2d_16/Conv2D_bn_offset", "op": "Const", "attr": {"value": {"tensor": {"dtype": "DT_FLOAT", "tensorShape": {"dim": [{"size": "72"}]}}}, "dtype": {"type": "DT_FLOAT"}}}, {"name": "StatefulPartitionedCall/hrnet-gaze/conv2d_18/Conv2D_weights", "op": "Const", "attr": {"value": {"tensor": {"dtype": "DT_FLOAT", "tensorShape": {"dim": [{"size": "3"}, {"size": "3"}, {"size": "72"}, {"size": "18"}]}}}, "dtype": {"type": "DT_FLOAT"}}}, {"name": "StatefulPartitionedCall/hrnet-gaze/conv2d_18/Conv2D_bn_offset", "op": "Const", "attr": {"dtype": {"type": "DT_FLOAT"}, "value": {"tensor": {"dtype": "DT_FLOAT", "tensorShape": {"dim": [{"size": "18"}]}}}}}, {"name": "StatefulPartitionedCall/hrnet-gaze/conv2d_20/Conv2D_weights", "op": "Const", "attr": {"value": {"tensor": {"dtype": "DT_FLOAT", "tensorShape": {"dim": [{"size": "3"}, {"size": "3"}, {"size": "18"}, {"size": "18"}]}}}, "dtype": {"type": "DT_FLOAT"}}}, {"name": "StatefulPartitionedCall/hrnet-gaze/conv2d_20/Conv2D_bn_offset", "op": "Const", "attr": {"value": {"tensor": {"dtype": "DT_FLOAT", "tensorShape": {"dim": [{"size": "18"}]}}}, "dtype": {"type": "DT_FLOAT"}}}, {"name": "StatefulPartitionedCall/hrnet-gaze/conv2d_19/Conv2D_weights", "op": "Const", "attr": {"dtype": {"type": "DT_FLOAT"}, "value": {"tensor": {"dtype": "DT_FLOAT", "tensorShape": {"dim": [{"size": "3"}, {"size": "3"}, {"size": "18"}, {"size": "36"}]}}}}}, {"name": "StatefulPartitionedCall/hrnet-gaze/conv2d_203/Conv2D_weights", "op": "Const", "attr": {"value": {"tensor": {"dtype": "DT_FLOAT", "tensorShape": {"dim": [{"size": "3"}, {"size": "3"}, {"size": "72"}, {"size": "72"}]}}}, "dtype": {"type": "DT_FLOAT"}}}, {"name": "StatefulPartitionedCall/hrnet-gaze/conv2d_19/Conv2D_bn_offset", "op": "Const", "attr": {"dtype": {"type": "DT_FLOAT"}, "value": {"tensor": {"dtype": "DT_FLOAT", "tensorShape": {"dim": [{"size": "36"}]}}}}}, {"name": "StatefulPartitionedCall/hrnet-gaze/conv2d_21/Conv2D_weights", "op": "Const", "attr": {"value": {"tensor": {"dtype": "DT_FLOAT", "tensorShape": {"dim": [{"size": "3"}, {"size": "3"}, {"size": "18"}, {"size": "18"}]}}}, "dtype": {"type": "DT_FLOAT"}}}, {"name": "StatefulPartitionedCall/hrnet-gaze/conv2d_203/Conv2D_bn_offset", "op": "Const", "attr": {"value": {"tensor": {"dtype": "DT_FLOAT", "tensorShape": {"dim": [{"size": "72"}]}}}, "dtype": {"type": "DT_FLOAT"}}}, {"name": "StatefulPartitionedCall/hrnet-gaze/conv2d_21/Conv2D_bn_offset", "op": "Const", "attr": {"value": {"tensor": {"dtype": "DT_FLOAT", "tensorShape": {"dim": [{"size": "18"}]}}}, "dtype": {"type": "DT_FLOAT"}}}, {"name": "StatefulPartitionedCall/hrnet-gaze/conv2d_28/Conv2D_weights", "op": "Const", "attr": {"value": {"tensor": {"dtype": "DT_FLOAT", "tensorShape": {"dim": [{"size": "3"}, {"size": "3"}, {"size": "36"}, {"size": "36"}]}}}, "dtype": {"type": "DT_FLOAT"}}}, {"name": "StatefulPartitionedCall/hrnet-gaze/conv2d_238/Conv2D_bn_offset", "op": "Const", "attr": {"dtype": {"type": "DT_FLOAT"}, "value": {"tensor": {"dtype": "DT_FLOAT", "tensorShape": {"dim": [{"size": "144"}]}}}}}, {"name": "StatefulPartitionedCall/hrnet-gaze/conv2d_28/Conv2D_bn_offset", "op": "Const", "attr": {"value": {"tensor": {"dtype": "DT_FLOAT", "tensorShape": {"dim": [{"size": "36"}]}}}, "dtype": {"type": "DT_FLOAT"}}}, {"name": "StatefulPartitionedCall/hrnet-gaze/conv2d_29/Conv2D_weights", "op": "Const", "attr": {"value": {"tensor": {"dtype": "DT_FLOAT", "tensorShape": {"dim": [{"size": "3"}, {"size": "3"}, {"size": "36"}, {"size": "36"}]}}}, "dtype": {"type": "DT_FLOAT"}}}, {"name": "StatefulPartitionedCall/hrnet-gaze/conv2d_155/Conv2D_weights", "op": "Const", "attr": {"value": {"tensor": {"dtype": "DT_FLOAT", "tensorShape": {"dim": [{"size": "3"}, {"size": "3"}, {"size": "18"}, {"size": "18"}]}}}, "dtype": {"type": "DT_FLOAT"}}}, {"name": "StatefulPartitionedCall/hrnet-gaze/conv2d_29/Conv2D_bn_offset", "op": "Const", "attr": {"value": {"tensor": {"dtype": "DT_FLOAT", "tensorShape": {"dim": [{"size": "36"}]}}}, "dtype": {"type": "DT_FLOAT"}}}, {"name": "StatefulPartitionedCall/hrnet-gaze/conv2d_22/Conv2D_weights", "op": "Const", "attr": {"dtype": {"type": "DT_FLOAT"}, "value": {"tensor": {"dtype": "DT_FLOAT", "tensorShape": {"dim": [{"size": "3"}, {"size": "3"}, {"size": "18"}, {"size": "18"}]}}}}}, {"name": "StatefulPartitionedCall/hrnet-gaze/conv2d_22/Conv2D_bn_offset", "op": "Const", "attr": {"value": {"tensor": {"dtype": "DT_FLOAT", "tensorShape": {"dim": [{"size": "18"}]}}}, "dtype": {"type": "DT_FLOAT"}}}, {"name": "StatefulPartitionedCall/hrnet-gaze/conv2d_155/Conv2D_bn_offset", "op": "Const", "attr": {"value": {"tensor": {"dtype": "DT_FLOAT", "tensorShape": {"dim": [{"size": "18"}]}}}, "dtype": {"type": "DT_FLOAT"}}}, {"name": "StatefulPartitionedCall/hrnet-gaze/conv2d_23/Conv2D_weights", "op": "Const", "attr": {"value": {"tensor": {"dtype": "DT_FLOAT", "tensorShape": {"dim": [{"size": "3"}, {"size": "3"}, {"size": "18"}, {"size": "18"}]}}}, "dtype": {"type": "DT_FLOAT"}}}, {"name": "StatefulPartitionedCall/hrnet-gaze/conv2d_23/Conv2D_bn_offset", "op": "Const", "attr": {"value": {"tensor": {"dtype": "DT_FLOAT", "tensorShape": {"dim": [{"size": "18"}]}}}, "dtype": {"type": "DT_FLOAT"}}}, {"name": "StatefulPartitionedCall/hrnet-gaze/conv2d_30/Conv2D_weights", "op": "Const", "attr": {"value": {"tensor": {"dtype": "DT_FLOAT", "tensorShape": {"dim": [{"size": "3"}, {"size": "3"}, {"size": "36"}, {"size": "36"}]}}}, "dtype": {"type": "DT_FLOAT"}}}, {"name": "StatefulPartitionedCall/hrnet-gaze/conv2d_30/Conv2D_bn_offset", "op": "Const", "attr": {"value": {"tensor": {"dtype": "DT_FLOAT", "tensorShape": {"dim": [{"size": "36"}]}}}, "dtype": {"type": "DT_FLOAT"}}}, {"name": "StatefulPartitionedCall/hrnet-gaze/conv2d_204/Conv2D_weights", "op": "Const", "attr": {"value": {"tensor": {"dtype": "DT_FLOAT", "tensorShape": {"dim": [{"size": "3"}, {"size": "3"}, {"size": "72"}, {"size": "72"}]}}}, "dtype": {"type": "DT_FLOAT"}}}, {"name": "StatefulPartitionedCall/hrnet-gaze/conv2d_31/Conv2D_weights", "op": "Const", "attr": {"value": {"tensor": {"dtype": "DT_FLOAT", "tensorShape": {"dim": [{"size": "3"}, {"size": "3"}, {"size": "36"}, {"size": "36"}]}}}, "dtype": {"type": "DT_FLOAT"}}}, {"name": "StatefulPartitionedCall/hrnet-gaze/conv2d_31/Conv2D_bn_offset", "op": "Const", "attr": {"value": {"tensor": {"dtype": "DT_FLOAT", "tensorShape": {"dim": [{"size": "36"}]}}}, "dtype": {"type": "DT_FLOAT"}}}, {"name": "StatefulPartitionedCall/hrnet-gaze/conv2d_24/Conv2D_weights", "op": "Const", "attr": {"value": {"tensor": {"dtype": "DT_FLOAT", "tensorShape": {"dim": [{"size": "3"}, {"size": "3"}, {"size": "18"}, {"size": "18"}]}}}, "dtype": {"type": "DT_FLOAT"}}}, {"name": "StatefulPartitionedCall/hrnet-gaze/conv2d_204/Conv2D_bn_offset", "op": "Const", "attr": {"value": {"tensor": {"dtype": "DT_FLOAT", "tensorShape": {"dim": [{"size": "72"}]}}}, "dtype": {"type": "DT_FLOAT"}}}, {"name": "StatefulPartitionedCall/hrnet-gaze/conv2d_24/Conv2D_bn_offset", "op": "Const", "attr": {"value": {"tensor": {"dtype": "DT_FLOAT", "tensorShape": {"dim": [{"size": "18"}]}}}, "dtype": {"type": "DT_FLOAT"}}}, {"name": "StatefulPartitionedCall/hrnet-gaze/conv2d_25/Conv2D_weights", "op": "Const", "attr": {"value": {"tensor": {"dtype": "DT_FLOAT", "tensorShape": {"dim": [{"size": "3"}, {"size": "3"}, {"size": "18"}, {"size": "18"}]}}}, "dtype": {"type": "DT_FLOAT"}}}, {"name": "StatefulPartitionedCall/hrnet-gaze/conv2d_25/Conv2D_bn_offset", "op": "Const", "attr": {"dtype": {"type": "DT_FLOAT"}, "value": {"tensor": {"dtype": "DT_FLOAT", "tensorShape": {"dim": [{"size": "18"}]}}}}}, {"name": "StatefulPartitionedCall/hrnet-gaze/conv2d_32/Conv2D_weights", "op": "Const", "attr": {"value": {"tensor": {"dtype": "DT_FLOAT", "tensorShape": {"dim": [{"size": "3"}, {"size": "3"}, {"size": "36"}, {"size": "36"}]}}}, "dtype": {"type": "DT_FLOAT"}}}, {"name": "StatefulPartitionedCall/hrnet-gaze/conv2d_32/Conv2D_bn_offset", "op": "Const", "attr": {"value": {"tensor": {"dtype": "DT_FLOAT", "tensorShape": {"dim": [{"size": "36"}]}}}, "dtype": {"type": "DT_FLOAT"}}}, {"name": "StatefulPartitionedCall/hrnet-gaze/conv2d_227/Conv2D_weights", "op": "Const", "attr": {"value": {"tensor": {"dtype": "DT_FLOAT", "tensorShape": {"dim": [{"size": "3"}, {"size": "3"}, {"size": "144"}, {"size": "144"}]}}}, "dtype": {"type": "DT_FLOAT"}}}, {"name": "StatefulPartitionedCall/hrnet-gaze/conv2d_33/Conv2D_weights", "op": "Const", "attr": {"value": {"tensor": {"dtype": "DT_FLOAT", "tensorShape": {"dim": [{"size": "3"}, {"size": "3"}, {"size": "36"}, {"size": "36"}]}}}, "dtype": {"type": "DT_FLOAT"}}}, {"name": "StatefulPartitionedCall/hrnet-gaze/conv2d_192/Conv2D_weights", "op": "Const", "attr": {"dtype": {"type": "DT_FLOAT"}, "value": {"tensor": {"dtype": "DT_FLOAT", "tensorShape": {"dim": [{"size": "3"}, {"size": "3"}, {"size": "36"}, {"size": "36"}]}}}}}, {"name": "StatefulPartitionedCall/hrnet-gaze/conv2d_33/Conv2D_bn_offset", "op": "Const", "attr": {"value": {"tensor": {"dtype": "DT_FLOAT", "tensorShape": {"dim": [{"size": "36"}]}}}, "dtype": {"type": "DT_FLOAT"}}}, {"name": "StatefulPartitionedCall/hrnet-gaze/conv2d_26/Conv2D_weights", "op": "Const", "attr": {"value": {"tensor": {"dtype": "DT_FLOAT", "tensorShape": {"dim": [{"size": "3"}, {"size": "3"}, {"size": "18"}, {"size": "18"}]}}}, "dtype": {"type": "DT_FLOAT"}}}, {"name": "StatefulPartitionedCall/hrnet-gaze/conv2d_227/Conv2D_bn_offset", "op": "Const", "attr": {"value": {"tensor": {"dtype": "DT_FLOAT", "tensorShape": {"dim": [{"size": "144"}]}}}, "dtype": {"type": "DT_FLOAT"}}}, {"name": "StatefulPartitionedCall/hrnet-gaze/conv2d_26/Conv2D_bn_offset", "op": "Const", "attr": {"value": {"tensor": {"dtype": "DT_FLOAT", "tensorShape": {"dim": [{"size": "18"}]}}}, "dtype": {"type": "DT_FLOAT"}}}, {"name": "StatefulPartitionedCall/hrnet-gaze/conv2d_27/Conv2D_weights", "op": "Const", "attr": {"value": {"tensor": {"dtype": "DT_FLOAT", "tensorShape": {"dim": [{"size": "3"}, {"size": "3"}, {"size": "18"}, {"size": "18"}]}}}, "dtype": {"type": "DT_FLOAT"}}}, {"name": "StatefulPartitionedCall/hrnet-gaze/conv2d_27/Conv2D_bn_offset", "op": "Const", "attr": {"value": {"tensor": {"dtype": "DT_FLOAT", "tensorShape": {"dim": [{"size": "18"}]}}}, "dtype": {"type": "DT_FLOAT"}}}, {"name": "StatefulPartitionedCall/hrnet-gaze/conv2d_34/Conv2D_weights", "op": "Const", "attr": {"value": {"tensor": {"dtype": "DT_FLOAT", "tensorShape": {"dim": [{"size": "3"}, {"size": "3"}, {"size": "36"}, {"size": "36"}]}}}, "dtype": {"type": "DT_FLOAT"}}}, {"name": "StatefulPartitionedCall/hrnet-gaze/conv2d_156/Conv2D_weights", "op": "Const", "attr": {"value": {"tensor": {"dtype": "DT_FLOAT", "tensorShape": {"dim": [{"size": "3"}, {"size": "3"}, {"size": "18"}, {"size": "18"}]}}}, "dtype": {"type": "DT_FLOAT"}}}, {"name": "StatefulPartitionedCall/hrnet-gaze/conv2d_34/Conv2D_bn_offset", "op": "Const", "attr": {"value": {"tensor": {"dtype": "DT_FLOAT", "tensorShape": {"dim": [{"size": "36"}]}}}, "dtype": {"type": "DT_FLOAT"}}}, {"name": "StatefulPartitionedCall/hrnet-gaze/conv2d_192/Conv2D_bn_offset", "op": "Const", "attr": {"value": {"tensor": {"dtype": "DT_FLOAT", "tensorShape": {"dim": [{"size": "36"}]}}}, "dtype": {"type": "DT_FLOAT"}}}, {"name": "StatefulPartitionedCall/hrnet-gaze/conv2d_35/Conv2D_weights", "op": "Const", "attr": {"value": {"tensor": {"dtype": "DT_FLOAT", "tensorShape": {"dim": [{"size": "3"}, {"size": "3"}, {"size": "36"}, {"size": "36"}]}}}, "dtype": {"type": "DT_FLOAT"}}}, {"name": "StatefulPartitionedCall/hrnet-gaze/conv2d_156/Conv2D_bn_offset", "op": "Const", "attr": {"value": {"tensor": {"dtype": "DT_FLOAT", "tensorShape": {"dim": [{"size": "18"}]}}}, "dtype": {"type": "DT_FLOAT"}}}, {"name": "StatefulPartitionedCall/hrnet-gaze/conv2d_35/Conv2D_bn_offset", "op": "Const", "attr": {"value": {"tensor": {"dtype": "DT_FLOAT", "tensorShape": {"dim": [{"size": "36"}]}}}, "dtype": {"type": "DT_FLOAT"}}}, {"name": "StatefulPartitionedCall/hrnet-gaze/conv2d_36/Conv2D_weights", "op": "Const", "attr": {"dtype": {"type": "DT_FLOAT"}, "value": {"tensor": {"dtype": "DT_FLOAT", "tensorShape": {"dim": [{"size": "3"}, {"size": "3"}, {"size": "18"}, {"size": "36"}]}}}}}, {"name": "StatefulPartitionedCall/hrnet-gaze/conv2d_36/Conv2D_bn_offset", "op": "Const", "attr": {"value": {"tensor": {"dtype": "DT_FLOAT", "tensorShape": {"dim": [{"size": "36"}]}}}, "dtype": {"type": "DT_FLOAT"}}}, {"name": "StatefulPartitionedCall/hrnet-gaze/conv2d_37/Conv2D_weights", "op": "Const", "attr": {"dtype": {"type": "DT_FLOAT"}, "value": {"tensor": {"dtype": "DT_FLOAT", "tensorShape": {"dim": [{"size": "3"}, {"size": "3"}, {"size": "36"}, {"size": "72"}]}}}}}, {"name": "StatefulPartitionedCall/hrnet-gaze/conv2d_181/Conv2D_weights", "op": "Const", "attr": {"dtype": {"type": "DT_FLOAT"}, "value": {"tensor": {"dtype": "DT_FLOAT", "tensorShape": {"dim": [{"size": "3"}, {"size": "3"}, {"size": "36"}, {"size": "36"}]}}}}}, {"name": "StatefulPartitionedCall/hrnet-gaze/conv2d_37/Conv2D_bn_offset", "op": "Const", "attr": {"value": {"tensor": {"dtype": "DT_FLOAT", "tensorShape": {"dim": [{"size": "72"}]}}}, "dtype": {"type": "DT_FLOAT"}}}, {"name": "StatefulPartitionedCall/hrnet-gaze/conv2d_39/Conv2D_weights", "op": "Const", "attr": {"value": {"tensor": {"dtype": "DT_FLOAT", "tensorShape": {"dim": [{"size": "3"}, {"size": "3"}, {"size": "36"}, {"size": "72"}]}}}, "dtype": {"type": "DT_FLOAT"}}}, {"name": "StatefulPartitionedCall/hrnet-gaze/conv2d_181/Conv2D_bn_offset", "op": "Const", "attr": {"dtype": {"type": "DT_FLOAT"}, "value": {"tensor": {"dtype": "DT_FLOAT", "tensorShape": {"dim": [{"size": "36"}]}}}}}, {"name": "StatefulPartitionedCall/hrnet-gaze/conv2d_39/Conv2D_bn_offset", "op": "Const", "attr": {"value": {"tensor": {"dtype": "DT_FLOAT", "tensorShape": {"dim": [{"size": "72"}]}}}, "dtype": {"type": "DT_FLOAT"}}}, {"name": "StatefulPartitionedCall/hrnet-gaze/conv2d_72/Conv2D_weights", "op": "Const", "attr": {"value": {"tensor": {"dtype": "DT_FLOAT", "tensorShape": {"dim": [{"size": "3"}, {"size": "3"}, {"size": "36"}, {"size": "36"}]}}}, "dtype": {"type": "DT_FLOAT"}}}, {"name": "StatefulPartitionedCall/hrnet-gaze/conv2d_72/Conv2D_bn_offset", "op": "Const", "attr": {"dtype": {"type": "DT_FLOAT"}, "value": {"tensor": {"dtype": "DT_FLOAT", "tensorShape": {"dim": [{"size": "36"}]}}}}}, {"name": "StatefulPartitionedCall/hrnet-gaze/conv2d_228/Conv2D_weights", "op": "Const", "attr": {"dtype": {"type": "DT_FLOAT"}, "value": {"tensor": {"dtype": "DT_FLOAT", "tensorShape": {"dim": [{"size": "3"}, {"size": "3"}, {"size": "144"}, {"size": "144"}]}}}}}, {"name": "StatefulPartitionedCall/hrnet-gaze/conv2d_73/Conv2D_weights", "op": "Const", "attr": {"value": {"tensor": {"dtype": "DT_FLOAT", "tensorShape": {"dim": [{"size": "3"}, {"size": "3"}, {"size": "36"}, {"size": "36"}]}}}, "dtype": {"type": "DT_FLOAT"}}}, {"name": "StatefulPartitionedCall/hrnet-gaze/conv2d_73/Conv2D_bn_offset", "op": "Const", "attr": {"value": {"tensor": {"dtype": "DT_FLOAT", "tensorShape": {"dim": [{"size": "36"}]}}}, "dtype": {"type": "DT_FLOAT"}}}, {"name": "StatefulPartitionedCall/hrnet-gaze/conv2d_104/Conv2D_weights", "op": "Const", "attr": {"dtype": {"type": "DT_FLOAT"}, "value": {"tensor": {"dtype": "DT_FLOAT", "tensorShape": {"dim": [{"size": "3"}, {"size": "3"}, {"size": "72"}, {"size": "72"}]}}}}}, {"name": "StatefulPartitionedCall/hrnet-gaze/conv2d_228/Conv2D_bn_offset", "op": "Const", "attr": {"value": {"tensor": {"dtype": "DT_FLOAT", "tensorShape": {"dim": [{"size": "144"}]}}}, "dtype": {"type": "DT_FLOAT"}}}, {"name": "StatefulPartitionedCall/hrnet-gaze/conv2d_104/Conv2D_bn_offset", "op": "Const", "attr": {"value": {"tensor": {"dtype": "DT_FLOAT", "tensorShape": {"dim": [{"size": "72"}]}}}, "dtype": {"type": "DT_FLOAT"}}}, {"name": "StatefulPartitionedCall/hrnet-gaze/conv2d_40/Conv2D_weights", "op": "Const", "attr": {"value": {"tensor": {"dtype": "DT_FLOAT", "tensorShape": {"dim": [{"size": "3"}, {"size": "3"}, {"size": "18"}, {"size": "18"}]}}}, "dtype": {"type": "DT_FLOAT"}}}, {"name": "StatefulPartitionedCall/hrnet-gaze/conv2d_40/Conv2D_bn_offset", "op": "Const", "attr": {"dtype": {"type": "DT_FLOAT"}, "value": {"tensor": {"dtype": "DT_FLOAT", "tensorShape": {"dim": [{"size": "18"}]}}}}}, {"name": "StatefulPartitionedCall/hrnet-gaze/conv2d_105/Conv2D_weights", "op": "Const", "attr": {"value": {"tensor": {"dtype": "DT_FLOAT", "tensorShape": {"dim": [{"size": "3"}, {"size": "3"}, {"size": "72"}, {"size": "72"}]}}}, "dtype": {"type": "DT_FLOAT"}}}, {"name": "StatefulPartitionedCall/hrnet-gaze/conv2d_182/Conv2D_weights", "op": "Const", "attr": {"dtype": {"type": "DT_FLOAT"}, "value": {"tensor": {"dtype": "DT_FLOAT", "tensorShape": {"dim": [{"size": "3"}, {"size": "3"}, {"size": "36"}, {"size": "36"}]}}}}}, {"name": "StatefulPartitionedCall/hrnet-gaze/conv2d_105/Conv2D_bn_offset", "op": "Const", "attr": {"dtype": {"type": "DT_FLOAT"}, "value": {"tensor": {"dtype": "DT_FLOAT", "tensorShape": {"dim": [{"size": "72"}]}}}}}, {"name": "StatefulPartitionedCall/hrnet-gaze/conv2d_41/Conv2D_weights", "op": "Const", "attr": {"value": {"tensor": {"dtype": "DT_FLOAT", "tensorShape": {"dim": [{"size": "3"}, {"size": "3"}, {"size": "18"}, {"size": "18"}]}}}, "dtype": {"type": "DT_FLOAT"}}}, {"name": "StatefulPartitionedCall/hrnet-gaze/conv2d_41/Conv2D_bn_offset", "op": "Const", "attr": {"value": {"tensor": {"dtype": "DT_FLOAT", "tensorShape": {"dim": [{"size": "18"}]}}}, "dtype": {"type": "DT_FLOAT"}}}, {"name": "StatefulPartitionedCall/hrnet-gaze/conv2d_74/Conv2D_weights", "op": "Const", "attr": {"dtype": {"type": "DT_FLOAT"}, "value": {"tensor": {"dtype": "DT_FLOAT", "tensorShape": {"dim": [{"size": "3"}, {"size": "3"}, {"size": "36"}, {"size": "36"}]}}}}}, {"name": "StatefulPartitionedCall/hrnet-gaze/conv2d_182/Conv2D_bn_offset", "op": "Const", "attr": {"value": {"tensor": {"dtype": "DT_FLOAT", "tensorShape": {"dim": [{"size": "36"}]}}}, "dtype": {"type": "DT_FLOAT"}}}, {"name": "StatefulPartitionedCall/hrnet-gaze/conv2d_74/Conv2D_bn_offset", "op": "Const", "attr": {"value": {"tensor": {"dtype": "DT_FLOAT", "tensorShape": {"dim": [{"size": "36"}]}}}, "dtype": {"type": "DT_FLOAT"}}}, {"name": "StatefulPartitionedCall/hrnet-gaze/conv2d_75/Conv2D_weights", "op": "Const", "attr": {"value": {"tensor": {"dtype": "DT_FLOAT", "tensorShape": {"dim": [{"size": "3"}, {"size": "3"}, {"size": "36"}, {"size": "36"}]}}}, "dtype": {"type": "DT_FLOAT"}}}, {"name": "StatefulPartitionedCall/hrnet-gaze/conv2d_75/Conv2D_bn_offset", "op": "Const", "attr": {"value": {"tensor": {"dtype": "DT_FLOAT", "tensorShape": {"dim": [{"size": "36"}]}}}, "dtype": {"type": "DT_FLOAT"}}}, {"name": "StatefulPartitionedCall/hrnet-gaze/conv2d_106/Conv2D_weights", "op": "Const", "attr": {"value": {"tensor": {"dtype": "DT_FLOAT", "tensorShape": {"dim": [{"size": "3"}, {"size": "3"}, {"size": "72"}, {"size": "72"}]}}}, "dtype": {"type": "DT_FLOAT"}}}, {"name": "StatefulPartitionedCall/hrnet-gaze/conv2d_106/Conv2D_bn_offset", "op": "Const", "attr": {"value": {"tensor": {"dtype": "DT_FLOAT", "tensorShape": {"dim": [{"size": "72"}]}}}, "dtype": {"type": "DT_FLOAT"}}}, {"name": "StatefulPartitionedCall/hrnet-gaze/conv2d_205/Conv2D_weights", "op": "Const", "attr": {"value": {"tensor": {"dtype": "DT_FLOAT", "tensorShape": {"dim": [{"size": "3"}, {"size": "3"}, {"size": "72"}, {"size": "72"}]}}}, "dtype": {"type": "DT_FLOAT"}}}, {"name": "StatefulPartitionedCall/hrnet-gaze/conv2d_42/Conv2D_weights", "op": "Const", "attr": {"value": {"tensor": {"dtype": "DT_FLOAT", "tensorShape": {"dim": [{"size": "3"}, {"size": "3"}, {"size": "18"}, {"size": "18"}]}}}, "dtype": {"type": "DT_FLOAT"}}}, {"name": "StatefulPartitionedCall/hrnet-gaze/conv2d_215/Conv2D_weights", "op": "Const", "attr": {"value": {"tensor": {"dtype": "DT_FLOAT", "tensorShape": {"dim": [{"size": "3"}, {"size": "3"}, {"size": "72"}, {"size": "72"}]}}}, "dtype": {"type": "DT_FLOAT"}}}, {"name": "StatefulPartitionedCall/hrnet-gaze/conv2d_42/Conv2D_bn_offset", "op": "Const", "attr": {"value": {"tensor": {"dtype": "DT_FLOAT", "tensorShape": {"dim": [{"size": "18"}]}}}, "dtype": {"type": "DT_FLOAT"}}}, {"name": "StatefulPartitionedCall/hrnet-gaze/conv2d_205/Conv2D_bn_offset", "op": "Const", "attr": {"value": {"tensor": {"dtype": "DT_FLOAT", "tensorShape": {"dim": [{"size": "72"}]}}}, "dtype": {"type": "DT_FLOAT"}}}, {"name": "StatefulPartitionedCall/hrnet-gaze/conv2d_107/Conv2D_weights", "op": "Const", "attr": {"value": {"tensor": {"dtype": "DT_FLOAT", "tensorShape": {"dim": [{"size": "3"}, {"size": "3"}, {"size": "72"}, {"size": "72"}]}}}, "dtype": {"type": "DT_FLOAT"}}}, {"name": "StatefulPartitionedCall/hrnet-gaze/conv2d_107/Conv2D_bn_offset", "op": "Const", "attr": {"dtype": {"type": "DT_FLOAT"}, "value": {"tensor": {"dtype": "DT_FLOAT", "tensorShape": {"dim": [{"size": "72"}]}}}}}, {"name": "StatefulPartitionedCall/hrnet-gaze/conv2d_43/Conv2D_weights", "op": "Const", "attr": {"value": {"tensor": {"dtype": "DT_FLOAT", "tensorShape": {"dim": [{"size": "3"}, {"size": "3"}, {"size": "18"}, {"size": "18"}]}}}, "dtype": {"type": "DT_FLOAT"}}}, {"name": "StatefulPartitionedCall/hrnet-gaze/conv2d_43/Conv2D_bn_offset", "op": "Const", "attr": {"dtype": {"type": "DT_FLOAT"}, "value": {"tensor": {"dtype": "DT_FLOAT", "tensorShape": {"dim": [{"size": "18"}]}}}}}, {"name": "StatefulPartitionedCall/hrnet-gaze/conv2d_76/Conv2D_weights", "op": "Const", "attr": {"dtype": {"type": "DT_FLOAT"}, "value": {"tensor": {"dtype": "DT_FLOAT", "tensorShape": {"dim": [{"size": "3"}, {"size": "3"}, {"size": "36"}, {"size": "36"}]}}}}}, {"name": "StatefulPartitionedCall/hrnet-gaze/conv2d_157/Conv2D_weights", "op": "Const", "attr": {"dtype": {"type": "DT_FLOAT"}, "value": {"tensor": {"dtype": "DT_FLOAT", "tensorShape": {"dim": [{"size": "3"}, {"size": "3"}, {"size": "18"}, {"size": "18"}]}}}}}, {"name": "StatefulPartitionedCall/hrnet-gaze/conv2d_76/Conv2D_bn_offset", "op": "Const", "attr": {"dtype": {"type": "DT_FLOAT"}, "value": {"tensor": {"dtype": "DT_FLOAT", "tensorShape": {"dim": [{"size": "36"}]}}}}}, {"name": "StatefulPartitionedCall/hrnet-gaze/conv2d_215/Conv2D_bn_offset", "op": "Const", "attr": {"value": {"tensor": {"dtype": "DT_FLOAT", "tensorShape": {"dim": [{"size": "72"}]}}}, "dtype": {"type": "DT_FLOAT"}}}, {"name": "StatefulPartitionedCall/hrnet-gaze/conv2d_77/Conv2D_weights", "op": "Const", "attr": {"dtype": {"type": "DT_FLOAT"}, "value": {"tensor": {"dtype": "DT_FLOAT", "tensorShape": {"dim": [{"size": "3"}, {"size": "3"}, {"size": "36"}, {"size": "36"}]}}}}}, {"name": "StatefulPartitionedCall/hrnet-gaze/conv2d_157/Conv2D_bn_offset", "op": "Const", "attr": {"dtype": {"type": "DT_FLOAT"}, "value": {"tensor": {"dtype": "DT_FLOAT", "tensorShape": {"dim": [{"size": "18"}]}}}}}, {"name": "StatefulPartitionedCall/hrnet-gaze/conv2d_77/Conv2D_bn_offset", "op": "Const", "attr": {"value": {"tensor": {"dtype": "DT_FLOAT", "tensorShape": {"dim": [{"size": "36"}]}}}, "dtype": {"type": "DT_FLOAT"}}}, {"name": "StatefulPartitionedCall/hrnet-gaze/conv2d_108/Conv2D_weights", "op": "Const", "attr": {"dtype": {"type": "DT_FLOAT"}, "value": {"tensor": {"dtype": "DT_FLOAT", "tensorShape": {"dim": [{"size": "3"}, {"size": "3"}, {"size": "72"}, {"size": "72"}]}}}}}, {"name": "StatefulPartitionedCall/hrnet-gaze/batch_normalization_139/FusedBatchNormV3/Scaled", "op": "Const", "attr": {"value": {"tensor": {"dtype": "DT_FLOAT", "tensorShape": {"dim": [{"size": "18"}]}}}, "dtype": {"type": "DT_FLOAT"}}}, {"name": "StatefulPartitionedCall/hrnet-gaze/conv2d_108/Conv2D_bn_offset", "op": "Const", "attr": {"value": {"tensor": {"dtype": "DT_FLOAT", "tensorShape": {"dim": [{"size": "72"}]}}}, "dtype": {"type": "DT_FLOAT"}}}, {"name": "StatefulPartitionedCall/hrnet-gaze/conv2d_44/Conv2D_weights", "op": "Const", "attr": {"dtype": {"type": "DT_FLOAT"}, "value": {"tensor": {"dtype": "DT_FLOAT", "tensorShape": {"dim": [{"size": "3"}, {"size": "3"}, {"size": "18"}, {"size": "18"}]}}}}}, {"name": "StatefulPartitionedCall/hrnet-gaze/conv2d_206/Conv2D_weights", "op": "Const", "attr": {"dtype": {"type": "DT_FLOAT"}, "value": {"tensor": {"dtype": "DT_FLOAT", "tensorShape": {"dim": [{"size": "3"}, {"size": "3"}, {"size": "72"}, {"size": "72"}]}}}}}, {"name": "StatefulPartitionedCall/hrnet-gaze/conv2d_44/Conv2D_bn_offset", "op": "Const", "attr": {"value": {"tensor": {"dtype": "DT_FLOAT", "tensorShape": {"dim": [{"size": "18"}]}}}, "dtype": {"type": "DT_FLOAT"}}}, {"name": "StatefulPartitionedCall/hrnet-gaze/conv2d_109/Conv2D_weights", "op": "Const", "attr": {"value": {"tensor": {"dtype": "DT_FLOAT", "tensorShape": {"dim": [{"size": "3"}, {"size": "3"}, {"size": "72"}, {"size": "72"}]}}}, "dtype": {"type": "DT_FLOAT"}}}, {"name": "StatefulPartitionedCall/hrnet-gaze/conv2d_206/Conv2D_bn_offset", "op": "Const", "attr": {"dtype": {"type": "DT_FLOAT"}, "value": {"tensor": {"dtype": "DT_FLOAT", "tensorShape": {"dim": [{"size": "72"}]}}}}}, {"name": "StatefulPartitionedCall/hrnet-gaze/conv2d_109/Conv2D_bn_offset", "op": "Const", "attr": {"value": {"tensor": {"dtype": "DT_FLOAT", "tensorShape": {"dim": [{"size": "72"}]}}}, "dtype": {"type": "DT_FLOAT"}}}, {"name": "StatefulPartitionedCall/hrnet-gaze/conv2d_45/Conv2D_weights", "op": "Const", "attr": {"value": {"tensor": {"dtype": "DT_FLOAT", "tensorShape": {"dim": [{"size": "3"}, {"size": "3"}, {"size": "18"}, {"size": "18"}]}}}, "dtype": {"type": "DT_FLOAT"}}}, {"name": "StatefulPartitionedCall/hrnet-gaze/conv2d_45/Conv2D_bn_offset", "op": "Const", "attr": {"value": {"tensor": {"dtype": "DT_FLOAT", "tensorShape": {"dim": [{"size": "18"}]}}}, "dtype": {"type": "DT_FLOAT"}}}, {"name": "StatefulPartitionedCall/hrnet-gaze/conv2d_78/Conv2D_weights", "op": "Const", "attr": {"value": {"tensor": {"dtype": "DT_FLOAT", "tensorShape": {"dim": [{"size": "3"}, {"size": "3"}, {"size": "36"}, {"size": "36"}]}}}, "dtype": {"type": "DT_FLOAT"}}}, {"name": "StatefulPartitionedCall/hrnet-gaze/conv2d_78/Conv2D_bn_offset", "op": "Const", "attr": {"value": {"tensor": {"dtype": "DT_FLOAT", "tensorShape": {"dim": [{"size": "36"}]}}}, "dtype": {"type": "DT_FLOAT"}}}, {"name": "StatefulPartitionedCall/hrnet-gaze/conv2d_79/Conv2D_weights", "op": "Const", "attr": {"value": {"tensor": {"dtype": "DT_FLOAT", "tensorShape": {"dim": [{"size": "3"}, {"size": "3"}, {"size": "36"}, {"size": "36"}]}}}, "dtype": {"type": "DT_FLOAT"}}}, {"name": "StatefulPartitionedCall/hrnet-gaze/conv2d_229/Conv2D_weights", "op": "Const", "attr": {"value": {"tensor": {"dtype": "DT_FLOAT", "tensorShape": {"dim": [{"size": "3"}, {"size": "3"}, {"size": "144"}, {"size": "144"}]}}}, "dtype": {"type": "DT_FLOAT"}}}, {"name": "StatefulPartitionedCall/hrnet-gaze/conv2d_79/Conv2D_bn_offset", "op": "Const", "attr": {"dtype": {"type": "DT_FLOAT"}, "value": {"tensor": {"dtype": "DT_FLOAT", "tensorShape": {"dim": [{"size": "36"}]}}}}}, {"name": "StatefulPartitionedCall/hrnet-gaze/conv2d_110/Conv2D_weights", "op": "Const", "attr": {"value": {"tensor": {"dtype": "DT_FLOAT", "tensorShape": {"dim": [{"size": "3"}, {"size": "3"}, {"size": "72"}, {"size": "72"}]}}}, "dtype": {"type": "DT_FLOAT"}}}, {"name": "StatefulPartitionedCall/hrnet-gaze/conv2d_167/Conv2D_weights", "op": "Const", "attr": {"dtype": {"type": "DT_FLOAT"}, "value": {"tensor": {"dtype": "DT_FLOAT", "tensorShape": {"dim": [{"size": "3"}, {"size": "3"}, {"size": "18"}, {"size": "18"}]}}}}}, {"name": "StatefulPartitionedCall/hrnet-gaze/conv2d_110/Conv2D_bn_offset", "op": "Const", "attr": {"dtype": {"type": "DT_FLOAT"}, "value": {"tensor": {"dtype": "DT_FLOAT", "tensorShape": {"dim": [{"size": "72"}]}}}}}, {"name": "StatefulPartitionedCall/hrnet-gaze/conv2d_229/Conv2D_bn_offset", "op": "Const", "attr": {"dtype": {"type": "DT_FLOAT"}, "value": {"tensor": {"dtype": "DT_FLOAT", "tensorShape": {"dim": [{"size": "144"}]}}}}}, {"name": "StatefulPartitionedCall/hrnet-gaze/conv2d_46/Conv2D_weights", "op": "Const", "attr": {"dtype": {"type": "DT_FLOAT"}, "value": {"tensor": {"dtype": "DT_FLOAT", "tensorShape": {"dim": [{"size": "3"}, {"size": "3"}, {"size": "18"}, {"size": "18"}]}}}}}, {"name": "StatefulPartitionedCall/hrnet-gaze/conv2d_46/Conv2D_bn_offset", "op": "Const", "attr": {"dtype": {"type": "DT_FLOAT"}, "value": {"tensor": {"dtype": "DT_FLOAT", "tensorShape": {"dim": [{"size": "18"}]}}}}}, {"name": "StatefulPartitionedCall/hrnet-gaze/conv2d_111/Conv2D_weights", "op": "Const", "attr": {"dtype": {"type": "DT_FLOAT"}, "value": {"tensor": {"dtype": "DT_FLOAT", "tensorShape": {"dim": [{"size": "3"}, {"size": "3"}, {"size": "72"}, {"size": "72"}]}}}}}, {"name": "StatefulPartitionedCall/hrnet-gaze/conv2d_158/Conv2D_weights", "op": "Const", "attr": {"value": {"tensor": {"dtype": "DT_FLOAT", "tensorShape": {"dim": [{"size": "3"}, {"size": "3"}, {"size": "18"}, {"size": "18"}]}}}, "dtype": {"type": "DT_FLOAT"}}}, {"name": "StatefulPartitionedCall/hrnet-gaze/conv2d_111/Conv2D_bn_offset", "op": "Const", "attr": {"value": {"tensor": {"dtype": "DT_FLOAT", "tensorShape": {"dim": [{"size": "72"}]}}}, "dtype": {"type": "DT_FLOAT"}}}, {"name": "StatefulPartitionedCall/hrnet-gaze/conv2d_47/Conv2D_weights", "op": "Const", "attr": {"dtype": {"type": "DT_FLOAT"}, "value": {"tensor": {"dtype": "DT_FLOAT", "tensorShape": {"dim": [{"size": "3"}, {"size": "3"}, {"size": "18"}, {"size": "18"}]}}}}}, {"name": "StatefulPartitionedCall/hrnet-gaze/conv2d_167/Conv2D_bn_offset", "op": "Const", "attr": {"value": {"tensor": {"dtype": "DT_FLOAT", "tensorShape": {"dim": [{"size": "18"}]}}}, "dtype": {"type": "DT_FLOAT"}}}, {"name": "StatefulPartitionedCall/hrnet-gaze/conv2d_47/Conv2D_bn_offset", "op": "Const", "attr": {"dtype": {"type": "DT_FLOAT"}, "value": {"tensor": {"dtype": "DT_FLOAT", "tensorShape": {"dim": [{"size": "18"}]}}}}}, {"name": "StatefulPartitionedCall/hrnet-gaze/conv2d_80/Conv2D_weights", "op": "Const", "attr": {"dtype": {"type": "DT_FLOAT"}, "value": {"tensor": {"dtype": "DT_FLOAT", "tensorShape": {"dim": [{"size": "3"}, {"size": "3"}, {"size": "36"}, {"size": "36"}]}}}}}, {"name": "StatefulPartitionedCall/hrnet-gaze/conv2d_158/Conv2D_bn_offset", "op": "Const", "attr": {"dtype": {"type": "DT_FLOAT"}, "value": {"tensor": {"dtype": "DT_FLOAT", "tensorShape": {"dim": [{"size": "18"}]}}}}}, {"name": "StatefulPartitionedCall/hrnet-gaze/conv2d_80/Conv2D_bn_offset", "op": "Const", "attr": {"value": {"tensor": {"dtype": "DT_FLOAT", "tensorShape": {"dim": [{"size": "36"}]}}}, "dtype": {"type": "DT_FLOAT"}}}, {"name": "StatefulPartitionedCall/hrnet-gaze/conv2d_81/Conv2D_weights", "op": "Const", "attr": {"value": {"tensor": {"dtype": "DT_FLOAT", "tensorShape": {"dim": [{"size": "3"}, {"size": "3"}, {"size": "36"}, {"size": "36"}]}}}, "dtype": {"type": "DT_FLOAT"}}}, {"name": "StatefulPartitionedCall/hrnet-gaze/conv2d_81/Conv2D_bn_offset", "op": "Const", "attr": {"dtype": {"type": "DT_FLOAT"}, "value": {"tensor": {"dtype": "DT_FLOAT", "tensorShape": {"dim": [{"size": "36"}]}}}}}, {"name": "StatefulPartitionedCall/hrnet-gaze/conv2d_112/Conv2D_weights", "op": "Const", "attr": {"dtype": {"type": "DT_FLOAT"}, "value": {"tensor": {"dtype": "DT_FLOAT", "tensorShape": {"dim": [{"size": "3"}, {"size": "3"}, {"size": "72"}, {"size": "72"}]}}}}}, {"name": "StatefulPartitionedCall/hrnet-gaze/conv2d_112/Conv2D_bn_offset", "op": "Const", "attr": {"value": {"tensor": {"dtype": "DT_FLOAT", "tensorShape": {"dim": [{"size": "72"}]}}}, "dtype": {"type": "DT_FLOAT"}}}, {"name": "StatefulPartitionedCall/hrnet-gaze/conv2d_183/Conv2D_weights", "op": "Const", "attr": {"dtype": {"type": "DT_FLOAT"}, "value": {"tensor": {"dtype": "DT_FLOAT", "tensorShape": {"dim": [{"size": "3"}, {"size": "3"}, {"size": "36"}, {"size": "36"}]}}}}}, {"name": "StatefulPartitionedCall/hrnet-gaze/conv2d_48/Conv2D_weights", "op": "Const", "attr": {"dtype": {"type": "DT_FLOAT"}, "value": {"tensor": {"dtype": "DT_FLOAT", "tensorShape": {"dim": [{"size": "3"}, {"size": "3"}, {"size": "18"}, {"size": "18"}]}}}}}, {"name": "StatefulPartitionedCall/hrnet-gaze/conv2d_48/Conv2D_bn_offset", "op": "Const", "attr": {"dtype": {"type": "DT_FLOAT"}, "value": {"tensor": {"dtype": "DT_FLOAT", "tensorShape": {"dim": [{"size": "18"}]}}}}}, {"name": "StatefulPartitionedCall/hrnet-gaze/conv2d_183/Conv2D_bn_offset", "op": "Const", "attr": {"value": {"tensor": {"dtype": "DT_FLOAT", "tensorShape": {"dim": [{"size": "36"}]}}}, "dtype": {"type": "DT_FLOAT"}}}, {"name": "StatefulPartitionedCall/hrnet-gaze/conv2d_113/Conv2D_weights", "op": "Const", "attr": {"value": {"tensor": {"dtype": "DT_FLOAT", "tensorShape": {"dim": [{"size": "3"}, {"size": "3"}, {"size": "72"}, {"size": "72"}]}}}, "dtype": {"type": "DT_FLOAT"}}}, {"name": "StatefulPartitionedCall/hrnet-gaze/conv2d_113/Conv2D_bn_offset", "op": "Const", "attr": {"dtype": {"type": "DT_FLOAT"}, "value": {"tensor": {"dtype": "DT_FLOAT", "tensorShape": {"dim": [{"size": "72"}]}}}}}, {"name": "StatefulPartitionedCall/hrnet-gaze/conv2d_49/Conv2D_weights", "op": "Const", "attr": {"dtype": {"type": "DT_FLOAT"}, "value": {"tensor": {"dtype": "DT_FLOAT", "tensorShape": {"dim": [{"size": "3"}, {"size": "3"}, {"size": "18"}, {"size": "18"}]}}}}}, {"name": "StatefulPartitionedCall/hrnet-gaze/conv2d_49/Conv2D_bn_offset", "op": "Const", "attr": {"value": {"tensor": {"dtype": "DT_FLOAT", "tensorShape": {"dim": [{"size": "18"}]}}}, "dtype": {"type": "DT_FLOAT"}}}, {"name": "StatefulPartitionedCall/hrnet-gaze/conv2d_82/Conv2D_weights", "op": "Const", "attr": {"dtype": {"type": "DT_FLOAT"}, "value": {"tensor": {"dtype": "DT_FLOAT", "tensorShape": {"dim": [{"size": "3"}, {"size": "3"}, {"size": "36"}, {"size": "36"}]}}}}}, {"name": "StatefulPartitionedCall/hrnet-gaze/conv2d_230/Conv2D_weights", "op": "Const", "attr": {"value": {"tensor": {"dtype": "DT_FLOAT", "tensorShape": {"dim": [{"size": "3"}, {"size": "3"}, {"size": "144"}, {"size": "144"}]}}}, "dtype": {"type": "DT_FLOAT"}}}, {"name": "StatefulPartitionedCall/hrnet-gaze/conv2d_82/Conv2D_bn_offset", "op": "Const", "attr": {"value": {"tensor": {"dtype": "DT_FLOAT", "tensorShape": {"dim": [{"size": "36"}]}}}, "dtype": {"type": "DT_FLOAT"}}}, {"name": "StatefulPartitionedCall/hrnet-gaze/conv2d_216/Conv2D_weights", "op": "Const", "attr": {"value": {"tensor": {"dtype": "DT_FLOAT", "tensorShape": {"dim": [{"size": "3"}, {"size": "3"}, {"size": "72"}, {"size": "72"}]}}}, "dtype": {"type": "DT_FLOAT"}}}, {"name": "StatefulPartitionedCall/hrnet-gaze/conv2d_83/Conv2D_weights", "op": "Const", "attr": {"value": {"tensor": {"dtype": "DT_FLOAT", "tensorShape": {"dim": [{"size": "3"}, {"size": "3"}, {"size": "36"}, {"size": "36"}]}}}, "dtype": {"type": "DT_FLOAT"}}}, {"name": "StatefulPartitionedCall/hrnet-gaze/conv2d_230/Conv2D_bn_offset", "op": "Const", "attr": {"value": {"tensor": {"dtype": "DT_FLOAT", "tensorShape": {"dim": [{"size": "144"}]}}}, "dtype": {"type": "DT_FLOAT"}}}, {"name": "StatefulPartitionedCall/hrnet-gaze/conv2d_83/Conv2D_bn_offset", "op": "Const", "attr": {"value": {"tensor": {"dtype": "DT_FLOAT", "tensorShape": {"dim": [{"size": "36"}]}}}, "dtype": {"type": "DT_FLOAT"}}}, {"name": "StatefulPartitionedCall/hrnet-gaze/conv2d_114/Conv2D_weights", "op": "Const", "attr": {"value": {"tensor": {"dtype": "DT_FLOAT", "tensorShape": {"dim": [{"size": "3"}, {"size": "3"}, {"size": "72"}, {"size": "72"}]}}}, "dtype": {"type": "DT_FLOAT"}}}, {"name": "StatefulPartitionedCall/hrnet-gaze/conv2d_114/Conv2D_bn_offset", "op": "Const", "attr": {"value": {"tensor": {"dtype": "DT_FLOAT", "tensorShape": {"dim": [{"size": "72"}]}}}, "dtype": {"type": "DT_FLOAT"}}}, {"name": "StatefulPartitionedCall/hrnet-gaze/conv2d_50/Conv2D_weights", "op": "Const", "attr": {"value": {"tensor": {"dtype": "DT_FLOAT", "tensorShape": {"dim": [{"size": "3"}, {"size": "3"}, {"size": "18"}, {"size": "18"}]}}}, "dtype": {"type": "DT_FLOAT"}}}, {"name": "StatefulPartitionedCall/hrnet-gaze/conv2d_50/Conv2D_bn_offset", "op": "Const", "attr": {"dtype": {"type": "DT_FLOAT"}, "value": {"tensor": {"dtype": "DT_FLOAT", "tensorShape": {"dim": [{"size": "18"}]}}}}}, {"name": "StatefulPartitionedCall/hrnet-gaze/conv2d_184/Conv2D_weights", "op": "Const", "attr": {"value": {"tensor": {"dtype": "DT_FLOAT", "tensorShape": {"dim": [{"size": "3"}, {"size": "3"}, {"size": "36"}, {"size": "36"}]}}}, "dtype": {"type": "DT_FLOAT"}}}, {"name": "StatefulPartitionedCall/hrnet-gaze/conv2d_115/Conv2D_weights", "op": "Const", "attr": {"value": {"tensor": {"dtype": "DT_FLOAT", "tensorShape": {"dim": [{"size": "3"}, {"size": "3"}, {"size": "72"}, {"size": "72"}]}}}, "dtype": {"type": "DT_FLOAT"}}}, {"name": "StatefulPartitionedCall/hrnet-gaze/batch_normalization_139/FusedBatchNormV3/Offset", "op": "Const", "attr": {"dtype": {"type": "DT_FLOAT"}, "value": {"tensor": {"dtype": "DT_FLOAT", "tensorShape": {"dim": [{"size": "18"}]}}}}}, {"name": "StatefulPartitionedCall/hrnet-gaze/conv2d_115/Conv2D_bn_offset", "op": "Const", "attr": {"dtype": {"type": "DT_FLOAT"}, "value": {"tensor": {"dtype": "DT_FLOAT", "tensorShape": {"dim": [{"size": "72"}]}}}}}, {"name": "StatefulPartitionedCall/hrnet-gaze/conv2d_51/Conv2D_weights", "op": "Const", "attr": {"value": {"tensor": {"dtype": "DT_FLOAT", "tensorShape": {"dim": [{"size": "3"}, {"size": "3"}, {"size": "18"}, {"size": "18"}]}}}, "dtype": {"type": "DT_FLOAT"}}}, {"name": "StatefulPartitionedCall/hrnet-gaze/conv2d_184/Conv2D_bn_offset", "op": "Const", "attr": {"dtype": {"type": "DT_FLOAT"}, "value": {"tensor": {"dtype": "DT_FLOAT", "tensorShape": {"dim": [{"size": "36"}]}}}}}, {"name": "StatefulPartitionedCall/hrnet-gaze/conv2d_51/Conv2D_bn_offset", "op": "Const", "attr": {"value": {"tensor": {"dtype": "DT_FLOAT", "tensorShape": {"dim": [{"size": "18"}]}}}, "dtype": {"type": "DT_FLOAT"}}}, {"name": "StatefulPartitionedCall/hrnet-gaze/conv2d_84/Conv2D_weights", "op": "Const", "attr": {"dtype": {"type": "DT_FLOAT"}, "value": {"tensor": {"dtype": "DT_FLOAT", "tensorShape": {"dim": [{"size": "3"}, {"size": "3"}, {"size": "36"}, {"size": "36"}]}}}}}, {"name": "StatefulPartitionedCall/hrnet-gaze/conv2d_84/Conv2D_bn_offset", "op": "Const", "attr": {"dtype": {"type": "DT_FLOAT"}, "value": {"tensor": {"dtype": "DT_FLOAT", "tensorShape": {"dim": [{"size": "36"}]}}}}}, {"name": "StatefulPartitionedCall/hrnet-gaze/conv2d_85/Conv2D_weights", "op": "Const", "attr": {"value": {"tensor": {"dtype": "DT_FLOAT", "tensorShape": {"dim": [{"size": "3"}, {"size": "3"}, {"size": "36"}, {"size": "36"}]}}}, "dtype": {"type": "DT_FLOAT"}}}, {"name": "StatefulPartitionedCall/hrnet-gaze/conv2d_85/Conv2D_bn_offset", "op": "Const", "attr": {"value": {"tensor": {"dtype": "DT_FLOAT", "tensorShape": {"dim": [{"size": "36"}]}}}, "dtype": {"type": "DT_FLOAT"}}}, {"name": "StatefulPartitionedCall/hrnet-gaze/conv2d_116/Conv2D_weights", "op": "Const", "attr": {"dtype": {"type": "DT_FLOAT"}, "value": {"tensor": {"dtype": "DT_FLOAT", "tensorShape": {"dim": [{"size": "3"}, {"size": "3"}, {"size": "72"}, {"size": "72"}]}}}}}, {"name": "StatefulPartitionedCall/hrnet-gaze/conv2d_207/Conv2D_weights", "op": "Const", "attr": {"value": {"tensor": {"dtype": "DT_FLOAT", "tensorShape": {"dim": [{"size": "3"}, {"size": "3"}, {"size": "72"}, {"size": "72"}]}}}, "dtype": {"type": "DT_FLOAT"}}}, {"name": "StatefulPartitionedCall/hrnet-gaze/conv2d_116/Conv2D_bn_offset", "op": "Const", "attr": {"dtype": {"type": "DT_FLOAT"}, "value": {"tensor": {"dtype": "DT_FLOAT", "tensorShape": {"dim": [{"size": "72"}]}}}}}, {"name": "StatefulPartitionedCall/hrnet-gaze/conv2d_216/Conv2D_bn_offset", "op": "Const", "attr": {"dtype": {"type": "DT_FLOAT"}, "value": {"tensor": {"dtype": "DT_FLOAT", "tensorShape": {"dim": [{"size": "72"}]}}}}}, {"name": "StatefulPartitionedCall/hrnet-gaze/conv2d_52/Conv2D_weights", "op": "Const", "attr": {"value": {"tensor": {"dtype": "DT_FLOAT", "tensorShape": {"dim": [{"size": "3"}, {"size": "3"}, {"size": "18"}, {"size": "18"}]}}}, "dtype": {"type": "DT_FLOAT"}}}, {"name": "StatefulPartitionedCall/hrnet-gaze/conv2d_207/Conv2D_bn_offset", "op": "Const", "attr": {"value": {"tensor": {"dtype": "DT_FLOAT", "tensorShape": {"dim": [{"size": "72"}]}}}, "dtype": {"type": "DT_FLOAT"}}}, {"name": "StatefulPartitionedCall/hrnet-gaze/conv2d_52/Conv2D_bn_offset", "op": "Const", "attr": {"value": {"tensor": {"dtype": "DT_FLOAT", "tensorShape": {"dim": [{"size": "18"}]}}}, "dtype": {"type": "DT_FLOAT"}}}, {"name": "StatefulPartitionedCall/hrnet-gaze/conv2d_117/Conv2D_weights", "op": "Const", "attr": {"value": {"tensor": {"dtype": "DT_FLOAT", "tensorShape": {"dim": [{"size": "3"}, {"size": "3"}, {"size": "72"}, {"size": "72"}]}}}, "dtype": {"type": "DT_FLOAT"}}}, {"name": "StatefulPartitionedCall/hrnet-gaze/conv2d_117/Conv2D_bn_offset", "op": "Const", "attr": {"value": {"tensor": {"dtype": "DT_FLOAT", "tensorShape": {"dim": [{"size": "72"}]}}}, "dtype": {"type": "DT_FLOAT"}}}, {"name": "StatefulPartitionedCall/hrnet-gaze/conv2d_53/Conv2D_weights", "op": "Const", "attr": {"dtype": {"type": "DT_FLOAT"}, "value": {"tensor": {"dtype": "DT_FLOAT", "tensorShape": {"dim": [{"size": "3"}, {"size": "3"}, {"size": "18"}, {"size": "18"}]}}}}}, {"name": "StatefulPartitionedCall/hrnet-gaze/conv2d_159/Conv2D_weights", "op": "Const", "attr": {"value": {"tensor": {"dtype": "DT_FLOAT", "tensorShape": {"dim": [{"size": "3"}, {"size": "3"}, {"size": "18"}, {"size": "18"}]}}}, "dtype": {"type": "DT_FLOAT"}}}, {"name": "StatefulPartitionedCall/hrnet-gaze/conv2d_53/Conv2D_bn_offset", "op": "Const", "attr": {"value": {"tensor": {"dtype": "DT_FLOAT", "tensorShape": {"dim": [{"size": "18"}]}}}, "dtype": {"type": "DT_FLOAT"}}}, {"name": "StatefulPartitionedCall/hrnet-gaze/conv2d_86/Conv2D_weights", "op": "Const", "attr": {"value": {"tensor": {"dtype": "DT_FLOAT", "tensorShape": {"dim": [{"size": "3"}, {"size": "3"}, {"size": "36"}, {"size": "36"}]}}}, "dtype": {"type": "DT_FLOAT"}}}, {"name": "StatefulPartitionedCall/hrnet-gaze/conv2d_86/Conv2D_bn_offset", "op": "Const", "attr": {"value": {"tensor": {"dtype": "DT_FLOAT", "tensorShape": {"dim": [{"size": "36"}]}}}, "dtype": {"type": "DT_FLOAT"}}}, {"name": "StatefulPartitionedCall/hrnet-gaze/conv2d_159/Conv2D_bn_offset", "op": "Const", "attr": {"value": {"tensor": {"dtype": "DT_FLOAT", "tensorShape": {"dim": [{"size": "18"}]}}}, "dtype": {"type": "DT_FLOAT"}}}, {"name": "StatefulPartitionedCall/hrnet-gaze/conv2d_87/Conv2D_weights", "op": "Const", "attr": {"dtype": {"type": "DT_FLOAT"}, "value": {"tensor": {"dtype": "DT_FLOAT", "tensorShape": {"dim": [{"size": "3"}, {"size": "3"}, {"size": "36"}, {"size": "36"}]}}}}}, {"name": "StatefulPartitionedCall/hrnet-gaze/conv2d_87/Conv2D_bn_offset", "op": "Const", "attr": {"value": {"tensor": {"dtype": "DT_FLOAT", "tensorShape": {"dim": [{"size": "36"}]}}}, "dtype": {"type": "DT_FLOAT"}}}, {"name": "StatefulPartitionedCall/hrnet-gaze/conv2d_118/Conv2D_weights", "op": "Const", "attr": {"value": {"tensor": {"dtype": "DT_FLOAT", "tensorShape": {"dim": [{"size": "3"}, {"size": "3"}, {"size": "72"}, {"size": "72"}]}}}, "dtype": {"type": "DT_FLOAT"}}}, {"name": "StatefulPartitionedCall/hrnet-gaze/conv2d_118/Conv2D_bn_offset", "op": "Const", "attr": {"value": {"tensor": {"dtype": "DT_FLOAT", "tensorShape": {"dim": [{"size": "72"}]}}}, "dtype": {"type": "DT_FLOAT"}}}, {"name": "StatefulPartitionedCall/hrnet-gaze/conv2d_208/Conv2D_weights", "op": "Const", "attr": {"dtype": {"type": "DT_FLOAT"}, "value": {"tensor": {"dtype": "DT_FLOAT", "tensorShape": {"dim": [{"size": "3"}, {"size": "3"}, {"size": "72"}, {"size": "72"}]}}}}}, {"name": "StatefulPartitionedCall/hrnet-gaze/conv2d_54/Conv2D_weights", "op": "Const", "attr": {"value": {"tensor": {"dtype": "DT_FLOAT", "tensorShape": {"dim": [{"size": "3"}, {"size": "3"}, {"size": "18"}, {"size": "18"}]}}}, "dtype": {"type": "DT_FLOAT"}}}, {"name": "StatefulPartitionedCall/hrnet-gaze/conv2d_54/Conv2D_bn_offset", "op": "Const", "attr": {"value": {"tensor": {"dtype": "DT_FLOAT", "tensorShape": {"dim": [{"size": "18"}]}}}, "dtype": {"type": "DT_FLOAT"}}}, {"name": "StatefulPartitionedCall/hrnet-gaze/conv2d_208/Conv2D_bn_offset", "op": "Const", "attr": {"dtype": {"type": "DT_FLOAT"}, "value": {"tensor": {"dtype": "DT_FLOAT", "tensorShape": {"dim": [{"size": "72"}]}}}}}, {"name": "StatefulPartitionedCall/hrnet-gaze/conv2d_119/Conv2D_weights", "op": "Const", "attr": {"dtype": {"type": "DT_FLOAT"}, "value": {"tensor": {"dtype": "DT_FLOAT", "tensorShape": {"dim": [{"size": "3"}, {"size": "3"}, {"size": "72"}, {"size": "72"}]}}}}}, {"name": "StatefulPartitionedCall/hrnet-gaze/conv2d_119/Conv2D_bn_offset", "op": "Const", "attr": {"value": {"tensor": {"dtype": "DT_FLOAT", "tensorShape": {"dim": [{"size": "72"}]}}}, "dtype": {"type": "DT_FLOAT"}}}, {"name": "StatefulPartitionedCall/hrnet-gaze/conv2d_55/Conv2D_weights", "op": "Const", "attr": {"value": {"tensor": {"dtype": "DT_FLOAT", "tensorShape": {"dim": [{"size": "3"}, {"size": "3"}, {"size": "18"}, {"size": "18"}]}}}, "dtype": {"type": "DT_FLOAT"}}}, {"name": "StatefulPartitionedCall/hrnet-gaze/conv2d_55/Conv2D_bn_offset", "op": "Const", "attr": {"value": {"tensor": {"dtype": "DT_FLOAT", "tensorShape": {"dim": [{"size": "18"}]}}}, "dtype": {"type": "DT_FLOAT"}}}, {"name": "StatefulPartitionedCall/hrnet-gaze/conv2d_88/Conv2D_weights", "op": "Const", "attr": {"value": {"tensor": {"dtype": "DT_FLOAT", "tensorShape": {"dim": [{"size": "3"}, {"size": "3"}, {"size": "36"}, {"size": "36"}]}}}, "dtype": {"type": "DT_FLOAT"}}}, {"name": "StatefulPartitionedCall/hrnet-gaze/conv2d_88/Conv2D_bn_offset", "op": "Const", "attr": {"value": {"tensor": {"dtype": "DT_FLOAT", "tensorShape": {"dim": [{"size": "36"}]}}}, "dtype": {"type": "DT_FLOAT"}}}, {"name": "StatefulPartitionedCall/hrnet-gaze/conv2d_231/Conv2D_weights", "op": "Const", "attr": {"value": {"tensor": {"dtype": "DT_FLOAT", "tensorShape": {"dim": [{"size": "3"}, {"size": "3"}, {"size": "144"}, {"size": "144"}]}}}, "dtype": {"type": "DT_FLOAT"}}}, {"name": "StatefulPartitionedCall/hrnet-gaze/conv2d_89/Conv2D_weights", "op": "Const", "attr": {"dtype": {"type": "DT_FLOAT"}, "value": {"tensor": {"dtype": "DT_FLOAT", "tensorShape": {"dim": [{"size": "3"}, {"size": "3"}, {"size": "36"}, {"size": "36"}]}}}}}, {"name": "StatefulPartitionedCall/hrnet-gaze/conv2d_239/Conv2D_weights", "op": "Const", "attr": {"dtype": {"type": "DT_FLOAT"}, "value": {"tensor": {"dtype": "DT_FLOAT", "tensorShape": {"dim": [{"size": "3"}, {"size": "3"}, {"size": "144"}, {"size": "144"}]}}}}}, {"name": "StatefulPartitionedCall/hrnet-gaze/conv2d_89/Conv2D_bn_offset", "op": "Const", "attr": {"dtype": {"type": "DT_FLOAT"}, "value": {"tensor": {"dtype": "DT_FLOAT", "tensorShape": {"dim": [{"size": "36"}]}}}}}, {"name": "StatefulPartitionedCall/hrnet-gaze/conv2d_120/Conv2D_weights", "op": "Const", "attr": {"dtype": {"type": "DT_FLOAT"}, "value": {"tensor": {"dtype": "DT_FLOAT", "tensorShape": {"dim": [{"size": "3"}, {"size": "3"}, {"size": "72"}, {"size": "72"}]}}}}}, {"name": "StatefulPartitionedCall/hrnet-gaze/conv2d_231/Conv2D_bn_offset", "op": "Const", "attr": {"dtype": {"type": "DT_FLOAT"}, "value": {"tensor": {"dtype": "DT_FLOAT", "tensorShape": {"dim": [{"size": "144"}]}}}}}, {"name": "StatefulPartitionedCall/hrnet-gaze/conv2d_120/Conv2D_bn_offset", "op": "Const", "attr": {"value": {"tensor": {"dtype": "DT_FLOAT", "tensorShape": {"dim": [{"size": "72"}]}}}, "dtype": {"type": "DT_FLOAT"}}}, {"name": "StatefulPartitionedCall/hrnet-gaze/conv2d_56/Conv2D_weights", "op": "Const", "attr": {"dtype": {"type": "DT_FLOAT"}, "value": {"tensor": {"dtype": "DT_FLOAT", "tensorShape": {"dim": [{"size": "3"}, {"size": "3"}, {"size": "18"}, {"size": "18"}]}}}}}, {"name": "StatefulPartitionedCall/hrnet-gaze/conv2d_56/Conv2D_bn_offset", "op": "Const", "attr": {"dtype": {"type": "DT_FLOAT"}, "value": {"tensor": {"dtype": "DT_FLOAT", "tensorShape": {"dim": [{"size": "18"}]}}}}}, {"name": "StatefulPartitionedCall/hrnet-gaze/conv2d_160/Conv2D_weights", "op": "Const", "attr": {"value": {"tensor": {"dtype": "DT_FLOAT", "tensorShape": {"dim": [{"size": "3"}, {"size": "3"}, {"size": "18"}, {"size": "18"}]}}}, "dtype": {"type": "DT_FLOAT"}}}, {"name": "StatefulPartitionedCall/hrnet-gaze/conv2d_121/Conv2D_weights", "op": "Const", "attr": {"dtype": {"type": "DT_FLOAT"}, "value": {"tensor": {"dtype": "DT_FLOAT", "tensorShape": {"dim": [{"size": "3"}, {"size": "3"}, {"size": "72"}, {"size": "72"}]}}}}}, {"name": "StatefulPartitionedCall/hrnet-gaze/conv2d_239/Conv2D_bn_offset", "op": "Const", "attr": {"dtype": {"type": "DT_FLOAT"}, "value": {"tensor": {"dtype": "DT_FLOAT", "tensorShape": {"dim": [{"size": "144"}]}}}}}, {"name": "StatefulPartitionedCall/hrnet-gaze/conv2d_121/Conv2D_bn_offset", "op": "Const", "attr": {"value": {"tensor": {"dtype": "DT_FLOAT", "tensorShape": {"dim": [{"size": "72"}]}}}, "dtype": {"type": "DT_FLOAT"}}}, {"name": "StatefulPartitionedCall/hrnet-gaze/conv2d_57/Conv2D_weights", "op": "Const", "attr": {"dtype": {"type": "DT_FLOAT"}, "value": {"tensor": {"dtype": "DT_FLOAT", "tensorShape": {"dim": [{"size": "3"}, {"size": "3"}, {"size": "18"}, {"size": "18"}]}}}}}, {"name": "StatefulPartitionedCall/hrnet-gaze/conv2d_160/Conv2D_bn_offset", "op": "Const", "attr": {"dtype": {"type": "DT_FLOAT"}, "value": {"tensor": {"dtype": "DT_FLOAT", "tensorShape": {"dim": [{"size": "18"}]}}}}}, {"name": "StatefulPartitionedCall/hrnet-gaze/conv2d_57/Conv2D_bn_offset", "op": "Const", "attr": {"value": {"tensor": {"dtype": "DT_FLOAT", "tensorShape": {"dim": [{"size": "18"}]}}}, "dtype": {"type": "DT_FLOAT"}}}, {"name": "StatefulPartitionedCall/hrnet-gaze/conv2d_90/Conv2D_weights", "op": "Const", "attr": {"dtype": {"type": "DT_FLOAT"}, "value": {"tensor": {"dtype": "DT_FLOAT", "tensorShape": {"dim": [{"size": "3"}, {"size": "3"}, {"size": "36"}, {"size": "36"}]}}}}}, {"name": "StatefulPartitionedCall/hrnet-gaze/conv2d_90/Conv2D_bn_offset", "op": "Const", "attr": {"dtype": {"type": "DT_FLOAT"}, "value": {"tensor": {"dtype": "DT_FLOAT", "tensorShape": {"dim": [{"size": "36"}]}}}}}, {"name": "StatefulPartitionedCall/hrnet-gaze/conv2d_91/Conv2D_weights", "op": "Const", "attr": {"dtype": {"type": "DT_FLOAT"}, "value": {"tensor": {"dtype": "DT_FLOAT", "tensorShape": {"dim": [{"size": "3"}, {"size": "3"}, {"size": "36"}, {"size": "36"}]}}}}}, {"name": "StatefulPartitionedCall/hrnet-gaze/conv2d_91/Conv2D_bn_offset", "op": "Const", "attr": {"value": {"tensor": {"dtype": "DT_FLOAT", "tensorShape": {"dim": [{"size": "36"}]}}}, "dtype": {"type": "DT_FLOAT"}}}, {"name": "StatefulPartitionedCall/hrnet-gaze/conv2d_122/Conv2D_weights", "op": "Const", "attr": {"dtype": {"type": "DT_FLOAT"}, "value": {"tensor": {"dtype": "DT_FLOAT", "tensorShape": {"dim": [{"size": "3"}, {"size": "3"}, {"size": "72"}, {"size": "72"}]}}}}}, {"name": "StatefulPartitionedCall/hrnet-gaze/conv2d_185/Conv2D_weights", "op": "Const", "attr": {"value": {"tensor": {"dtype": "DT_FLOAT", "tensorShape": {"dim": [{"size": "3"}, {"size": "3"}, {"size": "36"}, {"size": "36"}]}}}, "dtype": {"type": "DT_FLOAT"}}}, {"name": "StatefulPartitionedCall/hrnet-gaze/conv2d_122/Conv2D_bn_offset", "op": "Const", "attr": {"value": {"tensor": {"dtype": "DT_FLOAT", "tensorShape": {"dim": [{"size": "72"}]}}}, "dtype": {"type": "DT_FLOAT"}}}, {"name": "StatefulPartitionedCall/hrnet-gaze/conv2d_58/Conv2D_weights", "op": "Const", "attr": {"dtype": {"type": "DT_FLOAT"}, "value": {"tensor": {"dtype": "DT_FLOAT", "tensorShape": {"dim": [{"size": "3"}, {"size": "3"}, {"size": "18"}, {"size": "18"}]}}}}}, {"name": "StatefulPartitionedCall/hrnet-gaze/conv2d_185/Conv2D_bn_offset", "op": "Const", "attr": {"dtype": {"type": "DT_FLOAT"}, "value": {"tensor": {"dtype": "DT_FLOAT", "tensorShape": {"dim": [{"size": "36"}]}}}}}, {"name": "StatefulPartitionedCall/hrnet-gaze/conv2d_58/Conv2D_bn_offset", "op": "Const", "attr": {"value": {"tensor": {"dtype": "DT_FLOAT", "tensorShape": {"dim": [{"size": "18"}]}}}, "dtype": {"type": "DT_FLOAT"}}}, {"name": "StatefulPartitionedCall/hrnet-gaze/conv2d_123/Conv2D_weights", "op": "Const", "attr": {"value": {"tensor": {"dtype": "DT_FLOAT", "tensorShape": {"dim": [{"size": "3"}, {"size": "3"}, {"size": "72"}, {"size": "72"}]}}}, "dtype": {"type": "DT_FLOAT"}}}, {"name": "StatefulPartitionedCall/hrnet-gaze/conv2d_123/Conv2D_bn_offset", "op": "Const", "attr": {"dtype": {"type": "DT_FLOAT"}, "value": {"tensor": {"dtype": "DT_FLOAT", "tensorShape": {"dim": [{"size": "72"}]}}}}}, {"name": "StatefulPartitionedCall/hrnet-gaze/conv2d_59/Conv2D_weights", "op": "Const", "attr": {"dtype": {"type": "DT_FLOAT"}, "value": {"tensor": {"dtype": "DT_FLOAT", "tensorShape": {"dim": [{"size": "3"}, {"size": "3"}, {"size": "18"}, {"size": "18"}]}}}}}, {"name": "StatefulPartitionedCall/hrnet-gaze/conv2d_232/Conv2D_weights", "op": "Const", "attr": {"dtype": {"type": "DT_FLOAT"}, "value": {"tensor": {"dtype": "DT_FLOAT", "tensorShape": {"dim": [{"size": "3"}, {"size": "3"}, {"size": "144"}, {"size": "144"}]}}}}}, {"name": "StatefulPartitionedCall/hrnet-gaze/conv2d_59/Conv2D_bn_offset", "op": "Const", "attr": {"dtype": {"type": "DT_FLOAT"}, "value": {"tensor": {"dtype": "DT_FLOAT", "tensorShape": {"dim": [{"size": "18"}]}}}}}, {"name": "StatefulPartitionedCall/hrnet-gaze/conv2d_92/Conv2D_weights", "op": "Const", "attr": {"dtype": {"type": "DT_FLOAT"}, "value": {"tensor": {"dtype": "DT_FLOAT", "tensorShape": {"dim": [{"size": "3"}, {"size": "3"}, {"size": "36"}, {"size": "36"}]}}}}}, {"name": "StatefulPartitionedCall/hrnet-gaze/conv2d_168/Conv2D_weights", "op": "Const", "attr": {"dtype": {"type": "DT_FLOAT"}, "value": {"tensor": {"dtype": "DT_FLOAT", "tensorShape": {"dim": [{"size": "3"}, {"size": "3"}, {"size": "18"}, {"size": "18"}]}}}}}, {"name": "StatefulPartitionedCall/hrnet-gaze/conv2d_92/Conv2D_bn_offset", "op": "Const", "attr": {"dtype": {"type": "DT_FLOAT"}, "value": {"tensor": {"dtype": "DT_FLOAT", "tensorShape": {"dim": [{"size": "36"}]}}}}}, {"name": "StatefulPartitionedCall/hrnet-gaze/conv2d_232/Conv2D_bn_offset", "op": "Const", "attr": {"dtype": {"type": "DT_FLOAT"}, "value": {"tensor": {"dtype": "DT_FLOAT", "tensorShape": {"dim": [{"size": "144"}]}}}}}, {"name": "StatefulPartitionedCall/hrnet-gaze/conv2d_93/Conv2D_weights", "op": "Const", "attr": {"dtype": {"type": "DT_FLOAT"}, "value": {"tensor": {"dtype": "DT_FLOAT", "tensorShape": {"dim": [{"size": "3"}, {"size": "3"}, {"size": "36"}, {"size": "36"}]}}}}}, {"name": "StatefulPartitionedCall/hrnet-gaze/conv2d_93/Conv2D_bn_offset", "op": "Const", "attr": {"dtype": {"type": "DT_FLOAT"}, "value": {"tensor": {"dtype": "DT_FLOAT", "tensorShape": {"dim": [{"size": "36"}]}}}}}, {"name": "StatefulPartitionedCall/hrnet-gaze/conv2d_124/Conv2D_weights", "op": "Const", "attr": {"dtype": {"type": "DT_FLOAT"}, "value": {"tensor": {"dtype": "DT_FLOAT", "tensorShape": {"dim": [{"size": "3"}, {"size": "3"}, {"size": "72"}, {"size": "72"}]}}}}}, {"name": "StatefulPartitionedCall/hrnet-gaze/conv2d_124/Conv2D_bn_offset", "op": "Const", "attr": {"dtype": {"type": "DT_FLOAT"}, "value": {"tensor": {"dtype": "DT_FLOAT", "tensorShape": {"dim": [{"size": "72"}]}}}}}, {"name": "StatefulPartitionedCall/hrnet-gaze/conv2d_60/Conv2D_weights", "op": "Const", "attr": {"dtype": {"type": "DT_FLOAT"}, "value": {"tensor": {"dtype": "DT_FLOAT", "tensorShape": {"dim": [{"size": "3"}, {"size": "3"}, {"size": "18"}, {"size": "18"}]}}}}}, {"name": "StatefulPartitionedCall/hrnet-gaze/conv2d_186/Conv2D_weights", "op": "Const", "attr": {"value": {"tensor": {"dtype": "DT_FLOAT", "tensorShape": {"dim": [{"size": "3"}, {"size": "3"}, {"size": "36"}, {"size": "36"}]}}}, "dtype": {"type": "DT_FLOAT"}}}, {"name": "StatefulPartitionedCall/hrnet-gaze/conv2d_60/Conv2D_bn_offset", "op": "Const", "attr": {"dtype": {"type": "DT_FLOAT"}, "value": {"tensor": {"dtype": "DT_FLOAT", "tensorShape": {"dim": [{"size": "18"}]}}}}}, {"name": "StatefulPartitionedCall/hrnet-gaze/conv2d_125/Conv2D_weights", "op": "Const", "attr": {"dtype": {"type": "DT_FLOAT"}, "value": {"tensor": {"dtype": "DT_FLOAT", "tensorShape": {"dim": [{"size": "3"}, {"size": "3"}, {"size": "72"}, {"size": "72"}]}}}}}, {"name": "StatefulPartitionedCall/hrnet-gaze/conv2d_186/Conv2D_bn_offset", "op": "Const", "attr": {"dtype": {"type": "DT_FLOAT"}, "value": {"tensor": {"dtype": "DT_FLOAT", "tensorShape": {"dim": [{"size": "36"}]}}}}}, {"name": "StatefulPartitionedCall/hrnet-gaze/conv2d_125/Conv2D_bn_offset", "op": "Const", "attr": {"dtype": {"type": "DT_FLOAT"}, "value": {"tensor": {"dtype": "DT_FLOAT", "tensorShape": {"dim": [{"size": "72"}]}}}}}, {"name": "StatefulPartitionedCall/hrnet-gaze/conv2d_61/Conv2D_weights", "op": "Const", "attr": {"dtype": {"type": "DT_FLOAT"}, "value": {"tensor": {"dtype": "DT_FLOAT", "tensorShape": {"dim": [{"size": "3"}, {"size": "3"}, {"size": "18"}, {"size": "18"}]}}}}}, {"name": "StatefulPartitionedCall/hrnet-gaze/conv2d_61/Conv2D_bn_offset", "op": "Const", "attr": {"value": {"tensor": {"dtype": "DT_FLOAT", "tensorShape": {"dim": [{"size": "18"}]}}}, "dtype": {"type": "DT_FLOAT"}}}, {"name": "StatefulPartitionedCall/hrnet-gaze/conv2d_94/Conv2D_weights", "op": "Const", "attr": {"dtype": {"type": "DT_FLOAT"}, "value": {"tensor": {"dtype": "DT_FLOAT", "tensorShape": {"dim": [{"size": "3"}, {"size": "3"}, {"size": "36"}, {"size": "36"}]}}}}}, {"name": "StatefulPartitionedCall/hrnet-gaze/conv2d_94/Conv2D_bn_offset", "op": "Const", "attr": {"value": {"tensor": {"dtype": "DT_FLOAT", "tensorShape": {"dim": [{"size": "36"}]}}}, "dtype": {"type": "DT_FLOAT"}}}, {"name": "StatefulPartitionedCall/hrnet-gaze/conv2d_95/Conv2D_weights", "op": "Const", "attr": {"dtype": {"type": "DT_FLOAT"}, "value": {"tensor": {"dtype": "DT_FLOAT", "tensorShape": {"dim": [{"size": "3"}, {"size": "3"}, {"size": "36"}, {"size": "36"}]}}}}}, {"name": "StatefulPartitionedCall/hrnet-gaze/conv2d_209/Conv2D_weights", "op": "Const", "attr": {"dtype": {"type": "DT_FLOAT"}, "value": {"tensor": {"dtype": "DT_FLOAT", "tensorShape": {"dim": [{"size": "3"}, {"size": "3"}, {"size": "72"}, {"size": "72"}]}}}}}, {"name": "StatefulPartitionedCall/hrnet-gaze/conv2d_95/Conv2D_bn_offset", "op": "Const", "attr": {"dtype": {"type": "DT_FLOAT"}, "value": {"tensor": {"dtype": "DT_FLOAT", "tensorShape": {"dim": [{"size": "36"}]}}}}}, {"name": "StatefulPartitionedCall/hrnet-gaze/conv2d_126/Conv2D_weights", "op": "Const", "attr": {"value": {"tensor": {"dtype": "DT_FLOAT", "tensorShape": {"dim": [{"size": "3"}, {"size": "3"}, {"size": "72"}, {"size": "72"}]}}}, "dtype": {"type": "DT_FLOAT"}}}, {"name": "StatefulPartitionedCall/hrnet-gaze/conv2d_168/Conv2D_bn_offset", "op": "Const", "attr": {"dtype": {"type": "DT_FLOAT"}, "value": {"tensor": {"dtype": "DT_FLOAT", "tensorShape": {"dim": [{"size": "18"}]}}}}}, {"name": "StatefulPartitionedCall/hrnet-gaze/conv2d_126/Conv2D_bn_offset", "op": "Const", "attr": {"dtype": {"type": "DT_FLOAT"}, "value": {"tensor": {"dtype": "DT_FLOAT", "tensorShape": {"dim": [{"size": "72"}]}}}}}, {"name": "StatefulPartitionedCall/hrnet-gaze/conv2d_209/Conv2D_bn_offset", "op": "Const", "attr": {"dtype": {"type": "DT_FLOAT"}, "value": {"tensor": {"dtype": "DT_FLOAT", "tensorShape": {"dim": [{"size": "72"}]}}}}}, {"name": "StatefulPartitionedCall/hrnet-gaze/conv2d_62/Conv2D_weights", "op": "Const", "attr": {"dtype": {"type": "DT_FLOAT"}, "value": {"tensor": {"dtype": "DT_FLOAT", "tensorShape": {"dim": [{"size": "3"}, {"size": "3"}, {"size": "18"}, {"size": "18"}]}}}}}, {"name": "StatefulPartitionedCall/hrnet-gaze/conv2d_62/Conv2D_bn_offset", "op": "Const", "attr": {"dtype": {"type": "DT_FLOAT"}, "value": {"tensor": {"dtype": "DT_FLOAT", "tensorShape": {"dim": [{"size": "18"}]}}}}}, {"name": "StatefulPartitionedCall/hrnet-gaze/conv2d_127/Conv2D_weights", "op": "Const", "attr": {"dtype": {"type": "DT_FLOAT"}, "value": {"tensor": {"dtype": "DT_FLOAT", "tensorShape": {"dim": [{"size": "3"}, {"size": "3"}, {"size": "72"}, {"size": "72"}]}}}}}, {"name": "StatefulPartitionedCall/hrnet-gaze/conv2d_161/Conv2D_weights", "op": "Const", "attr": {"dtype": {"type": "DT_FLOAT"}, "value": {"tensor": {"dtype": "DT_FLOAT", "tensorShape": {"dim": [{"size": "3"}, {"size": "3"}, {"size": "18"}, {"size": "18"}]}}}}}, {"name": "StatefulPartitionedCall/hrnet-gaze/conv2d_127/Conv2D_bn_offset", "op": "Const", "attr": {"dtype": {"type": "DT_FLOAT"}, "value": {"tensor": {"dtype": "DT_FLOAT", "tensorShape": {"dim": [{"size": "72"}]}}}}}, {"name": "StatefulPartitionedCall/hrnet-gaze/conv2d_63/Conv2D_weights", "op": "Const", "attr": {"dtype": {"type": "DT_FLOAT"}, "value": {"tensor": {"dtype": "DT_FLOAT", "tensorShape": {"dim": [{"size": "3"}, {"size": "3"}, {"size": "18"}, {"size": "18"}]}}}}}, {"name": "StatefulPartitionedCall/hrnet-gaze/conv2d_63/Conv2D_bn_offset", "op": "Const", "attr": {"dtype": {"type": "DT_FLOAT"}, "value": {"tensor": {"dtype": "DT_FLOAT", "tensorShape": {"dim": [{"size": "18"}]}}}}}, {"name": "StatefulPartitionedCall/hrnet-gaze/conv2d_96/Conv2D_weights", "op": "Const", "attr": {"dtype": {"type": "DT_FLOAT"}, "value": {"tensor": {"dtype": "DT_FLOAT", "tensorShape": {"dim": [{"size": "3"}, {"size": "3"}, {"size": "36"}, {"size": "36"}]}}}}}, {"name": "StatefulPartitionedCall/hrnet-gaze/conv2d_161/Conv2D_bn_offset", "op": "Const", "attr": {"dtype": {"type": "DT_FLOAT"}, "value": {"tensor": {"dtype": "DT_FLOAT", "tensorShape": {"dim": [{"size": "18"}]}}}}}, {"name": "StatefulPartitionedCall/hrnet-gaze/conv2d_96/Conv2D_bn_offset", "op": "Const", "attr": {"dtype": {"type": "DT_FLOAT"}, "value": {"tensor": {"dtype": "DT_FLOAT", "tensorShape": {"dim": [{"size": "36"}]}}}}}, {"name": "StatefulPartitionedCall/hrnet-gaze/conv2d_97/Conv2D_weights", "op": "Const", "attr": {"value": {"tensor": {"dtype": "DT_FLOAT", "tensorShape": {"dim": [{"size": "3"}, {"size": "3"}, {"size": "36"}, {"size": "36"}]}}}, "dtype": {"type": "DT_FLOAT"}}}, {"name": "StatefulPartitionedCall/hrnet-gaze/conv2d_97/Conv2D_bn_offset", "op": "Const", "attr": {"dtype": {"type": "DT_FLOAT"}, "value": {"tensor": {"dtype": "DT_FLOAT", "tensorShape": {"dim": [{"size": "36"}]}}}}}, {"name": "StatefulPartitionedCall/hrnet-gaze/conv2d_128/Conv2D_weights", "op": "Const", "attr": {"dtype": {"type": "DT_FLOAT"}, "value": {"tensor": {"dtype": "DT_FLOAT", "tensorShape": {"dim": [{"size": "3"}, {"size": "3"}, {"size": "72"}, {"size": "72"}]}}}}}, {"name": "StatefulPartitionedCall/hrnet-gaze/conv2d_210/Conv2D_weights", "op": "Const", "attr": {"dtype": {"type": "DT_FLOAT"}, "value": {"tensor": {"dtype": "DT_FLOAT", "tensorShape": {"dim": [{"size": "3"}, {"size": "3"}, {"size": "72"}, {"size": "72"}]}}}}}, {"name": "StatefulPartitionedCall/hrnet-gaze/conv2d_128/Conv2D_bn_offset", "op": "Const", "attr": {"dtype": {"type": "DT_FLOAT"}, "value": {"tensor": {"dtype": "DT_FLOAT", "tensorShape": {"dim": [{"size": "72"}]}}}}}, {"name": "StatefulPartitionedCall/hrnet-gaze/conv2d_240/Conv2D_weights", "op": "Const", "attr": {"dtype": {"type": "DT_FLOAT"}, "value": {"tensor": {"dtype": "DT_FLOAT", "tensorShape": {"dim": [{"size": "3"}, {"size": "3"}, {"size": "144"}, {"size": "144"}]}}}}}, {"name": "StatefulPartitionedCall/hrnet-gaze/conv2d_64/Conv2D_weights", "op": "Const", "attr": {"dtype": {"type": "DT_FLOAT"}, "value": {"tensor": {"dtype": "DT_FLOAT", "tensorShape": {"dim": [{"size": "3"}, {"size": "3"}, {"size": "18"}, {"size": "18"}]}}}}}, {"name": "StatefulPartitionedCall/hrnet-gaze/conv2d_210/Conv2D_bn_offset", "op": "Const", "attr": {"value": {"tensor": {"dtype": "DT_FLOAT", "tensorShape": {"dim": [{"size": "72"}]}}}, "dtype": {"type": "DT_FLOAT"}}}, {"name": "StatefulPartitionedCall/hrnet-gaze/conv2d_64/Conv2D_bn_offset", "op": "Const", "attr": {"value": {"tensor": {"dtype": "DT_FLOAT", "tensorShape": {"dim": [{"size": "18"}]}}}, "dtype": {"type": "DT_FLOAT"}}}, {"name": "StatefulPartitionedCall/hrnet-gaze/conv2d_129/Conv2D_weights", "op": "Const", "attr": {"dtype": {"type": "DT_FLOAT"}, "value": {"tensor": {"dtype": "DT_FLOAT", "tensorShape": {"dim": [{"size": "3"}, {"size": "3"}, {"size": "72"}, {"size": "72"}]}}}}}, {"name": "StatefulPartitionedCall/hrnet-gaze/conv2d_129/Conv2D_bn_offset", "op": "Const", "attr": {"dtype": {"type": "DT_FLOAT"}, "value": {"tensor": {"dtype": "DT_FLOAT", "tensorShape": {"dim": [{"size": "72"}]}}}}}, {"name": "StatefulPartitionedCall/hrnet-gaze/conv2d_65/Conv2D_weights", "op": "Const", "attr": {"value": {"tensor": {"dtype": "DT_FLOAT", "tensorShape": {"dim": [{"size": "3"}, {"size": "3"}, {"size": "18"}, {"size": "18"}]}}}, "dtype": {"type": "DT_FLOAT"}}}, {"name": "StatefulPartitionedCall/hrnet-gaze/conv2d_65/Conv2D_bn_offset", "op": "Const", "attr": {"value": {"tensor": {"dtype": "DT_FLOAT", "tensorShape": {"dim": [{"size": "18"}]}}}, "dtype": {"type": "DT_FLOAT"}}}, {"name": "StatefulPartitionedCall/hrnet-gaze/conv2d_98/Conv2D_weights", "op": "Const", "attr": {"dtype": {"type": "DT_FLOAT"}, "value": {"tensor": {"dtype": "DT_FLOAT", "tensorShape": {"dim": [{"size": "3"}, {"size": "3"}, {"size": "36"}, {"size": "36"}]}}}}}, {"name": "StatefulPartitionedCall/hrnet-gaze/conv2d_233/Conv2D_weights", "op": "Const", "attr": {"value": {"tensor": {"dtype": "DT_FLOAT", "tensorShape": {"dim": [{"size": "3"}, {"size": "3"}, {"size": "144"}, {"size": "144"}]}}}, "dtype": {"type": "DT_FLOAT"}}}, {"name": "StatefulPartitionedCall/hrnet-gaze/conv2d_98/Conv2D_bn_offset", "op": "Const", "attr": {"dtype": {"type": "DT_FLOAT"}, "value": {"tensor": {"dtype": "DT_FLOAT", "tensorShape": {"dim": [{"size": "36"}]}}}}}, {"name": "StatefulPartitionedCall/hrnet-gaze/batch_normalization_38/FusedBatchNormV3/Scaled", "op": "Const", "attr": {"dtype": {"type": "DT_FLOAT"}, "value": {"tensor": {"dtype": "DT_FLOAT", "tensorShape": {"dim": [{"size": "18"}]}}}}}, {"name": "StatefulPartitionedCall/hrnet-gaze/conv2d_99/Conv2D_weights", "op": "Const", "attr": {"dtype": {"type": "DT_FLOAT"}, "value": {"tensor": {"dtype": "DT_FLOAT", "tensorShape": {"dim": [{"size": "3"}, {"size": "3"}, {"size": "36"}, {"size": "36"}]}}}}}, {"name": "StatefulPartitionedCall/hrnet-gaze/conv2d_233/Conv2D_bn_offset", "op": "Const", "attr": {"value": {"tensor": {"dtype": "DT_FLOAT", "tensorShape": {"dim": [{"size": "144"}]}}}, "dtype": {"type": "DT_FLOAT"}}}, {"name": "StatefulPartitionedCall/hrnet-gaze/conv2d_99/Conv2D_bn_offset", "op": "Const", "attr": {"dtype": {"type": "DT_FLOAT"}, "value": {"tensor": {"dtype": "DT_FLOAT", "tensorShape": {"dim": [{"size": "36"}]}}}}}, {"name": "StatefulPartitionedCall/hrnet-gaze/conv2d_130/Conv2D_weights", "op": "Const", "attr": {"dtype": {"type": "DT_FLOAT"}, "value": {"tensor": {"dtype": "DT_FLOAT", "tensorShape": {"dim": [{"size": "3"}, {"size": "3"}, {"size": "72"}, {"size": "72"}]}}}}}, {"name": "StatefulPartitionedCall/hrnet-gaze/conv2d_240/Conv2D_bn_offset", "op": "Const", "attr": {"dtype": {"type": "DT_FLOAT"}, "value": {"tensor": {"dtype": "DT_FLOAT", "tensorShape": {"dim": [{"size": "144"}]}}}}}, {"name": "StatefulPartitionedCall/hrnet-gaze/conv2d_130/Conv2D_bn_offset", "op": "Const", "attr": {"value": {"tensor": {"dtype": "DT_FLOAT", "tensorShape": {"dim": [{"size": "72"}]}}}, "dtype": {"type": "DT_FLOAT"}}}, {"name": "StatefulPartitionedCall/hrnet-gaze/conv2d_66/Conv2D_weights", "op": "Const", "attr": {"value": {"tensor": {"dtype": "DT_FLOAT", "tensorShape": {"dim": [{"size": "3"}, {"size": "3"}, {"size": "18"}, {"size": "18"}]}}}, "dtype": {"type": "DT_FLOAT"}}}, {"name": "StatefulPartitionedCall/hrnet-gaze/conv2d_162/Conv2D_weights", "op": "Const", "attr": {"value": {"tensor": {"dtype": "DT_FLOAT", "tensorShape": {"dim": [{"size": "3"}, {"size": "3"}, {"size": "18"}, {"size": "18"}]}}}, "dtype": {"type": "DT_FLOAT"}}}, {"name": "StatefulPartitionedCall/hrnet-gaze/conv2d_66/Conv2D_bn_offset", "op": "Const", "attr": {"value": {"tensor": {"dtype": "DT_FLOAT", "tensorShape": {"dim": [{"size": "18"}]}}}, "dtype": {"type": "DT_FLOAT"}}}, {"name": "StatefulPartitionedCall/hrnet-gaze/conv2d_131/Conv2D_weights", "op": "Const", "attr": {"dtype": {"type": "DT_FLOAT"}, "value": {"tensor": {"dtype": "DT_FLOAT", "tensorShape": {"dim": [{"size": "3"}, {"size": "3"}, {"size": "72"}, {"size": "72"}]}}}}}, {"name": "StatefulPartitionedCall/hrnet-gaze/conv2d_162/Conv2D_bn_offset", "op": "Const", "attr": {"value": {"tensor": {"dtype": "DT_FLOAT", "tensorShape": {"dim": [{"size": "18"}]}}}, "dtype": {"type": "DT_FLOAT"}}}, {"name": "StatefulPartitionedCall/hrnet-gaze/conv2d_131/Conv2D_bn_offset", "op": "Const", "attr": {"dtype": {"type": "DT_FLOAT"}, "value": {"tensor": {"dtype": "DT_FLOAT", "tensorShape": {"dim": [{"size": "72"}]}}}}}, {"name": "StatefulPartitionedCall/hrnet-gaze/conv2d_67/Conv2D_weights", "op": "Const", "attr": {"value": {"tensor": {"dtype": "DT_FLOAT", "tensorShape": {"dim": [{"size": "3"}, {"size": "3"}, {"size": "18"}, {"size": "18"}]}}}, "dtype": {"type": "DT_FLOAT"}}}, {"name": "StatefulPartitionedCall/hrnet-gaze/conv2d_67/Conv2D_bn_offset", "op": "Const", "attr": {"dtype": {"type": "DT_FLOAT"}, "value": {"tensor": {"dtype": "DT_FLOAT", "tensorShape": {"dim": [{"size": "18"}]}}}}}, {"name": "StatefulPartitionedCall/hrnet-gaze/conv2d_100/Conv2D_weights", "op": "Const", "attr": {"value": {"tensor": {"dtype": "DT_FLOAT", "tensorShape": {"dim": [{"size": "3"}, {"size": "3"}, {"size": "36"}, {"size": "36"}]}}}, "dtype": {"type": "DT_FLOAT"}}}, {"name": "StatefulPartitionedCall/hrnet-gaze/conv2d_100/Conv2D_bn_offset", "op": "Const", "attr": {"dtype": {"type": "DT_FLOAT"}, "value": {"tensor": {"dtype": "DT_FLOAT", "tensorShape": {"dim": [{"size": "36"}]}}}}}, {"name": "StatefulPartitionedCall/hrnet-gaze/conv2d_101/Conv2D_weights", "op": "Const", "attr": {"dtype": {"type": "DT_FLOAT"}, "value": {"tensor": {"dtype": "DT_FLOAT", "tensorShape": {"dim": [{"size": "3"}, {"size": "3"}, {"size": "36"}, {"size": "36"}]}}}}}, {"name": "StatefulPartitionedCall/hrnet-gaze/conv2d_187/Conv2D_weights", "op": "Const", "attr": {"dtype": {"type": "DT_FLOAT"}, "value": {"tensor": {"dtype": "DT_FLOAT", "tensorShape": {"dim": [{"size": "3"}, {"size": "3"}, {"size": "36"}, {"size": "36"}]}}}}}, {"name": "StatefulPartitionedCall/hrnet-gaze/conv2d_101/Conv2D_bn_offset", "op": "Const", "attr": {"dtype": {"type": "DT_FLOAT"}, "value": {"tensor": {"dtype": "DT_FLOAT", "tensorShape": {"dim": [{"size": "36"}]}}}}}, {"name": "StatefulPartitionedCall/hrnet-gaze/conv2d_132/Conv2D_weights", "op": "Const", "attr": {"value": {"tensor": {"dtype": "DT_FLOAT", "tensorShape": {"dim": [{"size": "3"}, {"size": "3"}, {"size": "72"}, {"size": "72"}]}}}, "dtype": {"type": "DT_FLOAT"}}}, {"name": "StatefulPartitionedCall/hrnet-gaze/conv2d_132/Conv2D_bn_offset", "op": "Const", "attr": {"value": {"tensor": {"dtype": "DT_FLOAT", "tensorShape": {"dim": [{"size": "72"}]}}}, "dtype": {"type": "DT_FLOAT"}}}, {"name": "StatefulPartitionedCall/hrnet-gaze/conv2d_187/Conv2D_bn_offset", "op": "Const", "attr": {"dtype": {"type": "DT_FLOAT"}, "value": {"tensor": {"dtype": "DT_FLOAT", "tensorShape": {"dim": [{"size": "36"}]}}}}}, {"name": "StatefulPartitionedCall/hrnet-gaze/conv2d_68/Conv2D_weights", "op": "Const", "attr": {"dtype": {"type": "DT_FLOAT"}, "value": {"tensor": {"dtype": "DT_FLOAT", "tensorShape": {"dim": [{"size": "3"}, {"size": "3"}, {"size": "18"}, {"size": "18"}]}}}}}, {"name": "StatefulPartitionedCall/hrnet-gaze/conv2d_68/Conv2D_bn_offset", "op": "Const", "attr": {"dtype": {"type": "DT_FLOAT"}, "value": {"tensor": {"dtype": "DT_FLOAT", "tensorShape": {"dim": [{"size": "18"}]}}}}}, {"name": "StatefulPartitionedCall/hrnet-gaze/conv2d_133/Conv2D_weights", "op": "Const", "attr": {"dtype": {"type": "DT_FLOAT"}, "value": {"tensor": {"dtype": "DT_FLOAT", "tensorShape": {"dim": [{"size": "3"}, {"size": "3"}, {"size": "72"}, {"size": "72"}]}}}}}, {"name": "StatefulPartitionedCall/hrnet-gaze/conv2d_234/Conv2D_weights", "op": "Const", "attr": {"value": {"tensor": {"dtype": "DT_FLOAT", "tensorShape": {"dim": [{"size": "3"}, {"size": "3"}, {"size": "144"}, {"size": "144"}]}}}, "dtype": {"type": "DT_FLOAT"}}}, {"name": "StatefulPartitionedCall/hrnet-gaze/conv2d_133/Conv2D_bn_offset", "op": "Const", "attr": {"dtype": {"type": "DT_FLOAT"}, "value": {"tensor": {"dtype": "DT_FLOAT", "tensorShape": {"dim": [{"size": "72"}]}}}}}, {"name": "StatefulPartitionedCall/hrnet-gaze/conv2d_69/Conv2D_weights", "op": "Const", "attr": {"dtype": {"type": "DT_FLOAT"}, "value": {"tensor": {"dtype": "DT_FLOAT", "tensorShape": {"dim": [{"size": "3"}, {"size": "3"}, {"size": "18"}, {"size": "18"}]}}}}}, {"name": "StatefulPartitionedCall/hrnet-gaze/conv2d_69/Conv2D_bn_offset", "op": "Const", "attr": {"dtype": {"type": "DT_FLOAT"}, "value": {"tensor": {"dtype": "DT_FLOAT", "tensorShape": {"dim": [{"size": "18"}]}}}}}, {"name": "StatefulPartitionedCall/hrnet-gaze/conv2d_102/Conv2D_weights", "op": "Const", "attr": {"value": {"tensor": {"dtype": "DT_FLOAT", "tensorShape": {"dim": [{"size": "3"}, {"size": "3"}, {"size": "36"}, {"size": "36"}]}}}, "dtype": {"type": "DT_FLOAT"}}}, {"name": "StatefulPartitionedCall/hrnet-gaze/conv2d_234/Conv2D_bn_offset", "op": "Const", "attr": {"dtype": {"type": "DT_FLOAT"}, "value": {"tensor": {"dtype": "DT_FLOAT", "tensorShape": {"dim": [{"size": "144"}]}}}}}, {"name": "StatefulPartitionedCall/hrnet-gaze/conv2d_102/Conv2D_bn_offset", "op": "Const", "attr": {"dtype": {"type": "DT_FLOAT"}, "value": {"tensor": {"dtype": "DT_FLOAT", "tensorShape": {"dim": [{"size": "36"}]}}}}}, {"name": "StatefulPartitionedCall/hrnet-gaze/conv2d_103/Conv2D_weights", "op": "Const", "attr": {"dtype": {"type": "DT_FLOAT"}, "value": {"tensor": {"dtype": "DT_FLOAT", "tensorShape": {"dim": [{"size": "3"}, {"size": "3"}, {"size": "36"}, {"size": "36"}]}}}}}, {"name": "StatefulPartitionedCall/hrnet-gaze/conv2d_103/Conv2D_bn_offset", "op": "Const", "attr": {"dtype": {"type": "DT_FLOAT"}, "value": {"tensor": {"dtype": "DT_FLOAT", "tensorShape": {"dim": [{"size": "36"}]}}}}}, {"name": "StatefulPartitionedCall/hrnet-gaze/conv2d_134/Conv2D_weights", "op": "Const", "attr": {"value": {"tensor": {"dtype": "DT_FLOAT", "tensorShape": {"dim": [{"size": "3"}, {"size": "3"}, {"size": "72"}, {"size": "72"}]}}}, "dtype": {"type": "DT_FLOAT"}}}, {"name": "StatefulPartitionedCall/hrnet-gaze/conv2d_188/Conv2D_weights", "op": "Const", "attr": {"dtype": {"type": "DT_FLOAT"}, "value": {"tensor": {"dtype": "DT_FLOAT", "tensorShape": {"dim": [{"size": "3"}, {"size": "3"}, {"size": "36"}, {"size": "36"}]}}}}}, {"name": "StatefulPartitionedCall/hrnet-gaze/conv2d_134/Conv2D_bn_offset", "op": "Const", "attr": {"value": {"tensor": {"dtype": "DT_FLOAT", "tensorShape": {"dim": [{"size": "72"}]}}}, "dtype": {"type": "DT_FLOAT"}}}, {"name": "StatefulPartitionedCall/hrnet-gaze/conv2d_70/Conv2D_weights", "op": "Const", "attr": {"value": {"tensor": {"dtype": "DT_FLOAT", "tensorShape": {"dim": [{"size": "3"}, {"size": "3"}, {"size": "18"}, {"size": "18"}]}}}, "dtype": {"type": "DT_FLOAT"}}}, {"name": "StatefulPartitionedCall/hrnet-gaze/conv2d_188/Conv2D_bn_offset", "op": "Const", "attr": {"dtype": {"type": "DT_FLOAT"}, "value": {"tensor": {"dtype": "DT_FLOAT", "tensorShape": {"dim": [{"size": "36"}]}}}}}, {"name": "StatefulPartitionedCall/hrnet-gaze/conv2d_70/Conv2D_bn_offset", "op": "Const", "attr": {"dtype": {"type": "DT_FLOAT"}, "value": {"tensor": {"dtype": "DT_FLOAT", "tensorShape": {"dim": [{"size": "18"}]}}}}}, {"name": "StatefulPartitionedCall/hrnet-gaze/conv2d_135/Conv2D_weights", "op": "Const", "attr": {"dtype": {"type": "DT_FLOAT"}, "value": {"tensor": {"dtype": "DT_FLOAT", "tensorShape": {"dim": [{"size": "3"}, {"size": "3"}, {"size": "72"}, {"size": "72"}]}}}}}, {"name": "StatefulPartitionedCall/hrnet-gaze/conv2d_135/Conv2D_bn_offset", "op": "Const", "attr": {"dtype": {"type": "DT_FLOAT"}, "value": {"tensor": {"dtype": "DT_FLOAT", "tensorShape": {"dim": [{"size": "72"}]}}}}}, {"name": "StatefulPartitionedCall/hrnet-gaze/conv2d_211/Conv2D_weights", "op": "Const", "attr": {"dtype": {"type": "DT_FLOAT"}, "value": {"tensor": {"dtype": "DT_FLOAT", "tensorShape": {"dim": [{"size": "3"}, {"size": "3"}, {"size": "72"}, {"size": "72"}]}}}}}, {"name": "StatefulPartitionedCall/hrnet-gaze/conv2d_71/Conv2D_weights", "op": "Const", "attr": {"value": {"tensor": {"dtype": "DT_FLOAT", "tensorShape": {"dim": [{"size": "3"}, {"size": "3"}, {"size": "18"}, {"size": "18"}]}}}, "dtype": {"type": "DT_FLOAT"}}}, {"name": "StatefulPartitionedCall/hrnet-gaze/conv2d_241/Conv2D_weights", "op": "Const", "attr": {"value": {"tensor": {"dtype": "DT_FLOAT", "tensorShape": {"dim": [{"size": "1"}, {"size": "1"}, {"size": "270"}, {"size": "270"}]}}}, "dtype": {"type": "DT_FLOAT"}}}, {"name": "StatefulPartitionedCall/hrnet-gaze/conv2d_71/Conv2D_bn_offset", "op": "Const", "attr": {"dtype": {"type": "DT_FLOAT"}, "value": {"tensor": {"dtype": "DT_FLOAT", "tensorShape": {"dim": [{"size": "18"}]}}}}}, {"name": "StatefulPartitionedCall/hrnet-gaze/conv2d_140/Conv2D_weights", "op": "Const", "attr": {"value": {"tensor": {"dtype": "DT_FLOAT", "tensorShape": {"dim": [{"size": "3"}, {"size": "3"}, {"size": "36"}, {"size": "72"}]}}}, "dtype": {"type": "DT_FLOAT"}}}, {"name": "StatefulPartitionedCall/hrnet-gaze/conv2d_211/Conv2D_bn_offset", "op": "Const", "attr": {"dtype": {"type": "DT_FLOAT"}, "value": {"tensor": {"dtype": "DT_FLOAT", "tensorShape": {"dim": [{"size": "72"}]}}}}}, {"name": "StatefulPartitionedCall/hrnet-gaze/conv2d_140/Conv2D_bn_offset", "op": "Const", "attr": {"value": {"tensor": {"dtype": "DT_FLOAT", "tensorShape": {"dim": [{"size": "72"}]}}}, "dtype": {"type": "DT_FLOAT"}}}, {"name": "StatefulPartitionedCall/hrnet-gaze/conv2d_141/Conv2D_weights", "op": "Const", "attr": {"dtype": {"type": "DT_FLOAT"}, "value": {"tensor": {"dtype": "DT_FLOAT", "tensorShape": {"dim": [{"size": "3"}, {"size": "3"}, {"size": "72"}, {"size": "144"}]}}}}}, {"name": "StatefulPartitionedCall/hrnet-gaze/conv2d_141/Conv2D_bn_offset", "op": "Const", "attr": {"dtype": {"type": "DT_FLOAT"}, "value": {"tensor": {"dtype": "DT_FLOAT", "tensorShape": {"dim": [{"size": "144"}]}}}}}, {"name": "StatefulPartitionedCall/hrnet-gaze/conv2d_163/Conv2D_weights", "op": "Const", "attr": {"value": {"tensor": {"dtype": "DT_FLOAT", "tensorShape": {"dim": [{"size": "3"}, {"size": "3"}, {"size": "18"}, {"size": "18"}]}}}, "dtype": {"type": "DT_FLOAT"}}}, {"name": "StatefulPartitionedCall/hrnet-gaze/conv2d_144/Conv2D_weights", "op": "Const", "attr": {"dtype": {"type": "DT_FLOAT"}, "value": {"tensor": {"dtype": "DT_FLOAT", "tensorShape": {"dim": [{"size": "3"}, {"size": "3"}, {"size": "72"}, {"size": "144"}]}}}}}, {"name": "StatefulPartitionedCall/hrnet-gaze/conv2d_241/Conv2D_bn_offset", "op": "Const", "attr": {"dtype": {"type": "DT_FLOAT"}, "value": {"tensor": {"dtype": "DT_FLOAT", "tensorShape": {"dim": [{"size": "270"}]}}}}}, {"name": "StatefulPartitionedCall/hrnet-gaze/conv2d_144/Conv2D_bn_offset", "op": "Const", "attr": {"value": {"tensor": {"dtype": "DT_FLOAT", "tensorShape": {"dim": [{"size": "144"}]}}}, "dtype": {"type": "DT_FLOAT"}}}, {"name": "StatefulPartitionedCall/hrnet-gaze/conv2d_163/Conv2D_bn_offset", "op": "Const", "attr": {"value": {"tensor": {"dtype": "DT_FLOAT", "tensorShape": {"dim": [{"size": "18"}]}}}, "dtype": {"type": "DT_FLOAT"}}}, {"name": "StatefulPartitionedCall/hrnet-gaze/conv2d_136/Conv2D_weights", "op": "Const", "attr": {"dtype": {"type": "DT_FLOAT"}, "value": {"tensor": {"dtype": "DT_FLOAT", "tensorShape": {"dim": [{"size": "3"}, {"size": "3"}, {"size": "18"}, {"size": "36"}]}}}}}, {"name": "StatefulPartitionedCall/hrnet-gaze/conv2d_136/Conv2D_bn_offset", "op": "Const", "attr": {"value": {"tensor": {"dtype": "DT_FLOAT", "tensorShape": {"dim": [{"size": "36"}]}}}, "dtype": {"type": "DT_FLOAT"}}}, {"name": "StatefulPartitionedCall/hrnet-gaze/conv2d_137/Conv2D_weights", "op": "Const", "attr": {"dtype": {"type": "DT_FLOAT"}, "value": {"tensor": {"dtype": "DT_FLOAT", "tensorShape": {"dim": [{"size": "3"}, {"size": "3"}, {"size": "36"}, {"size": "72"}]}}}}}, {"name": "StatefulPartitionedCall/hrnet-gaze/conv2d_212/Conv2D_weights", "op": "Const", "attr": {"dtype": {"type": "DT_FLOAT"}, "value": {"tensor": {"dtype": "DT_FLOAT", "tensorShape": {"dim": [{"size": "3"}, {"size": "3"}, {"size": "72"}, {"size": "72"}]}}}}}, {"name": "StatefulPartitionedCall/hrnet-gaze/conv2d_137/Conv2D_bn_offset", "op": "Const", "attr": {"value": {"tensor": {"dtype": "DT_FLOAT", "tensorShape": {"dim": [{"size": "72"}]}}}, "dtype": {"type": "DT_FLOAT"}}}, {"name": "StatefulPartitionedCall/hrnet-gaze/conv2d_169/Conv2D_weights", "op": "Const", "attr": {"value": {"tensor": {"dtype": "DT_FLOAT", "tensorShape": {"dim": [{"size": "3"}, {"size": "3"}, {"size": "36"}, {"size": "36"}]}}}, "dtype": {"type": "DT_FLOAT"}}}, {"name": "StatefulPartitionedCall/hrnet-gaze/conv2d_212/Conv2D_bn_offset", "op": "Const", "attr": {"dtype": {"type": "DT_FLOAT"}, "value": {"tensor": {"dtype": "DT_FLOAT", "tensorShape": {"dim": [{"size": "72"}]}}}}}, {"name": "StatefulPartitionedCall/hrnet-gaze/conv2d_169/Conv2D_bn_offset", "op": "Const", "attr": {"dtype": {"type": "DT_FLOAT"}, "value": {"tensor": {"dtype": "DT_FLOAT", "tensorShape": {"dim": [{"size": "36"}]}}}}}, {"name": "StatefulPartitionedCall/hrnet-gaze/conv2d_138/Conv2D_weights", "op": "Const", "attr": {"dtype": {"type": "DT_FLOAT"}, "value": {"tensor": {"dtype": "DT_FLOAT", "tensorShape": {"dim": [{"size": "3"}, {"size": "3"}, {"size": "72"}, {"size": "144"}]}}}}}, {"name": "StatefulPartitionedCall/hrnet-gaze/conv2d_138/Conv2D_bn_offset", "op": "Const", "attr": {"dtype": {"type": "DT_FLOAT"}, "value": {"tensor": {"dtype": "DT_FLOAT", "tensorShape": {"dim": [{"size": "144"}]}}}}}, {"name": "StatefulPartitionedCall/hrnet-gaze/conv2d_170/Conv2D_weights", "op": "Const", "attr": {"dtype": {"type": "DT_FLOAT"}, "value": {"tensor": {"dtype": "DT_FLOAT", "tensorShape": {"dim": [{"size": "3"}, {"size": "3"}, {"size": "36"}, {"size": "36"}]}}}}}, {"name": "StatefulPartitionedCall/hrnet-gaze/conv2d_235/Conv2D_weights", "op": "Const", "attr": {"dtype": {"type": "DT_FLOAT"}, "value": {"tensor": {"dtype": "DT_FLOAT", "tensorShape": {"dim": [{"size": "3"}, {"size": "3"}, {"size": "144"}, {"size": "144"}]}}}}}, {"name": "StatefulPartitionedCall/hrnet-gaze/conv2d_170/Conv2D_bn_offset", "op": "Const", "attr": {"value": {"tensor": {"dtype": "DT_FLOAT", "tensorShape": {"dim": [{"size": "36"}]}}}, "dtype": {"type": "DT_FLOAT"}}}, {"name": "StatefulPartitionedCall/hrnet-gaze/conv2d_193/Conv2D_weights", "op": "Const", "attr": {"dtype": {"type": "DT_FLOAT"}, "value": {"tensor": {"dtype": "DT_FLOAT", "tensorShape": {"dim": [{"size": "3"}, {"size": "3"}, {"size": "72"}, {"size": "72"}]}}}}}, {"name": "StatefulPartitionedCall/hrnet-gaze/batch_normalization_38/FusedBatchNormV3/Offset", "op": "Const", "attr": {"value": {"tensor": {"dtype": "DT_FLOAT", "tensorShape": {"dim": [{"size": "18"}]}}}, "dtype": {"type": "DT_FLOAT"}}}, {"name": "StatefulPartitionedCall/hrnet-gaze/conv2d_193/Conv2D_bn_offset", "op": "Const", "attr": {"dtype": {"type": "DT_FLOAT"}, "value": {"tensor": {"dtype": "DT_FLOAT", "tensorShape": {"dim": [{"size": "72"}]}}}}}, {"name": "StatefulPartitionedCall/hrnet-gaze/conv2d_235/Conv2D_bn_offset", "op": "Const", "attr": {"value": {"tensor": {"dtype": "DT_FLOAT", "tensorShape": {"dim": [{"size": "144"}]}}}, "dtype": {"type": "DT_FLOAT"}}}, {"name": "StatefulPartitionedCall/hrnet-gaze/conv2d_145/Conv2D_weights", "op": "Const", "attr": {"value": {"tensor": {"dtype": "DT_FLOAT", "tensorShape": {"dim": [{"size": "3"}, {"size": "3"}, {"size": "18"}, {"size": "18"}]}}}, "dtype": {"type": "DT_FLOAT"}}}, {"name": "StatefulPartitionedCall/hrnet-gaze/conv2d_145/Conv2D_bn_offset", "op": "Const", "attr": {"value": {"tensor": {"dtype": "DT_FLOAT", "tensorShape": {"dim": [{"size": "18"}]}}}, "dtype": {"type": "DT_FLOAT"}}}, {"name": "StatefulPartitionedCall/hrnet-gaze/conv2d_194/Conv2D_weights", "op": "Const", "attr": {"value": {"tensor": {"dtype": "DT_FLOAT", "tensorShape": {"dim": [{"size": "3"}, {"size": "3"}, {"size": "72"}, {"size": "72"}]}}}, "dtype": {"type": "DT_FLOAT"}}}, {"name": "StatefulPartitionedCall/hrnet-gaze/conv2d_164/Conv2D_weights", "op": "Const", "attr": {"dtype": {"type": "DT_FLOAT"}, "value": {"tensor": {"dtype": "DT_FLOAT", "tensorShape": {"dim": [{"size": "3"}, {"size": "3"}, {"size": "18"}, {"size": "18"}]}}}}}, {"name": "StatefulPartitionedCall/hrnet-gaze/conv2d_194/Conv2D_bn_offset", "op": "Const", "attr": {"dtype": {"type": "DT_FLOAT"}, "value": {"tensor": {"dtype": "DT_FLOAT", "tensorShape": {"dim": [{"size": "72"}]}}}}}, {"name": "StatefulPartitionedCall/hrnet-gaze/conv2d_217/Conv2D_weights", "op": "Const", "attr": {"value": {"tensor": {"dtype": "DT_FLOAT", "tensorShape": {"dim": [{"size": "3"}, {"size": "3"}, {"size": "144"}, {"size": "144"}]}}}, "dtype": {"type": "DT_FLOAT"}}}, {"name": "StatefulPartitionedCall/hrnet-gaze/conv2d_217/Conv2D_bn_offset", "op": "Const", "attr": {"value": {"tensor": {"dtype": "DT_FLOAT", "tensorShape": {"dim": [{"size": "144"}]}}}, "dtype": {"type": "DT_FLOAT"}}}, {"name": "StatefulPartitionedCall/hrnet-gaze/conv2d_164/Conv2D_bn_offset", "op": "Const", "attr": {"value": {"tensor": {"dtype": "DT_FLOAT", "tensorShape": {"dim": [{"size": "18"}]}}}, "dtype": {"type": "DT_FLOAT"}}}, {"name": "StatefulPartitionedCall/hrnet-gaze/conv2d_146/Conv2D_weights", "op": "Const", "attr": {"value": {"tensor": {"dtype": "DT_FLOAT", "tensorShape": {"dim": [{"size": "3"}, {"size": "3"}, {"size": "18"}, {"size": "18"}]}}}, "dtype": {"type": "DT_FLOAT"}}}, {"name": "StatefulPartitionedCall/hrnet-gaze/conv2d_146/Conv2D_bn_offset", "op": "Const", "attr": {"dtype": {"type": "DT_FLOAT"}, "value": {"tensor": {"dtype": "DT_FLOAT", "tensorShape": {"dim": [{"size": "18"}]}}}}}, {"name": "StatefulPartitionedCall/hrnet-gaze/conv2d_171/Conv2D_weights", "op": "Const", "attr": {"value": {"tensor": {"dtype": "DT_FLOAT", "tensorShape": {"dim": [{"size": "3"}, {"size": "3"}, {"size": "36"}, {"size": "36"}]}}}, "dtype": {"type": "DT_FLOAT"}}}, {"name": "StatefulPartitionedCall/hrnet-gaze/conv2d_171/Conv2D_bn_offset", "op": "Const", "attr": {"value": {"tensor": {"dtype": "DT_FLOAT", "tensorShape": {"dim": [{"size": "36"}]}}}, "dtype": {"type": "DT_FLOAT"}}}, {"name": "StatefulPartitionedCall/hrnet-gaze/conv2d_218/Conv2D_weights", "op": "Const", "attr": {"value": {"tensor": {"dtype": "DT_FLOAT", "tensorShape": {"dim": [{"size": "3"}, {"size": "3"}, {"size": "144"}, {"size": "144"}]}}}, "dtype": {"type": "DT_FLOAT"}}}, {"name": "StatefulPartitionedCall/hrnet-gaze/conv2d_189/Conv2D_weights", "op": "Const", "attr": {"value": {"tensor": {"dtype": "DT_FLOAT", "tensorShape": {"dim": [{"size": "3"}, {"size": "3"}, {"size": "36"}, {"size": "36"}]}}}, "dtype": {"type": "DT_FLOAT"}}}, {"name": "StatefulPartitionedCall/hrnet-gaze/conv2d_218/Conv2D_bn_offset", "op": "Const", "attr": {"value": {"tensor": {"dtype": "DT_FLOAT", "tensorShape": {"dim": [{"size": "144"}]}}}, "dtype": {"type": "DT_FLOAT"}}}, {"name": "StatefulPartitionedCall/hrnet-gaze/conv2d_172/Conv2D_weights", "op": "Const", "attr": {"dtype": {"type": "DT_FLOAT"}, "value": {"tensor": {"dtype": "DT_FLOAT", "tensorShape": {"dim": [{"size": "3"}, {"size": "3"}, {"size": "36"}, {"size": "36"}]}}}}}, {"name": "StatefulPartitionedCall/hrnet-gaze/conv2d_172/Conv2D_bn_offset", "op": "Const", "attr": {"value": {"tensor": {"dtype": "DT_FLOAT", "tensorShape": {"dim": [{"size": "36"}]}}}, "dtype": {"type": "DT_FLOAT"}}}, {"name": "StatefulPartitionedCall/hrnet-gaze/conv2d_195/Conv2D_weights", "op": "Const", "attr": {"dtype": {"type": "DT_FLOAT"}, "value": {"tensor": {"dtype": "DT_FLOAT", "tensorShape": {"dim": [{"size": "3"}, {"size": "3"}, {"size": "72"}, {"size": "72"}]}}}}}, {"name": "StatefulPartitionedCall/hrnet-gaze/conv2d_189/Conv2D_bn_offset", "op": "Const", "attr": {"value": {"tensor": {"dtype": "DT_FLOAT", "tensorShape": {"dim": [{"size": "36"}]}}}, "dtype": {"type": "DT_FLOAT"}}}, {"name": "StatefulPartitionedCall/hrnet-gaze/conv2d_195/Conv2D_bn_offset", "op": "Const", "attr": {"value": {"tensor": {"dtype": "DT_FLOAT", "tensorShape": {"dim": [{"size": "72"}]}}}, "dtype": {"type": "DT_FLOAT"}}}, {"name": "StatefulPartitionedCall/hrnet-gaze/conv2d_147/Conv2D_weights", "op": "Const", "attr": {"value": {"tensor": {"dtype": "DT_FLOAT", "tensorShape": {"dim": [{"size": "3"}, {"size": "3"}, {"size": "18"}, {"size": "18"}]}}}, "dtype": {"type": "DT_FLOAT"}}}, {"name": "StatefulPartitionedCall/hrnet-gaze/conv2d_147/Conv2D_bn_offset", "op": "Const", "attr": {"value": {"tensor": {"dtype": "DT_FLOAT", "tensorShape": {"dim": [{"size": "18"}]}}}, "dtype": {"type": "DT_FLOAT"}}}, {"name": "StatefulPartitionedCall/hrnet-gaze/conv2d_236/Conv2D_weights", "op": "Const", "attr": {"dtype": {"type": "DT_FLOAT"}, "value": {"tensor": {"dtype": "DT_FLOAT", "tensorShape": {"dim": [{"size": "3"}, {"size": "3"}, {"size": "144"}, {"size": "144"}]}}}}}, {"name": "StatefulPartitionedCall/hrnet-gaze/conv2d_196/Conv2D_weights", "op": "Const", "attr": {"dtype": {"type": "DT_FLOAT"}, "value": {"tensor": {"dtype": "DT_FLOAT", "tensorShape": {"dim": [{"size": "3"}, {"size": "3"}, {"size": "72"}, {"size": "72"}]}}}}}, {"name": "StatefulPartitionedCall/hrnet-gaze/conv2d_196/Conv2D_bn_offset", "op": "Const", "attr": {"value": {"tensor": {"dtype": "DT_FLOAT", "tensorShape": {"dim": [{"size": "72"}]}}}, "dtype": {"type": "DT_FLOAT"}}}, {"name": "StatefulPartitionedCall/hrnet-gaze/conv2d_219/Conv2D_weights", "op": "Const", "attr": {"dtype": {"type": "DT_FLOAT"}, "value": {"tensor": {"dtype": "DT_FLOAT", "tensorShape": {"dim": [{"size": "3"}, {"size": "3"}, {"size": "144"}, {"size": "144"}]}}}}}, {"name": "StatefulPartitionedCall/hrnet-gaze/conv2d_236/Conv2D_bn_offset", "op": "Const", "attr": {"dtype": {"type": "DT_FLOAT"}, "value": {"tensor": {"dtype": "DT_FLOAT", "tensorShape": {"dim": [{"size": "144"}]}}}}}, {"name": "StatefulPartitionedCall/hrnet-gaze/conv2d_219/Conv2D_bn_offset", "op": "Const", "attr": {"value": {"tensor": {"dtype": "DT_FLOAT", "tensorShape": {"dim": [{"size": "144"}]}}}, "dtype": {"type": "DT_FLOAT"}}}, {"name": "StatefulPartitionedCall/hrnet-gaze/conv2d_148/Conv2D_weights", "op": "Const", "attr": {"value": {"tensor": {"dtype": "DT_FLOAT", "tensorShape": {"dim": [{"size": "3"}, {"size": "3"}, {"size": "18"}, {"size": "18"}]}}}, "dtype": {"type": "DT_FLOAT"}}}, {"name": "StatefulPartitionedCall/hrnet-gaze/conv2d_148/Conv2D_bn_offset", "op": "Const", "attr": {"value": {"tensor": {"dtype": "DT_FLOAT", "tensorShape": {"dim": [{"size": "18"}]}}}, "dtype": {"type": "DT_FLOAT"}}}, {"name": "StatefulPartitionedCall/hrnet-gaze/conv2d_173/Conv2D_weights", "op": "Const", "attr": {"value": {"tensor": {"dtype": "DT_FLOAT", "tensorShape": {"dim": [{"size": "3"}, {"size": "3"}, {"size": "36"}, {"size": "36"}]}}}, "dtype": {"type": "DT_FLOAT"}}}, {"name": "StatefulPartitionedCall/hrnet-gaze/conv2d_173/Conv2D_bn_offset", "op": "Const", "attr": {"value": {"tensor": {"dtype": "DT_FLOAT", "tensorShape": {"dim": [{"size": "36"}]}}}, "dtype": {"type": "DT_FLOAT"}}}, {"name": "StatefulPartitionedCall/hrnet-gaze/conv2d_190/Conv2D_weights", "op": "Const", "attr": {"value": {"tensor": {"dtype": "DT_FLOAT", "tensorShape": {"dim": [{"size": "3"}, {"size": "3"}, {"size": "36"}, {"size": "36"}]}}}, "dtype": {"type": "DT_FLOAT"}}}, {"name": "StatefulPartitionedCall/hrnet-gaze/conv2d_220/Conv2D_weights", "op": "Const", "attr": {"value": {"tensor": {"dtype": "DT_FLOAT", "tensorShape": {"dim": [{"size": "3"}, {"size": "3"}, {"size": "144"}, {"size": "144"}]}}}, "dtype": {"type": "DT_FLOAT"}}}, {"name": "StatefulPartitionedCall/hrnet-gaze/batch_normalization_142/FusedBatchNormV3/Scaled", "op": "Const", "attr": {"dtype": {"type": "DT_FLOAT"}, "value": {"tensor": {"dtype": "DT_FLOAT", "tensorShape": {"dim": [{"size": "18"}]}}}}}, {"name": "StatefulPartitionedCall/hrnet-gaze/conv2d_220/Conv2D_bn_offset", "op": "Const", "attr": {"value": {"tensor": {"dtype": "DT_FLOAT", "tensorShape": {"dim": [{"size": "144"}]}}}, "dtype": {"type": "DT_FLOAT"}}}, {"name": "StatefulPartitionedCall/hrnet-gaze/conv2d_174/Conv2D_weights", "op": "Const", "attr": {"value": {"tensor": {"dtype": "DT_FLOAT", "tensorShape": {"dim": [{"size": "3"}, {"size": "3"}, {"size": "36"}, {"size": "36"}]}}}, "dtype": {"type": "DT_FLOAT"}}}, {"name": "StatefulPartitionedCall/hrnet-gaze/conv2d_190/Conv2D_bn_offset", "op": "Const", "attr": {"value": {"tensor": {"dtype": "DT_FLOAT", "tensorShape": {"dim": [{"size": "36"}]}}}, "dtype": {"type": "DT_FLOAT"}}}, {"name": "StatefulPartitionedCall/hrnet-gaze/conv2d_174/Conv2D_bn_offset", "op": "Const", "attr": {"dtype": {"type": "DT_FLOAT"}, "value": {"tensor": {"dtype": "DT_FLOAT", "tensorShape": {"dim": [{"size": "36"}]}}}}}, {"name": "StatefulPartitionedCall/hrnet-gaze/conv2d_197/Conv2D_weights", "op": "Const", "attr": {"dtype": {"type": "DT_FLOAT"}, "value": {"tensor": {"dtype": "DT_FLOAT", "tensorShape": {"dim": [{"size": "3"}, {"size": "3"}, {"size": "72"}, {"size": "72"}]}}}}}, {"name": "StatefulPartitionedCall/hrnet-gaze/conv2d_197/Conv2D_bn_offset", "op": "Const", "attr": {"value": {"tensor": {"dtype": "DT_FLOAT", "tensorShape": {"dim": [{"size": "72"}]}}}, "dtype": {"type": "DT_FLOAT"}}}, {"name": "StatefulPartitionedCall/hrnet-gaze/conv2d_149/Conv2D_weights", "op": "Const", "attr": {"value": {"tensor": {"dtype": "DT_FLOAT", "tensorShape": {"dim": [{"size": "3"}, {"size": "3"}, {"size": "18"}, {"size": "18"}]}}}, "dtype": {"type": "DT_FLOAT"}}}, {"name": "StatefulPartitionedCall/hrnet-gaze/conv2d_149/Conv2D_bn_offset", "op": "Const", "attr": {"value": {"tensor": {"dtype": "DT_FLOAT", "tensorShape": {"dim": [{"size": "18"}]}}}, "dtype": {"type": "DT_FLOAT"}}}, {"name": "StatefulPartitionedCall/hrnet-gaze/conv2d_213/Conv2D_weights", "op": "Const", "attr": {"value": {"tensor": {"dtype": "DT_FLOAT", "tensorShape": {"dim": [{"size": "3"}, {"size": "3"}, {"size": "72"}, {"size": "72"}]}}}, "dtype": {"type": "DT_FLOAT"}}}, {"name": "StatefulPartitionedCall/hrnet-gaze/conv2d_198/Conv2D_weights", "op": "Const", "attr": {"dtype": {"type": "DT_FLOAT"}, "value": {"tensor": {"dtype": "DT_FLOAT", "tensorShape": {"dim": [{"size": "3"}, {"size": "3"}, {"size": "72"}, {"size": "72"}]}}}}}, {"name": "StatefulPartitionedCall/hrnet-gaze/conv2d_198/Conv2D_bn_offset", "op": "Const", "attr": {"value": {"tensor": {"dtype": "DT_FLOAT", "tensorShape": {"dim": [{"size": "72"}]}}}, "dtype": {"type": "DT_FLOAT"}}}, {"name": "StatefulPartitionedCall/hrnet-gaze/conv2d_221/Conv2D_weights", "op": "Const", "attr": {"value": {"tensor": {"dtype": "DT_FLOAT", "tensorShape": {"dim": [{"size": "3"}, {"size": "3"}, {"size": "144"}, {"size": "144"}]}}}, "dtype": {"type": "DT_FLOAT"}}}, {"name": "StatefulPartitionedCall/hrnet-gaze/conv2d_213/Conv2D_bn_offset", "op": "Const", "attr": {"value": {"tensor": {"dtype": "DT_FLOAT", "tensorShape": {"dim": [{"size": "72"}]}}}, "dtype": {"type": "DT_FLOAT"}}}, {"name": "StatefulPartitionedCall/hrnet-gaze/conv2d_221/Conv2D_bn_offset", "op": "Const", "attr": {"dtype": {"type": "DT_FLOAT"}, "value": {"tensor": {"dtype": "DT_FLOAT", "tensorShape": {"dim": [{"size": "144"}]}}}}}, {"name": "StatefulPartitionedCall/hrnet-gaze/conv2d_150/Conv2D_weights", "op": "Const", "attr": {"value": {"tensor": {"dtype": "DT_FLOAT", "tensorShape": {"dim": [{"size": "3"}, {"size": "3"}, {"size": "18"}, {"size": "18"}]}}}, "dtype": {"type": "DT_FLOAT"}}}, {"name": "StatefulPartitionedCall/hrnet-gaze/conv2d_150/Conv2D_bn_offset", "op": "Const", "attr": {"value": {"tensor": {"dtype": "DT_FLOAT", "tensorShape": {"dim": [{"size": "18"}]}}}, "dtype": {"type": "DT_FLOAT"}}}, {"name": "StatefulPartitionedCall/hrnet-gaze/conv2d_175/Conv2D_weights", "op": "Const", "attr": {"value": {"tensor": {"dtype": "DT_FLOAT", "tensorShape": {"dim": [{"size": "3"}, {"size": "3"}, {"size": "36"}, {"size": "36"}]}}}, "dtype": {"type": "DT_FLOAT"}}}, {"name": "StatefulPartitionedCall/hrnet-gaze/conv2d_165/Conv2D_weights", "op": "Const", "attr": {"value": {"tensor": {"dtype": "DT_FLOAT", "tensorShape": {"dim": [{"size": "3"}, {"size": "3"}, {"size": "18"}, {"size": "18"}]}}}, "dtype": {"type": "DT_FLOAT"}}}, {"name": "StatefulPartitionedCall/hrnet-gaze/conv2d_175/Conv2D_bn_offset", "op": "Const", "attr": {"dtype": {"type": "DT_FLOAT"}, "value": {"tensor": {"dtype": "DT_FLOAT", "tensorShape": {"dim": [{"size": "36"}]}}}}}, {"name": "StatefulPartitionedCall/hrnet-gaze/batch_normalization_142/FusedBatchNormV3/Offset", "op": "Const", "attr": {"value": {"tensor": {"dtype": "DT_FLOAT", "tensorShape": {"dim": [{"size": "18"}]}}}, "dtype": {"type": "DT_FLOAT"}}}, {"name": "StatefulPartitionedCall/hrnet-gaze/conv2d_222/Conv2D_weights", "op": "Const", "attr": {"dtype": {"type": "DT_FLOAT"}, "value": {"tensor": {"dtype": "DT_FLOAT", "tensorShape": {"dim": [{"size": "3"}, {"size": "3"}, {"size": "144"}, {"size": "144"}]}}}}}, {"name": "StatefulPartitionedCall/hrnet-gaze/conv2d_165/Conv2D_bn_offset", "op": "Const", "attr": {"value": {"tensor": {"dtype": "DT_FLOAT", "tensorShape": {"dim": [{"size": "18"}]}}}, "dtype": {"type": "DT_FLOAT"}}}, {"name": "StatefulPartitionedCall/hrnet-gaze/conv2d_222/Conv2D_bn_offset", "op": "Const", "attr": {"value": {"tensor": {"dtype": "DT_FLOAT", "tensorShape": {"dim": [{"size": "144"}]}}}, "dtype": {"type": "DT_FLOAT"}}}, {"name": "StatefulPartitionedCall/hrnet-gaze/conv2d_176/Conv2D_weights", "op": "Const", "attr": {"value": {"tensor": {"dtype": "DT_FLOAT", "tensorShape": {"dim": [{"size": "3"}, {"size": "3"}, {"size": "36"}, {"size": "36"}]}}}, "dtype": {"type": "DT_FLOAT"}}}, {"name": "StatefulPartitionedCall/hrnet-gaze/conv2d_176/Conv2D_bn_offset", "op": "Const", "attr": {"value": {"tensor": {"dtype": "DT_FLOAT", "tensorShape": {"dim": [{"size": "36"}]}}}, "dtype": {"type": "DT_FLOAT"}}}, {"name": "StatefulPartitionedCall/hrnet-gaze/conv2d_199/Conv2D_weights", "op": "Const", "attr": {"value": {"tensor": {"dtype": "DT_FLOAT", "tensorShape": {"dim": [{"size": "3"}, {"size": "3"}, {"size": "72"}, {"size": "72"}]}}}, "dtype": {"type": "DT_FLOAT"}}}, {"name": "StatefulPartitionedCall/hrnet-gaze/conv2d_199/Conv2D_bn_offset", "op": "Const", "attr": {"dtype": {"type": "DT_FLOAT"}, "value": {"tensor": {"dtype": "DT_FLOAT", "tensorShape": {"dim": [{"size": "72"}]}}}}}, {"name": "StatefulPartitionedCall/hrnet-gaze/conv2d_214/Conv2D_weights", "op": "Const", "attr": {"dtype": {"type": "DT_FLOAT"}, "value": {"tensor": {"dtype": "DT_FLOAT", "tensorShape": {"dim": [{"size": "3"}, {"size": "3"}, {"size": "72"}, {"size": "72"}]}}}}}, {"name": "StatefulPartitionedCall/hrnet-gaze/conv2d_151/Conv2D_weights", "op": "Const", "attr": {"dtype": {"type": "DT_FLOAT"}, "value": {"tensor": {"dtype": "DT_FLOAT", "tensorShape": {"dim": [{"size": "3"}, {"size": "3"}, {"size": "18"}, {"size": "18"}]}}}}}, {"name": "StatefulPartitionedCall/hrnet-gaze/conv2d_151/Conv2D_bn_offset", "op": "Const", "attr": {"dtype": {"type": "DT_FLOAT"}, "value": {"tensor": {"dtype": "DT_FLOAT", "tensorShape": {"dim": [{"size": "18"}]}}}}}, {"name": "StatefulPartitionedCall/hrnet-gaze/conv2d_214/Conv2D_bn_offset", "op": "Const", "attr": {"dtype": {"type": "DT_FLOAT"}, "value": {"tensor": {"dtype": "DT_FLOAT", "tensorShape": {"dim": [{"size": "72"}]}}}}}, {"name": "StatefulPartitionedCall/hrnet-gaze/conv2d_200/Conv2D_weights", "op": "Const", "attr": {"dtype": {"type": "DT_FLOAT"}, "value": {"tensor": {"dtype": "DT_FLOAT", "tensorShape": {"dim": [{"size": "3"}, {"size": "3"}, {"size": "72"}, {"size": "72"}]}}}}}, {"name": "StatefulPartitionedCall/hrnet-gaze/conv2d_200/Conv2D_bn_offset", "op": "Const", "attr": {"dtype": {"type": "DT_FLOAT"}, "value": {"tensor": {"dtype": "DT_FLOAT", "tensorShape": {"dim": [{"size": "72"}]}}}}}, {"name": "StatefulPartitionedCall/hrnet-gaze/conv2d_223/Conv2D_weights", "op": "Const", "attr": {"value": {"tensor": {"dtype": "DT_FLOAT", "tensorShape": {"dim": [{"size": "3"}, {"size": "3"}, {"size": "144"}, {"size": "144"}]}}}, "dtype": {"type": "DT_FLOAT"}}}, {"name": "StatefulPartitionedCall/hrnet-gaze/conv2d_223/Conv2D_bn_offset", "op": "Const", "attr": {"dtype": {"type": "DT_FLOAT"}, "value": {"tensor": {"dtype": "DT_FLOAT", "tensorShape": {"dim": [{"size": "144"}]}}}}}, {"name": "StatefulPartitionedCall/hrnet-gaze/conv2d_152/Conv2D_weights", "op": "Const", "attr": {"dtype": {"type": "DT_FLOAT"}, "value": {"tensor": {"dtype": "DT_FLOAT", "tensorShape": {"dim": [{"size": "3"}, {"size": "3"}, {"size": "18"}, {"size": "18"}]}}}}}, {"name": "StatefulPartitionedCall/hrnet-gaze/conv2d_237/Conv2D_weights", "op": "Const", "attr": {"dtype": {"type": "DT_FLOAT"}, "value": {"tensor": {"dtype": "DT_FLOAT", "tensorShape": {"dim": [{"size": "3"}, {"size": "3"}, {"size": "144"}, {"size": "144"}]}}}}}, {"name": "StatefulPartitionedCall/hrnet-gaze/conv2d_152/Conv2D_bn_offset", "op": "Const", "attr": {"dtype": {"type": "DT_FLOAT"}, "value": {"tensor": {"dtype": "DT_FLOAT", "tensorShape": {"dim": [{"size": "18"}]}}}}}, {"name": "StatefulPartitionedCall/hrnet-gaze/conv2d_177/Conv2D_weights", "op": "Const", "attr": {"dtype": {"type": "DT_FLOAT"}, "value": {"tensor": {"dtype": "DT_FLOAT", "tensorShape": {"dim": [{"size": "3"}, {"size": "3"}, {"size": "36"}, {"size": "36"}]}}}}}, {"name": "StatefulPartitionedCall/hrnet-gaze/conv2d_177/Conv2D_bn_offset", "op": "Const", "attr": {"value": {"tensor": {"dtype": "DT_FLOAT", "tensorShape": {"dim": [{"size": "36"}]}}}, "dtype": {"type": "DT_FLOAT"}}}, {"name": "StatefulPartitionedCall/hrnet-gaze/conv2d_237/Conv2D_bn_offset", "op": "Const", "attr": {"dtype": {"type": "DT_FLOAT"}, "value": {"tensor": {"dtype": "DT_FLOAT", "tensorShape": {"dim": [{"size": "144"}]}}}}}, {"name": "StatefulPartitionedCall/hrnet-gaze/conv2d_224/Conv2D_weights", "op": "Const", "attr": {"value": {"tensor": {"dtype": "DT_FLOAT", "tensorShape": {"dim": [{"size": "3"}, {"size": "3"}, {"size": "144"}, {"size": "144"}]}}}, "dtype": {"type": "DT_FLOAT"}}}, {"name": "StatefulPartitionedCall/hrnet-gaze/batch_normalization_143/FusedBatchNormV3/Scaled", "op": "Const", "attr": {"value": {"tensor": {"dtype": "DT_FLOAT", "tensorShape": {"dim": [{"size": "36"}]}}}, "dtype": {"type": "DT_FLOAT"}}}, {"name": "StatefulPartitionedCall/hrnet-gaze/conv2d_224/Conv2D_bn_offset", "op": "Const", "attr": {"value": {"tensor": {"dtype": "DT_FLOAT", "tensorShape": {"dim": [{"size": "144"}]}}}, "dtype": {"type": "DT_FLOAT"}}}, {"name": "StatefulPartitionedCall/hrnet-gaze/conv2d_178/Conv2D_weights", "op": "Const", "attr": {"dtype": {"type": "DT_FLOAT"}, "value": {"tensor": {"dtype": "DT_FLOAT", "tensorShape": {"dim": [{"size": "3"}, {"size": "3"}, {"size": "36"}, {"size": "36"}]}}}}}, {"name": "StatefulPartitionedCall/hrnet-gaze/conv2d_178/Conv2D_bn_offset", "op": "Const", "attr": {"dtype": {"type": "DT_FLOAT"}, "value": {"tensor": {"dtype": "DT_FLOAT", "tensorShape": {"dim": [{"size": "36"}]}}}}}, {"name": "StatefulPartitionedCall/hrnet-gaze/conv2d_201/Conv2D_weights", "op": "Const", "attr": {"dtype": {"type": "DT_FLOAT"}, "value": {"tensor": {"dtype": "DT_FLOAT", "tensorShape": {"dim": [{"size": "3"}, {"size": "3"}, {"size": "72"}, {"size": "72"}]}}}}}, {"name": "StatefulPartitionedCall/hrnet-gaze/conv2d_166/Conv2D_weights", "op": "Const", "attr": {"value": {"tensor": {"dtype": "DT_FLOAT", "tensorShape": {"dim": [{"size": "3"}, {"size": "3"}, {"size": "18"}, {"size": "18"}]}}}, "dtype": {"type": "DT_FLOAT"}}}, {"name": "StatefulPartitionedCall/hrnet-gaze/conv2d_201/Conv2D_bn_offset", "op": "Const", "attr": {"dtype": {"type": "DT_FLOAT"}, "value": {"tensor": {"dtype": "DT_FLOAT", "tensorShape": {"dim": [{"size": "72"}]}}}}}, {"name": "StatefulPartitionedCall/hrnet-gaze/conv2d_153/Conv2D_weights", "op": "Const", "attr": {"dtype": {"type": "DT_FLOAT"}, "value": {"tensor": {"dtype": "DT_FLOAT", "tensorShape": {"dim": [{"size": "3"}, {"size": "3"}, {"size": "18"}, {"size": "18"}]}}}}}, {"name": "StatefulPartitionedCall/hrnet-gaze/conv2d_166/Conv2D_bn_offset", "op": "Const", "attr": {"dtype": {"type": "DT_FLOAT"}, "value": {"tensor": {"dtype": "DT_FLOAT", "tensorShape": {"dim": [{"size": "18"}]}}}}}, {"name": "StatefulPartitionedCall/hrnet-gaze/conv2d_153/Conv2D_bn_offset", "op": "Const", "attr": {"dtype": {"type": "DT_FLOAT"}, "value": {"tensor": {"dtype": "DT_FLOAT", "tensorShape": {"dim": [{"size": "18"}]}}}}}, {"name": "StatefulPartitionedCall/hrnet-gaze/conv2d_202/Conv2D_weights", "op": "Const", "attr": {"dtype": {"type": "DT_FLOAT"}, "value": {"tensor": {"dtype": "DT_FLOAT", "tensorShape": {"dim": [{"size": "3"}, {"size": "3"}, {"size": "72"}, {"size": "72"}]}}}}}, {"name": "StatefulPartitionedCall/hrnet-gaze/conv2d_202/Conv2D_bn_offset", "op": "Const", "attr": {"dtype": {"type": "DT_FLOAT"}, "value": {"tensor": {"dtype": "DT_FLOAT", "tensorShape": {"dim": [{"size": "72"}]}}}}}, {"name": "StatefulPartitionedCall/hrnet-gaze/batch_normalization/FusedBatchNormV3", "op": "_FusedConv2D", "input": ["input_1", "StatefulPartitionedCall/hrnet-gaze/conv2d/Conv2D_weights", "StatefulPartitionedCall/hrnet-gaze/conv2d/Conv2D_bn_offset"], "device": "/device:CPU:0", "attr": {"fused_ops": {"list": {"s": ["Qmlhc0FkZA=="]}}, "T": {"type": "DT_FLOAT"}, "data_format": {"s": "TkhXQw=="}, "strides": {"list": {"i": ["1", "2", "2", "1"]}}, "epsilon": {"f": 0.0}, "num_args": {"i": "1"}, "use_cudnn_on_gpu": {"b": true}, "dilations": {"list": {"i": ["1", "1", "1", "1"]}}, "padding": {"s": "U0FNRQ=="}, "explicit_paddings": {"list": {}}}}, {"name": "StatefulPartitionedCall/hrnet-gaze/activation/Relu", "op": "_FusedConv2D", "input": ["StatefulPartitionedCall/hrnet-gaze/batch_normalization/FusedBatchNormV3", "StatefulPartitionedCall/hrnet-gaze/conv2d_1/Conv2D_weights", "StatefulPartitionedCall/hrnet-gaze/conv2d_1/Conv2D_bn_offset"], "device": "/device:CPU:0", "attr": {"use_cudnn_on_gpu": {"b": true}, "strides": {"list": {"i": ["1", "2", "2", "1"]}}, "data_format": {"s": "TkhXQw=="}, "epsilon": {"f": 0.0}, "dilations": {"list": {"i": ["1", "1", "1", "1"]}}, "fused_ops": {"list": {"s": ["Qmlhc0FkZA==", "UmVsdQ=="]}}, "T": {"type": "DT_FLOAT"}, "explicit_paddings": {"list": {}}, "padding": {"s": "U0FNRQ=="}, "num_args": {"i": "1"}}}, {"name": "StatefulPartitionedCall/hrnet-gaze/activation_1/Relu", "op": "_FusedConv2D", "input": ["StatefulPartitionedCall/hrnet-gaze/activation/Relu", "StatefulPartitionedCall/hrnet-gaze/conv2d_2/Conv2D_weights", "StatefulPartitionedCall/hrnet-gaze/conv2d_2/Conv2D_bn_offset"], "device": "/device:CPU:0", "attr": {"use_cudnn_on_gpu": {"b": true}, "dilations": {"list": {"i": ["1", "1", "1", "1"]}}, "explicit_paddings": {"list": {}}, "data_format": {"s": "TkhXQw=="}, "fused_ops": {"list": {"s": ["Qmlhc0FkZA==", "UmVsdQ=="]}}, "epsilon": {"f": 0.0}, "padding": {"s": "U0FNRQ=="}, "T": {"type": "DT_FLOAT"}, "num_args": {"i": "1"}, "strides": {"list": {"i": ["1", "1", "1", "1"]}}}}, {"name": "StatefulPartitionedCall/hrnet-gaze/batch_normalization_5/FusedBatchNormV3", "op": "_FusedConv2D", "input": ["StatefulPartitionedCall/hrnet-gaze/activation/Relu", "StatefulPartitionedCall/hrnet-gaze/conv2d_5/Conv2D_weights", "StatefulPartitionedCall/hrnet-gaze/conv2d_5/Conv2D_bn_offset"], "device": "/device:CPU:0", "attr": {"use_cudnn_on_gpu": {"b": true}, "dilations": {"list": {"i": ["1", "1", "1", "1"]}}, "explicit_paddings": {"list": {}}, "data_format": {"s": "TkhXQw=="}, "strides": {"list": {"i": ["1", "1", "1", "1"]}}, "epsilon": {"f": 0.0}, "padding": {"s": "U0FNRQ=="}, "num_args": {"i": "1"}, "T": {"type": "DT_FLOAT"}, "fused_ops": {"list": {"s": ["Qmlhc0FkZA=="]}}}}, {"name": "StatefulPartitionedCall/hrnet-gaze/activation_2/Relu", "op": "_FusedConv2D", "input": ["StatefulPartitionedCall/hrnet-gaze/activation_1/Relu", "StatefulPartitionedCall/hrnet-gaze/conv2d_3/Conv2D_weights", "StatefulPartitionedCall/hrnet-gaze/conv2d_3/Conv2D_bn_offset"], "device": "/device:CPU:0", "attr": {"padding": {"s": "U0FNRQ=="}, "T": {"type": "DT_FLOAT"}, "num_args": {"i": "1"}, "dilations": {"list": {"i": ["1", "1", "1", "1"]}}, "strides": {"list": {"i": ["1", "1", "1", "1"]}}, "data_format": {"s": "TkhXQw=="}, "fused_ops": {"list": {"s": ["Qmlhc0FkZA==", "UmVsdQ=="]}}, "use_cudnn_on_gpu": {"b": true}, "explicit_paddings": {"list": {}}, "epsilon": {"f": 0.0}}}, {"name": "StatefulPartitionedCall/hrnet-gaze/batch_normalization_4/FusedBatchNormV3", "op": "_FusedConv2D", "input": ["StatefulPartitionedCall/hrnet-gaze/activation_2/Relu", "StatefulPartitionedCall/hrnet-gaze/conv2d_4/Conv2D_weights", "StatefulPartitionedCall/hrnet-gaze/conv2d_4/Conv2D_bn_offset"], "device": "/device:CPU:0", "attr": {"fused_ops": {"list": {"s": ["Qmlhc0FkZA=="]}}, "num_args": {"i": "1"}, "dilations": {"list": {"i": ["1", "1", "1", "1"]}}, "strides": {"list": {"i": ["1", "1", "1", "1"]}}, "padding": {"s": "U0FNRQ=="}, "data_format": {"s": "TkhXQw=="}, "use_cudnn_on_gpu": {"b": true}, "explicit_paddings": {"list": {}}, "epsilon": {"f": 0.0}, "T": {"type": "DT_FLOAT"}}}, {"name": "StatefulPartitionedCall/hrnet-gaze/add_7/add", "op": "AddV2", "input": ["StatefulPartitionedCall/hrnet-gaze/batch_normalization_4/FusedBatchNormV3", "StatefulPartitionedCall/hrnet-gaze/batch_normalization_5/FusedBatchNormV3"], "attr": {"T": {"type": "DT_FLOAT"}}}, {"name": "StatefulPartitionedCall/hrnet-gaze/activation_127/Relu", "op": "Relu", "input": ["StatefulPartitionedCall/hrnet-gaze/add_7/add"], "attr": {"T": {"type": "DT_FLOAT"}}}, {"name": "StatefulPartitionedCall/hrnet-gaze/activation_3/Relu", "op": "_FusedConv2D", "input": ["StatefulPartitionedCall/hrnet-gaze/activation_127/Relu", "StatefulPartitionedCall/hrnet-gaze/conv2d_6/Conv2D_weights", "StatefulPartitionedCall/hrnet-gaze/conv2d_6/Conv2D_bn_offset"], "device": "/device:CPU:0", "attr": {"data_format": {"s": "TkhXQw=="}, "explicit_paddings": {"list": {}}, "epsilon": {"f": 0.0}, "T": {"type": "DT_FLOAT"}, "strides": {"list": {"i": ["1", "1", "1", "1"]}}, "dilations": {"list": {"i": ["1", "1", "1", "1"]}}, "padding": {"s": "U0FNRQ=="}, "num_args": {"i": "1"}, "fused_ops": {"list": {"s": ["Qmlhc0FkZA==", "UmVsdQ=="]}}, "use_cudnn_on_gpu": {"b": true}}}, {"name": "StatefulPartitionedCall/hrnet-gaze/batch_normalization_9/FusedBatchNormV3", "op": "_FusedConv2D", "input": ["StatefulPartitionedCall/hrnet-gaze/activation_127/Relu", "StatefulPartitionedCall/hrnet-gaze/conv2d_9/Conv2D_weights", "StatefulPartitionedCall/hrnet-gaze/conv2d_9/Conv2D_bn_offset"], "device": "/device:CPU:0", "attr": {"padding": {"s": "U0FNRQ=="}, "dilations": {"list": {"i": ["1", "1", "1", "1"]}}, "data_format": {"s": "TkhXQw=="}, "epsilon": {"f": 0.0}, "strides": {"list": {"i": ["1", "1", "1", "1"]}}, "fused_ops": {"list": {"s": ["Qmlhc0FkZA=="]}}, "explicit_paddings": {"list": {}}, "num_args": {"i": "1"}, "use_cudnn_on_gpu": {"b": true}, "T": {"type": "DT_FLOAT"}}}, {"name": "StatefulPartitionedCall/hrnet-gaze/activation_4/Relu", "op": "_FusedConv2D", "input": ["StatefulPartitionedCall/hrnet-gaze/activation_3/Relu", "StatefulPartitionedCall/hrnet-gaze/conv2d_7/Conv2D_weights", "StatefulPartitionedCall/hrnet-gaze/conv2d_7/Conv2D_bn_offset"], "device": "/device:CPU:0", "attr": {"epsilon": {"f": 0.0}, "T": {"type": "DT_FLOAT"}, "fused_ops": {"list": {"s": ["Qmlhc0FkZA==", "UmVsdQ=="]}}, "dilations": {"list": {"i": ["1", "1", "1", "1"]}}, "num_args": {"i": "1"}, "strides": {"list": {"i": ["1", "1", "1", "1"]}}, "padding": {"s": "U0FNRQ=="}, "use_cudnn_on_gpu": {"b": true}, "data_format": {"s": "TkhXQw=="}, "explicit_paddings": {"list": {}}}}, {"name": "StatefulPartitionedCall/hrnet-gaze/batch_normalization_8/FusedBatchNormV3", "op": "_FusedConv2D", "input": ["StatefulPartitionedCall/hrnet-gaze/activation_4/Relu", "StatefulPartitionedCall/hrnet-gaze/conv2d_8/Conv2D_weights", "StatefulPartitionedCall/hrnet-gaze/conv2d_8/Conv2D_bn_offset"], "device": "/device:CPU:0", "attr": {"padding": {"s": "U0FNRQ=="}, "explicit_paddings": {"list": {}}, "T": {"type": "DT_FLOAT"}, "num_args": {"i": "1"}, "use_cudnn_on_gpu": {"b": true}, "strides": {"list": {"i": ["1", "1", "1", "1"]}}, "dilations": {"list": {"i": ["1", "1", "1", "1"]}}, "data_format": {"s": "TkhXQw=="}, "epsilon": {"f": 0.0}, "fused_ops": {"list": {"s": ["Qmlhc0FkZA=="]}}}}, {"name": "StatefulPartitionedCall/hrnet-gaze/add_8/add", "op": "AddV2", "input": ["StatefulPartitionedCall/hrnet-gaze/batch_normalization_8/FusedBatchNormV3", "StatefulPartitionedCall/hrnet-gaze/batch_normalization_9/FusedBatchNormV3"], "attr": {"T": {"type": "DT_FLOAT"}}}, {"name": "StatefulPartitionedCall/hrnet-gaze/activation_128/Relu", "op": "Relu", "input": ["StatefulPartitionedCall/hrnet-gaze/add_8/add"], "attr": {"T": {"type": "DT_FLOAT"}}}, {"name": "StatefulPartitionedCall/hrnet-gaze/activation_5/Relu", "op": "_FusedConv2D", "input": ["StatefulPartitionedCall/hrnet-gaze/activation_128/Relu", "StatefulPartitionedCall/hrnet-gaze/conv2d_10/Conv2D_weights", "StatefulPartitionedCall/hrnet-gaze/conv2d_10/Conv2D_bn_offset"], "device": "/device:CPU:0", "attr": {"use_cudnn_on_gpu": {"b": true}, "dilations": {"list": {"i": ["1", "1", "1", "1"]}}, "strides": {"list": {"i": ["1", "1", "1", "1"]}}, "data_format": {"s": "TkhXQw=="}, "explicit_paddings": {"list": {}}, "fused_ops": {"list": {"s": ["Qmlhc0FkZA==", "UmVsdQ=="]}}, "epsilon": {"f": 0.0}, "T": {"type": "DT_FLOAT"}, "padding": {"s": "U0FNRQ=="}, "num_args": {"i": "1"}}}, {"name": "StatefulPartitionedCall/hrnet-gaze/batch_normalization_13/FusedBatchNormV3", "op": "_FusedConv2D", "input": ["StatefulPartitionedCall/hrnet-gaze/activation_128/Relu", "StatefulPartitionedCall/hrnet-gaze/conv2d_13/Conv2D_weights", "StatefulPartitionedCall/hrnet-gaze/conv2d_13/Conv2D_bn_offset"], "device": "/device:CPU:0", "attr": {"T": {"type": "DT_FLOAT"}, "explicit_paddings": {"list": {}}, "epsilon": {"f": 0.0}, "strides": {"list": {"i": ["1", "1", "1", "1"]}}, "num_args": {"i": "1"}, "dilations": {"list": {"i": ["1", "1", "1", "1"]}}, "fused_ops": {"list": {"s": ["Qmlhc0FkZA=="]}}, "padding": {"s": "U0FNRQ=="}, "use_cudnn_on_gpu": {"b": true}, "data_format": {"s": "TkhXQw=="}}}, {"name": "StatefulPartitionedCall/hrnet-gaze/activation_6/Relu", "op": "_FusedConv2D", "input": ["StatefulPartitionedCall/hrnet-gaze/activation_5/Relu", "StatefulPartitionedCall/hrnet-gaze/conv2d_11/Conv2D_weights", "StatefulPartitionedCall/hrnet-gaze/conv2d_11/Conv2D_bn_offset"], "device": "/device:CPU:0", "attr": {"epsilon": {"f": 0.0}, "padding": {"s": "U0FNRQ=="}, "T": {"type": "DT_FLOAT"}, "num_args": {"i": "1"}, "strides": {"list": {"i": ["1", "1", "1", "1"]}}, "use_cudnn_on_gpu": {"b": true}, "dilations": {"list": {"i": ["1", "1", "1", "1"]}}, "explicit_paddings": {"list": {}}, "fused_ops": {"list": {"s": ["Qmlhc0FkZA==", "UmVsdQ=="]}}, "data_format": {"s": "TkhXQw=="}}}, {"name": "StatefulPartitionedCall/hrnet-gaze/batch_normalization_12/FusedBatchNormV3", "op": "_FusedConv2D", "input": ["StatefulPartitionedCall/hrnet-gaze/activation_6/Relu", "StatefulPartitionedCall/hrnet-gaze/conv2d_12/Conv2D_weights", "StatefulPartitionedCall/hrnet-gaze/conv2d_12/Conv2D_bn_offset"], "device": "/device:CPU:0", "attr": {"num_args": {"i": "1"}, "strides": {"list": {"i": ["1", "1", "1", "1"]}}, "fused_ops": {"list": {"s": ["Qmlhc0FkZA=="]}}, "dilations": {"list": {"i": ["1", "1", "1", "1"]}}, "use_cudnn_on_gpu": {"b": true}, "explicit_paddings": {"list": {}}, "padding": {"s": "U0FNRQ=="}, "data_format": {"s": "TkhXQw=="}, "T": {"type": "DT_FLOAT"}, "epsilon": {"f": 0.0}}}, {"name": "StatefulPartitionedCall/hrnet-gaze/add_9/add", "op": "AddV2", "input": ["StatefulPartitionedCall/hrnet-gaze/batch_normalization_12/FusedBatchNormV3", "StatefulPartitionedCall/hrnet-gaze/batch_normalization_13/FusedBatchNormV3"], "attr": {"T": {"type": "DT_FLOAT"}}}, {"name": "StatefulPartitionedCall/hrnet-gaze/activation_129/Relu", "op": "Relu", "input": ["StatefulPartitionedCall/hrnet-gaze/add_9/add"], "attr": {"T": {"type": "DT_FLOAT"}}}, {"name": "StatefulPartitionedCall/hrnet-gaze/activation_7/Relu", "op": "_FusedConv2D", "input": ["StatefulPartitionedCall/hrnet-gaze/activation_129/Relu", "StatefulPartitionedCall/hrnet-gaze/conv2d_14/Conv2D_weights", "StatefulPartitionedCall/hrnet-gaze/conv2d_14/Conv2D_bn_offset"], "device": "/device:CPU:0", "attr": {"T": {"type": "DT_FLOAT"}, "padding": {"s": "U0FNRQ=="}, "epsilon": {"f": 0.0}, "num_args": {"i": "1"}, "fused_ops": {"list": {"s": ["Qmlhc0FkZA==", "UmVsdQ=="]}}, "use_cudnn_on_gpu": {"b": true}, "dilations": {"list": {"i": ["1", "1", "1", "1"]}}, "strides": {"list": {"i": ["1", "1", "1", "1"]}}, "data_format": {"s": "TkhXQw=="}, "explicit_paddings": {"list": {}}}}, {"name": "StatefulPartitionedCall/hrnet-gaze/batch_normalization_17/FusedBatchNormV3", "op": "_FusedConv2D", "input": ["StatefulPartitionedCall/hrnet-gaze/activation_129/Relu", "StatefulPartitionedCall/hrnet-gaze/conv2d_17/Conv2D_weights", "StatefulPartitionedCall/hrnet-gaze/conv2d_17/Conv2D_bn_offset"], "device": "/device:CPU:0", "attr": {"strides": {"list": {"i": ["1", "1", "1", "1"]}}, "explicit_paddings": {"list": {}}, "padding": {"s": "U0FNRQ=="}, "num_args": {"i": "1"}, "T": {"type": "DT_FLOAT"}, "fused_ops": {"list": {"s": ["Qmlhc0FkZA=="]}}, "use_cudnn_on_gpu": {"b": true}, "dilations": {"list": {"i": ["1", "1", "1", "1"]}}, "data_format": {"s": "TkhXQw=="}, "epsilon": {"f": 0.0}}}, {"name": "StatefulPartitionedCall/hrnet-gaze/activation_8/Relu", "op": "_FusedConv2D", "input": ["StatefulPartitionedCall/hrnet-gaze/activation_7/Relu", "StatefulPartitionedCall/hrnet-gaze/conv2d_15/Conv2D_weights", "StatefulPartitionedCall/hrnet-gaze/conv2d_15/Conv2D_bn_offset"], "device": "/device:CPU:0", "attr": {"fused_ops": {"list": {"s": ["Qmlhc0FkZA==", "UmVsdQ=="]}}, "dilations": {"list": {"i": ["1", "1", "1", "1"]}}, "data_format": {"s": "TkhXQw=="}, "epsilon": {"f": 0.0}, "strides": {"list": {"i": ["1", "1", "1", "1"]}}, "explicit_paddings": {"list": {}}, "num_args": {"i": "1"}, "T": {"type": "DT_FLOAT"}, "padding": {"s": "U0FNRQ=="}, "use_cudnn_on_gpu": {"b": true}}}, {"name": "StatefulPartitionedCall/hrnet-gaze/batch_normalization_16/FusedBatchNormV3", "op": "_FusedConv2D", "input": ["StatefulPartitionedCall/hrnet-gaze/activation_8/Relu", "StatefulPartitionedCall/hrnet-gaze/conv2d_16/Conv2D_weights", "StatefulPartitionedCall/hrnet-gaze/conv2d_16/Conv2D_bn_offset"], "device": "/device:CPU:0", "attr": {"num_args": {"i": "1"}, "use_cudnn_on_gpu": {"b": true}, "T": {"type": "DT_FLOAT"}, "padding": {"s": "U0FNRQ=="}, "dilations": {"list": {"i": ["1", "1", "1", "1"]}}, "data_format": {"s": "TkhXQw=="}, "epsilon": {"f": 0.0}, "strides": {"list": {"i": ["1", "1", "1", "1"]}}, "fused_ops": {"list": {"s": ["Qmlhc0FkZA=="]}}, "explicit_paddings": {"list": {}}}}, {"name": "StatefulPartitionedCall/hrnet-gaze/add_10/add", "op": "AddV2", "input": ["StatefulPartitionedCall/hrnet-gaze/batch_normalization_16/FusedBatchNormV3", "StatefulPartitionedCall/hrnet-gaze/batch_normalization_17/FusedBatchNormV3"], "attr": {"T": {"type": "DT_FLOAT"}}}, {"name": "StatefulPartitionedCall/hrnet-gaze/activation_130/Relu", "op": "Relu", "input": ["StatefulPartitionedCall/hrnet-gaze/add_10/add"], "attr": {"T": {"type": "DT_FLOAT"}}}, {"name": "StatefulPartitionedCall/hrnet-gaze/batch_normalization_18/FusedBatchNormV3", "op": "_FusedConv2D", "input": ["StatefulPartitionedCall/hrnet-gaze/activation_130/Relu", "StatefulPartitionedCall/hrnet-gaze/conv2d_18/Conv2D_weights", "StatefulPartitionedCall/hrnet-gaze/conv2d_18/Conv2D_bn_offset"], "device": "/device:CPU:0", "attr": {"num_args": {"i": "1"}, "fused_ops": {"list": {"s": ["Qmlhc0FkZA=="]}}, "use_cudnn_on_gpu": {"b": true}, "strides": {"list": {"i": ["1", "1", "1", "1"]}}, "dilations": {"list": {"i": ["1", "1", "1", "1"]}}, "data_format": {"s": "TkhXQw=="}, "padding": {"s": "U0FNRQ=="}, "epsilon": {"f": 0.0}, "T": {"type": "DT_FLOAT"}, "explicit_paddings": {"list": {}}}}, {"name": "StatefulPartitionedCall/hrnet-gaze/activation_10/Relu", "op": "_FusedConv2D", "input": ["StatefulPartitionedCall/hrnet-gaze/batch_normalization_18/FusedBatchNormV3", "StatefulPartitionedCall/hrnet-gaze/conv2d_20/Conv2D_weights", "StatefulPartitionedCall/hrnet-gaze/conv2d_20/Conv2D_bn_offset"], "device": "/device:CPU:0", "attr": {"fused_ops": {"list": {"s": ["Qmlhc0FkZA==", "UmVsdQ=="]}}, "explicit_paddings": {"list": {}}, "T": {"type": "DT_FLOAT"}, "padding": {"s": "U0FNRQ=="}, "num_args": {"i": "1"}, "strides": {"list": {"i": ["1", "1", "1", "1"]}}, "use_cudnn_on_gpu": {"b": true}, "dilations": {"list": {"i": ["1", "1", "1", "1"]}}, "data_format": {"s": "TkhXQw=="}, "epsilon": {"f": 0.0}}}, {"name": "StatefulPartitionedCall/hrnet-gaze/activation_9/Relu", "op": "_FusedConv2D", "input": ["StatefulPartitionedCall/hrnet-gaze/batch_normalization_18/FusedBatchNormV3", "StatefulPartitionedCall/hrnet-gaze/conv2d_19/Conv2D_weights", "StatefulPartitionedCall/hrnet-gaze/conv2d_19/Conv2D_bn_offset"], "device": "/device:CPU:0", "attr": {"T": {"type": "DT_FLOAT"}, "explicit_paddings": {"list": {}}, "num_args": {"i": "1"}, "fused_ops": {"list": {"s": ["Qmlhc0FkZA==", "UmVsdQ=="]}}, "dilations": {"list": {"i": ["1", "1", "1", "1"]}}, "strides": {"list": {"i": ["1", "2", "2", "1"]}}, "epsilon": {"f": 0.0}, "use_cudnn_on_gpu": {"b": true}, "data_format": {"s": "TkhXQw=="}, "padding": {"s": "U0FNRQ=="}}}, {"name": "StatefulPartitionedCall/hrnet-gaze/batch_normalization_21/FusedBatchNormV3", "op": "_FusedConv2D", "input": ["StatefulPartitionedCall/hrnet-gaze/activation_10/Relu", "StatefulPartitionedCall/hrnet-gaze/conv2d_21/Conv2D_weights", "StatefulPartitionedCall/hrnet-gaze/conv2d_21/Conv2D_bn_offset"], "device": "/device:CPU:0", "attr": {"use_cudnn_on_gpu": {"b": true}, "dilations": {"list": {"i": ["1", "1", "1", "1"]}}, "data_format": {"s": "TkhXQw=="}, "strides": {"list": {"i": ["1", "1", "1", "1"]}}, "epsilon": {"f": 0.0}, "fused_ops": {"list": {"s": ["Qmlhc0FkZA=="]}}, "padding": {"s": "U0FNRQ=="}, "explicit_paddings": {"list": {}}, "T": {"type": "DT_FLOAT"}, "num_args": {"i": "1"}}}, {"name": "StatefulPartitionedCall/hrnet-gaze/activation_14/Relu", "op": "_FusedConv2D", "input": ["StatefulPartitionedCall/hrnet-gaze/activation_9/Relu", "StatefulPartitionedCall/hrnet-gaze/conv2d_28/Conv2D_weights", "StatefulPartitionedCall/hrnet-gaze/conv2d_28/Conv2D_bn_offset"], "device": "/device:CPU:0", "attr": {"use_cudnn_on_gpu": {"b": true}, "strides": {"list": {"i": ["1", "1", "1", "1"]}}, "dilations": {"list": {"i": ["1", "1", "1", "1"]}}, "data_format": {"s": "TkhXQw=="}, "epsilon": {"f": 0.0}, "fused_ops": {"list": {"s": ["Qmlhc0FkZA==", "UmVsdQ=="]}}, "explicit_paddings": {"list": {}}, "T": {"type": "DT_FLOAT"}, "padding": {"s": "U0FNRQ=="}, "num_args": {"i": "1"}}}, {"name": "StatefulPartitionedCall/hrnet-gaze/add_11/add", "op": "AddV2", "input": ["StatefulPartitionedCall/hrnet-gaze/batch_normalization_21/FusedBatchNormV3", "StatefulPartitionedCall/hrnet-gaze/batch_normalization_18/FusedBatchNormV3"], "attr": {"T": {"type": "DT_FLOAT"}}}, {"name": "StatefulPartitionedCall/hrnet-gaze/batch_normalization_29/FusedBatchNormV3", "op": "_FusedConv2D", "input": ["StatefulPartitionedCall/hrnet-gaze/activation_14/Relu", "StatefulPartitionedCall/hrnet-gaze/conv2d_29/Conv2D_weights", "StatefulPartitionedCall/hrnet-gaze/conv2d_29/Conv2D_bn_offset"], "device": "/device:CPU:0", "attr": {"data_format": {"s": "TkhXQw=="}, "use_cudnn_on_gpu": {"b": true}, "explicit_paddings": {"list": {}}, "epsilon": {"f": 0.0}, "strides": {"list": {"i": ["1", "1", "1", "1"]}}, "padding": {"s": "U0FNRQ=="}, "fused_ops": {"list": {"s": ["Qmlhc0FkZA=="]}}, "dilations": {"list": {"i": ["1", "1", "1", "1"]}}, "num_args": {"i": "1"}, "T": {"type": "DT_FLOAT"}}}, {"name": "StatefulPartitionedCall/hrnet-gaze/activation_131/Relu", "op": "Relu", "input": ["StatefulPartitionedCall/hrnet-gaze/add_11/add"], "attr": {"T": {"type": "DT_FLOAT"}}}, {"name": "StatefulPartitionedCall/hrnet-gaze/add_15/add", "op": "AddV2", "input": ["StatefulPartitionedCall/hrnet-gaze/batch_normalization_29/FusedBatchNormV3", "StatefulPartitionedCall/hrnet-gaze/activation_9/Relu"], "attr": {"T": {"type": "DT_FLOAT"}}}, {"name": "StatefulPartitionedCall/hrnet-gaze/activation_11/Relu", "op": "_FusedConv2D", "input": ["StatefulPartitionedCall/hrnet-gaze/activation_131/Relu", "StatefulPartitionedCall/hrnet-gaze/conv2d_22/Conv2D_weights", "StatefulPartitionedCall/hrnet-gaze/conv2d_22/Conv2D_bn_offset"], "device": "/device:CPU:0", "attr": {"num_args": {"i": "1"}, "strides": {"list": {"i": ["1", "1", "1", "1"]}}, "dilations": {"list": {"i": ["1", "1", "1", "1"]}}, "use_cudnn_on_gpu": {"b": true}, "explicit_paddings": {"list": {}}, "epsilon": {"f": 0.0}, "fused_ops": {"list": {"s": ["Qmlhc0FkZA==", "UmVsdQ=="]}}, "data_format": {"s": "TkhXQw=="}, "T": {"type": "DT_FLOAT"}, "padding": {"s": "U0FNRQ=="}}}, {"name": "StatefulPartitionedCall/hrnet-gaze/activation_135/Relu", "op": "Relu", "input": ["StatefulPartitionedCall/hrnet-gaze/add_15/add"], "attr": {"T": {"type": "DT_FLOAT"}}}, {"name": "StatefulPartitionedCall/hrnet-gaze/batch_normalization_23/FusedBatchNormV3", "op": "_FusedConv2D", "input": ["StatefulPartitionedCall/hrnet-gaze/activation_11/Relu", "StatefulPartitionedCall/hrnet-gaze/conv2d_23/Conv2D_weights", "StatefulPartitionedCall/hrnet-gaze/conv2d_23/Conv2D_bn_offset"], "device": "/device:CPU:0", "attr": {"T": {"type": "DT_FLOAT"}, "padding": {"s": "U0FNRQ=="}, "num_args": {"i": "1"}, "use_cudnn_on_gpu": {"b": true}, "dilations": {"list": {"i": ["1", "1", "1", "1"]}}, "strides": {"list": {"i": ["1", "1", "1", "1"]}}, "data_format": {"s": "TkhXQw=="}, "fused_ops": {"list": {"s": ["Qmlhc0FkZA=="]}}, "epsilon": {"f": 0.0}, "explicit_paddings": {"list": {}}}}, {"name": "StatefulPartitionedCall/hrnet-gaze/activation_15/Relu", "op": "_FusedConv2D", "input": ["StatefulPartitionedCall/hrnet-gaze/activation_135/Relu", "StatefulPartitionedCall/hrnet-gaze/conv2d_30/Conv2D_weights", "StatefulPartitionedCall/hrnet-gaze/conv2d_30/Conv2D_bn_offset"], "device": "/device:CPU:0", "attr": {"explicit_paddings": {"list": {}}, "padding": {"s": "U0FNRQ=="}, "T": {"type": "DT_FLOAT"}, "dilations": {"list": {"i": ["1", "1", "1", "1"]}}, "num_args": {"i": "1"}, "strides": {"list": {"i": ["1", "1", "1", "1"]}}, "epsilon": {"f": 0.0}, "data_format": {"s": "TkhXQw=="}, "fused_ops": {"list": {"s": ["Qmlhc0FkZA==", "UmVsdQ=="]}}, "use_cudnn_on_gpu": {"b": true}}}, {"name": "StatefulPartitionedCall/hrnet-gaze/add_12/add", "op": "AddV2", "input": ["StatefulPartitionedCall/hrnet-gaze/batch_normalization_23/FusedBatchNormV3", "StatefulPartitionedCall/hrnet-gaze/activation_131/Relu"], "attr": {"T": {"type": "DT_FLOAT"}}}, {"name": "StatefulPartitionedCall/hrnet-gaze/batch_normalization_31/FusedBatchNormV3", "op": "_FusedConv2D", "input": ["StatefulPartitionedCall/hrnet-gaze/activation_15/Relu", "StatefulPartitionedCall/hrnet-gaze/conv2d_31/Conv2D_weights", "StatefulPartitionedCall/hrnet-gaze/conv2d_31/Conv2D_bn_offset"], "device": "/device:CPU:0", "attr": {"dilations": {"list": {"i": ["1", "1", "1", "1"]}}, "use_cudnn_on_gpu": {"b": true}, "strides": {"list": {"i": ["1", "1", "1", "1"]}}, "fused_ops": {"list": {"s": ["Qmlhc0FkZA=="]}}, "data_format": {"s": "TkhXQw=="}, "explicit_paddings": {"list": {}}, "epsilon": {"f": 0.0}, "T": {"type": "DT_FLOAT"}, "padding": {"s": "U0FNRQ=="}, "num_args": {"i": "1"}}}, {"name": "StatefulPartitionedCall/hrnet-gaze/activation_132/Relu", "op": "Relu", "input": ["StatefulPartitionedCall/hrnet-gaze/add_12/add"], "attr": {"T": {"type": "DT_FLOAT"}}}, {"name": "StatefulPartitionedCall/hrnet-gaze/add_16/add", "op": "AddV2", "input": ["StatefulPartitionedCall/hrnet-gaze/batch_normalization_31/FusedBatchNormV3", "StatefulPartitionedCall/hrnet-gaze/activation_135/Relu"], "attr": {"T": {"type": "DT_FLOAT"}}}, {"name": "StatefulPartitionedCall/hrnet-gaze/activation_12/Relu", "op": "_FusedConv2D", "input": ["StatefulPartitionedCall/hrnet-gaze/activation_132/Relu", "StatefulPartitionedCall/hrnet-gaze/conv2d_24/Conv2D_weights", "StatefulPartitionedCall/hrnet-gaze/conv2d_24/Conv2D_bn_offset"], "device": "/device:CPU:0", "attr": {"strides": {"list": {"i": ["1", "1", "1", "1"]}}, "padding": {"s": "U0FNRQ=="}, "num_args": {"i": "1"}, "dilations": {"list": {"i": ["1", "1", "1", "1"]}}, "T": {"type": "DT_FLOAT"}, "epsilon": {"f": 0.0}, "fused_ops": {"list": {"s": ["Qmlhc0FkZA==", "UmVsdQ=="]}}, "use_cudnn_on_gpu": {"b": true}, "data_format": {"s": "TkhXQw=="}, "explicit_paddings": {"list": {}}}}, {"name": "StatefulPartitionedCall/hrnet-gaze/activation_136/Relu", "op": "Relu", "input": ["StatefulPartitionedCall/hrnet-gaze/add_16/add"], "attr": {"T": {"type": "DT_FLOAT"}}}, {"name": "StatefulPartitionedCall/hrnet-gaze/batch_normalization_25/FusedBatchNormV3", "op": "_FusedConv2D", "input": ["StatefulPartitionedCall/hrnet-gaze/activation_12/Relu", "StatefulPartitionedCall/hrnet-gaze/conv2d_25/Conv2D_weights", "StatefulPartitionedCall/hrnet-gaze/conv2d_25/Conv2D_bn_offset"], "device": "/device:CPU:0", "attr": {"padding": {"s": "U0FNRQ=="}, "epsilon": {"f": 0.0}, "T": {"type": "DT_FLOAT"}, "num_args": {"i": "1"}, "dilations": {"list": {"i": ["1", "1", "1", "1"]}}, "use_cudnn_on_gpu": {"b": true}, "strides": {"list": {"i": ["1", "1", "1", "1"]}}, "fused_ops": {"list": {"s": ["Qmlhc0FkZA=="]}}, "data_format": {"s": "TkhXQw=="}, "explicit_paddings": {"list": {}}}}, {"name": "StatefulPartitionedCall/hrnet-gaze/activation_16/Relu", "op": "_FusedConv2D", "input": ["StatefulPartitionedCall/hrnet-gaze/activation_136/Relu", "StatefulPartitionedCall/hrnet-gaze/conv2d_32/Conv2D_weights", "StatefulPartitionedCall/hrnet-gaze/conv2d_32/Conv2D_bn_offset"], "device": "/device:CPU:0", "attr": {"padding": {"s": "U0FNRQ=="}, "fused_ops": {"list": {"s": ["Qmlhc0FkZA==", "UmVsdQ=="]}}, "data_format": {"s": "TkhXQw=="}, "explicit_paddings": {"list": {}}, "epsilon": {"f": 0.0}, "strides": {"list": {"i": ["1", "1", "1", "1"]}}, "num_args": {"i": "1"}, "T": {"type": "DT_FLOAT"}, "dilations": {"list": {"i": ["1", "1", "1", "1"]}}, "use_cudnn_on_gpu": {"b": true}}}, {"name": "StatefulPartitionedCall/hrnet-gaze/add_13/add", "op": "AddV2", "input": ["StatefulPartitionedCall/hrnet-gaze/batch_normalization_25/FusedBatchNormV3", "StatefulPartitionedCall/hrnet-gaze/activation_132/Relu"], "attr": {"T": {"type": "DT_FLOAT"}}}, {"name": "StatefulPartitionedCall/hrnet-gaze/batch_normalization_33/FusedBatchNormV3", "op": "_FusedConv2D", "input": ["StatefulPartitionedCall/hrnet-gaze/activation_16/Relu", "StatefulPartitionedCall/hrnet-gaze/conv2d_33/Conv2D_weights", "StatefulPartitionedCall/hrnet-gaze/conv2d_33/Conv2D_bn_offset"], "device": "/device:CPU:0", "attr": {"num_args": {"i": "1"}, "fused_ops": {"list": {"s": ["Qmlhc0FkZA=="]}}, "dilations": {"list": {"i": ["1", "1", "1", "1"]}}, "use_cudnn_on_gpu": {"b": true}, "strides": {"list": {"i": ["1", "1", "1", "1"]}}, "data_format": {"s": "TkhXQw=="}, "explicit_paddings": {"list": {}}, "padding": {"s": "U0FNRQ=="}, "T": {"type": "DT_FLOAT"}, "epsilon": {"f": 0.0}}}, {"name": "StatefulPartitionedCall/hrnet-gaze/activation_133/Relu", "op": "Relu", "input": ["StatefulPartitionedCall/hrnet-gaze/add_13/add"], "attr": {"T": {"type": "DT_FLOAT"}}}, {"name": "StatefulPartitionedCall/hrnet-gaze/add_17/add", "op": "AddV2", "input": ["StatefulPartitionedCall/hrnet-gaze/batch_normalization_33/FusedBatchNormV3", "StatefulPartitionedCall/hrnet-gaze/activation_136/Relu"], "attr": {"T": {"type": "DT_FLOAT"}}}, {"name": "StatefulPartitionedCall/hrnet-gaze/activation_13/Relu", "op": "_FusedConv2D", "input": ["StatefulPartitionedCall/hrnet-gaze/activation_133/Relu", "StatefulPartitionedCall/hrnet-gaze/conv2d_26/Conv2D_weights", "StatefulPartitionedCall/hrnet-gaze/conv2d_26/Conv2D_bn_offset"], "device": "/device:CPU:0", "attr": {"fused_ops": {"list": {"s": ["Qmlhc0FkZA==", "UmVsdQ=="]}}, "T": {"type": "DT_FLOAT"}, "padding": {"s": "U0FNRQ=="}, "num_args": {"i": "1"}, "strides": {"list": {"i": ["1", "1", "1", "1"]}}, "dilations": {"list": {"i": ["1", "1", "1", "1"]}}, "epsilon": {"f": 0.0}, "use_cudnn_on_gpu": {"b": true}, "explicit_paddings": {"list": {}}, "data_format": {"s": "TkhXQw=="}}}, {"name": "StatefulPartitionedCall/hrnet-gaze/activation_137/Relu", "op": "Relu", "input": ["StatefulPartitionedCall/hrnet-gaze/add_17/add"], "attr": {"T": {"type": "DT_FLOAT"}}}, {"name": "StatefulPartitionedCall/hrnet-gaze/batch_normalization_27/FusedBatchNormV3", "op": "_FusedConv2D", "input": ["StatefulPartitionedCall/hrnet-gaze/activation_13/Relu", "StatefulPartitionedCall/hrnet-gaze/conv2d_27/Conv2D_weights", "StatefulPartitionedCall/hrnet-gaze/conv2d_27/Conv2D_bn_offset"], "device": "/device:CPU:0", "attr": {"epsilon": {"f": 0.0}, "padding": {"s": "U0FNRQ=="}, "num_args": {"i": "1"}, "T": {"type": "DT_FLOAT"}, "fused_ops": {"list": {"s": ["Qmlhc0FkZA=="]}}, "use_cudnn_on_gpu": {"b": true}, "dilations": {"list": {"i": ["1", "1", "1", "1"]}}, "explicit_paddings": {"list": {}}, "data_format": {"s": "TkhXQw=="}, "strides": {"list": {"i": ["1", "1", "1", "1"]}}}}, {"name": "StatefulPartitionedCall/hrnet-gaze/activation_17/Relu", "op": "_FusedConv2D", "input": ["StatefulPartitionedCall/hrnet-gaze/activation_137/Relu", "StatefulPartitionedCall/hrnet-gaze/conv2d_34/Conv2D_weights", "StatefulPartitionedCall/hrnet-gaze/conv2d_34/Conv2D_bn_offset"], "device": "/device:CPU:0", "attr": {"strides": {"list": {"i": ["1", "1", "1", "1"]}}, "T": {"type": "DT_FLOAT"}, "padding": {"s": "U0FNRQ=="}, "num_args": {"i": "1"}, "fused_ops": {"list": {"s": ["Qmlhc0FkZA==", "UmVsdQ=="]}}, "dilations": {"list": {"i": ["1", "1", "1", "1"]}}, "use_cudnn_on_gpu": {"b": true}, "epsilon": {"f": 0.0}, "explicit_paddings": {"list": {}}, "data_format": {"s": "TkhXQw=="}}}, {"name": "StatefulPartitionedCall/hrnet-gaze/add_14/add", "op": "AddV2", "input": ["StatefulPartitionedCall/hrnet-gaze/batch_normalization_27/FusedBatchNormV3", "StatefulPartitionedCall/hrnet-gaze/activation_133/Relu"], "attr": {"T": {"type": "DT_FLOAT"}}}, {"name": "StatefulPartitionedCall/hrnet-gaze/batch_normalization_35/FusedBatchNormV3", "op": "_FusedConv2D", "input": ["StatefulPartitionedCall/hrnet-gaze/activation_17/Relu", "StatefulPartitionedCall/hrnet-gaze/conv2d_35/Conv2D_weights", "StatefulPartit…
-gaze/conv2d_16/Conv2D_bn_offset", "shape": [72], "dtype": "float32"}, {"name": "StatefulPartitionedCall/hrnet-gaze/conv2d_18/Conv2D_weights", "shape": [3, 3, 72, 18], "dtype": "float32"}, {"name": "StatefulPartitionedCall/hrnet-gaze/conv2d_18/Conv2D_bn_offset", "shape": [18], "dtype": "float32"}, {"name": "StatefulPartitionedCall/hrnet-gaze/conv2d_20/Conv2D_weights", "shape": [3, 3, 18, 18], "dtype": "float32"}, {"name": "StatefulPartitionedCall/hrnet-gaze/conv2d_20/Conv2D_bn_offset", "shape": [18], "dtype": "float32"}, {"name": "StatefulPartitionedCall/hrnet-gaze/conv2d_19/Conv2D_weights", "shape": [3, 3, 18, 36], "dtype": "float32"}, {"name": "StatefulPartitionedCall/hrnet-gaze/conv2d_203/Conv2D_weights", "shape": [3, 3, 72, 72], "dtype": "float32"}, {"name": "StatefulPartitionedCall/hrnet-gaze/conv2d_19/Conv2D_bn_offset", "shape": [36], "dtype": "float32"}, {"name": "StatefulPartitionedCall/hrnet-gaze/conv2d_21/Conv2D_weights", "shape": [3, 3, 18, 18], "dtype": "float32"}, {"name": "StatefulPartitionedCall/hrnet-gaze/conv2d_203/Conv2D_bn_offset", "shape": [72], "dtype": "float32"}, {"name": "StatefulPartitionedCall/hrnet-gaze/conv2d_21/Conv2D_bn_offset", "shape": [18], "dtype": "float32"}, {"name": "StatefulPartitionedCall/hrnet-gaze/conv2d_28/Conv2D_weights", "shape": [3, 3, 36, 36], "dtype": "float32"}, {"name": "StatefulPartitionedCall/hrnet-gaze/conv2d_238/Conv2D_bn_offset", "shape": [144], "dtype": "float32"}, {"name": "StatefulPartitionedCall/hrnet-gaze/conv2d_28/Conv2D_bn_offset", "shape": [36], "dtype": "float32"}, {"name": "StatefulPartitionedCall/hrnet-gaze/conv2d_29/Conv2D_weights", "shape": [3, 3, 36, 36], "dtype": "float32"}, {"name": "StatefulPartitionedCall/hrnet-gaze/conv2d_155/Conv2D_weights", "shape": [3, 3, 18, 18], "dtype": "float32"}, {"name": "StatefulPartitionedCall/hrnet-gaze/conv2d_29/Conv2D_bn_offset", "shape": [36], "dtype": "float32"}, {"name": "StatefulPartitionedCall/hrnet-gaze/conv2d_22/Conv2D_weights", "shape": [3, 3, 18, 18], "dtype": "float32"}, {"name": "StatefulPartitionedCall/hrnet-gaze/conv2d_22/Conv2D_bn_offset", "shape": [18], "dtype": "float32"}, {"name": "StatefulPartitionedCall/hrnet-gaze/conv2d_155/Conv2D_bn_offset", "shape": [18], "dtype": "float32"}, {"name": "StatefulPartitionedCall/hrnet-gaze/conv2d_23/Conv2D_weights", "shape": [3, 3, 18, 18], "dtype": "float32"}, {"name": "StatefulPartitionedCall/hrnet-gaze/conv2d_23/Conv2D_bn_offset", "shape": [18], "dtype": "float32"}, {"name": "StatefulPartitionedCall/hrnet-gaze/conv2d_30/Conv2D_weights", "shape": [3, 3, 36, 36], "dtype": "float32"}, {"name": "StatefulPartitionedCall/hrnet-gaze/conv2d_30/Conv2D_bn_offset", "shape": [36], "dtype": "float32"}, {"name": "StatefulPartitionedCall/hrnet-gaze/conv2d_204/Conv2D_weights", "shape": [3, 3, 72, 72], "dtype": "float32"}, {"name": "StatefulPartitionedCall/hrnet-gaze/conv2d_31/Conv2D_weights", "shape": [3, 3, 36, 36], "dtype": "float32"}, {"name": "StatefulPartitionedCall/hrnet-gaze/conv2d_31/Conv2D_bn_offset", "shape": [36], "dtype": "float32"}, {"name": "StatefulPartitionedCall/hrnet-gaze/conv2d_24/Conv2D_weights", "shape": [3, 3, 18, 18], "dtype": "float32"}, {"name": "StatefulPartitionedCall/hrnet-gaze/conv2d_204/Conv2D_bn_offset", "shape": [72], "dtype": "float32"}, {"name": "StatefulPartitionedCall/hrnet-gaze/conv2d_24/Conv2D_bn_offset", "shape": [18], "dtype": "float32"}, {"name": "StatefulPartitionedCall/hrnet-gaze/conv2d_25/Conv2D_weights", "shape": [3, 3, 18, 18], "dtype": "float32"}, {"name": "StatefulPartitionedCall/hrnet-gaze/conv2d_25/Conv2D_bn_offset", "shape": [18], "dtype": "float32"}, {"name": "StatefulPartitionedCall/hrnet-gaze/conv2d_32/Conv2D_weights", "shape": [3, 3, 36, 36], "dtype": "float32"}, {"name": "StatefulPartitionedCall/hrnet-gaze/conv2d_32/Conv2D_bn_offset", "shape": [36], "dtype": "float32"}, {"name": "StatefulPartitionedCall/hrnet-gaze/conv2d_227/Conv2D_weights", "shape": [3, 3, 144, 144], "dtype": "float32"}, {"name": "StatefulPartitionedCall/hrnet-gaze/conv2d_33/Conv2D_weights", "shape": [3, 3, 36, 36], "dtype": "float32"}, {"name": "StatefulPartitionedCall/hrnet-gaze/conv2d_192/Conv2D_weights", "shape": [3, 3, 36, 36], "dtype": "float32"}, {"name": "StatefulPartitionedCall/hrnet-gaze/conv2d_33/Conv2D_bn_offset", "shape": [36], "dtype": "float32"}, {"name": "StatefulPartitionedCall/hrnet-gaze/conv2d_26/Conv2D_weights", "shape": [3, 3, 18, 18], "dtype": "float32"}, {"name": "StatefulPartitionedCall/hrnet-gaze/conv2d_227/Conv2D_bn_offset", "shape": [144], "dtype": "float32"}, {"name": "StatefulPartitionedCall/hrnet-gaze/conv2d_26/Conv2D_bn_offset", "shape": [18], "dtype": "float32"}, {"name": "StatefulPartitionedCall/hrnet-gaze/conv2d_27/Conv2D_weights", "shape": [3, 3, 18, 18], "dtype": "float32"}, {"name": "StatefulPartitionedCall/hrnet-gaze/conv2d_27/Conv2D_bn_offset", "shape": [18], "dtype": "float32"}, {"name": "StatefulPartitionedCall/hrnet-gaze/conv2d_34/Conv2D_weights", "shape": [3, 3, 36, 36], "dtype": "float32"}, {"name": "StatefulPartitionedCall/hrnet-gaze/conv2d_156/Conv2D_weights", "shape": [3, 3, 18, 18], "dtype": "float32"}, {"name": "StatefulPartitionedCall/hrnet-gaze/conv2d_34/Conv2D_bn_offset", "shape": [36], "dtype": "float32"}, {"name": "StatefulPartitionedCall/hrnet-gaze/conv2d_192/Conv2D_bn_offset", "shape": [36], "dtype": "float32"}, {"name": "StatefulPartitionedCall/hrnet-gaze/conv2d_35/Conv2D_weights", "shape": [3, 3, 36, 36], "dtype": "float32"}, {"name": "StatefulPartitionedCall/hrnet-gaze/conv2d_156/Conv2D_bn_offset", "shape": [18], "dtype": "float32"}, {"name": "StatefulPartitionedCall/hrnet-gaze/conv2d_35/Conv2D_bn_offset", "shape": [36], "dtype": "float32"}, {"name": "StatefulPartitionedCall/hrnet-gaze/conv2d_36/Conv2D_weights", "shape": [3, 3, 18, 36], "dtype": "float32"}, {"name": "StatefulPartitionedCall/hrnet-gaze/conv2d_36/Conv2D_bn_offset", "shape": [36], "dtype": "float32"}, {"name": "StatefulPartitionedCall/hrnet-gaze/conv2d_37/Conv2D_weights", "shape": [3, 3, 36, 72], "dtype": "float32"}, {"name": "StatefulPartitionedCall/hrnet-gaze/conv2d_181/Conv2D_weights", "shape": [3, 3, 36, 36], "dtype": "float32"}, {"name": "StatefulPartitionedCall/hrnet-gaze/conv2d_37/Conv2D_bn_offset", "shape": [72], "dtype": "float32"}, {"name": "StatefulPartitionedCall/hrnet-gaze/conv2d_39/Conv2D_weights", "shape": [3, 3, 36, 72], "dtype": "float32"}, {"name": "StatefulPartitionedCall/hrnet-gaze/conv2d_181/Conv2D_bn_offset", "shape": [36], "dtype": "float32"}, {"name": "StatefulPartitionedCall/hrnet-gaze/conv2d_39/Conv2D_bn_offset", "shape": [72], "dtype": "float32"}, {"name": "StatefulPartitionedCall/hrnet-gaze/conv2d_72/Conv2D_weights", "shape": [3, 3, 36, 36], "dtype": "float32"}, {"name": "StatefulPartitionedCall/hrnet-gaze/conv2d_72/Conv2D_bn_offset", "shape": [36], "dtype": "float32"}, {"name": "StatefulPartitionedCall/hrnet-gaze/conv2d_228/Conv2D_weights", "shape": [3, 3, 144, 144], "dtype": "float32"}, {"name": "StatefulPartitionedCall/hrnet-gaze/conv2d_73/Conv2D_weights", "shape": [3, 3, 36, 36], "dtype": "float32"}, {"name": "StatefulPartitionedCall/hrnet-gaze/conv2d_73/Conv2D_bn_offset", "shape": [36], "dtype": "float32"}, {"name": "StatefulPartitionedCall/hrnet-gaze/conv2d_104/Conv2D_weights", "shape": [3, 3, 72, 72], "dtype": "float32"}, {"name": "StatefulPartitionedCall/hrnet-gaze/conv2d_228/Conv2D_bn_offset", "shape": [144], "dtype": "float32"}, {"name": "StatefulPartitionedCall/hrnet-gaze/conv2d_104/Conv2D_bn_offset", "shape": [72], "dtype": "float32"}, {"name": "StatefulPartitionedCall/hrnet-gaze/conv2d_40/Conv2D_weights", "shape": [3, 3, 18, 18], "dtype": "float32"}, {"name": "StatefulPartitionedCall/hrnet-gaze/conv2d_40/Conv2D_bn_offset", "shape": [18], "dtype": "float32"}, {"name": "StatefulPartitionedCall/hrnet-gaze/conv2d_105/Conv2D_weights", "shape": [3, 3, 72, 72], "dtype": "float32"}, {"name": "StatefulPartitionedCall/hrnet-gaze/conv2d_182/Conv2D_weights", "shape": [3, 3, 36, 36], "dtype": "float32"}, {"name": "StatefulPartitionedCall/hrnet-gaze/conv2d_105/Conv2D_bn_offset", "shape": [72], "dtype": "float32"}, {"name": "StatefulPartitionedCall/hrnet-gaze/conv2d_41/Conv2D_weights", "shape": [3, 3, 18, 18], "dtype": "float32"}, {"name": "StatefulPartitionedCall/hrnet-gaze/conv2d_41/Conv2D_bn_offset", "shape": [18], "dtype": "float32"}, {"name": "StatefulPartitionedCall/hrnet-gaze/conv2d_74/Conv2D_weights", "shape": [3, 3, 36, 36], "dtype": "float32"}, {"name": "StatefulPartitionedCall/hrnet-gaze/conv2d_182/Conv2D_bn_offset", "shape": [36], "dtype": "float32"}, {"name": "StatefulPartitionedCall/hrnet-gaze/conv2d_74/Conv2D_bn_offset", "shape": [36], "dtype": "float32"}, {"name": "StatefulPartitionedCall/hrnet-gaze/conv2d_75/Conv2D_weights", "shape": [3, 3, 36, 36], "dtype": "float32"}, {"name": "StatefulPartitionedCall/hrnet-gaze/conv2d_75/Conv2D_bn_offset", "shape": [36], "dtype": "float32"}, {"name": "StatefulPartitionedCall/hrnet-gaze/conv2d_106/Conv2D_weights", "shape": [3, 3, 72, 72], "dtype": "float32"}, {"name": "StatefulPartitionedCall/hrnet-gaze/conv2d_106/Conv2D_bn_offset", "shape": [72], "dtype": "float32"}, {"name": "StatefulPartitionedCall/hrnet-gaze/conv2d_205/Conv2D_weights", "shape": [3, 3, 72, 72], "dtype": "float32"}, {"name": "StatefulPartitionedCall/hrnet-gaze/conv2d_42/Conv2D_weights", "shape": [3, 3, 18, 18], "dtype": "float32"}, {"name": "StatefulPartitionedCall/hrnet-gaze/conv2d_215/Conv2D_weights", "shape": [3, 3, 72, 72], "dtype": "float32"}, {"name": "StatefulPartitionedCall/hrnet-gaze/conv2d_42/Conv2D_bn_offset", "shape": [18], "dtype": "float32"}, {"name": "StatefulPartitionedCall/hrnet-gaze/conv2d_205/Conv2D_bn_offset", "shape": [72], "dtype": "float32"}, {"name": "StatefulPartitionedCall/hrnet-gaze/conv2d_107/Conv2D_weights", "shape": [3, 3, 72, 72], "dtype": "float32"}, {"name": "StatefulPartitionedCall/hrnet-gaze/conv2d_107/Conv2D_bn_offset", "shape": [72], "dtype": "float32"}, {"name": "StatefulPartitionedCall/hrnet-gaze/conv2d_43/Conv2D_weights", "shape": [3, 3, 18, 18], "dtype": "float32"}, {"name": "StatefulPartitionedCall/hrnet-gaze/conv2d_43/Conv2D_bn_offset", "shape": [18], "dtype": "float32"}, {"name": "StatefulPartitionedCall/hrnet-gaze/conv2d_76/Conv2D_weights", "shape": [3, 3, 36, 36], "dtype": "float32"}, {"name": "StatefulPartitionedCall/hrnet-gaze/conv2d_157/Conv2D_weights", "shape": [3, 3, 18, 18], "dtype": "float32"}, {"name": "StatefulPartitionedCall/hrnet-gaze/conv2d_76/Conv2D_bn_offset", "shape": [36], "dtype": "float32"}, {"name": "StatefulPartitionedCall/hrnet-gaze/conv2d_215/Conv2D_bn_offset", "shape": [72], "dtype": "float32"}, {"name": "StatefulPartitionedCall/hrnet-gaze/conv2d_77/Conv2D_weights", "shape": [3, 3, 36, 36], "dtype": "float32"}, {"name": "StatefulPartitionedCall/hrnet-gaze/conv2d_157/Conv2D_bn_offset", "shape": [18], "dtype": "float32"}, {"name": "StatefulPartitionedCall/hrnet-gaze/conv2d_77/Conv2D_bn_offset", "shape": [36], "dtype": "float32"}, {"name": "StatefulPartitionedCall/hrnet-gaze/conv2d_108/Conv2D_weights", "shape": [3, 3, 72, 72], "dtype": "float32"}, {"name": "StatefulPartitionedCall/hrnet-gaze/batch_normalization_139/FusedBatchNormV3/Scaled", "shape": [18], "dtype": "float32"}, {"name": "StatefulPartitionedCall/hrnet-gaze/conv2d_108/Conv2D_bn_offset", "shape": [72], "dtype": "float32"}, {"name": "StatefulPartitionedCall/hrnet-gaze/conv2d_44/Conv2D_weights", "shape": [3, 3, 18, 18], "dtype": "float32"}, {"name": "StatefulPartitionedCall/hrnet-gaze/conv2d_206/Conv2D_weights", "shape": [3, 3, 72, 72], "dtype": "float32"}, {"name": "StatefulPartitionedCall/hrnet-gaze/conv2d_44/Conv2D_bn_offset", "shape": [18], "dtype": "float32"}, {"name": "StatefulPartitionedCall/hrnet-gaze/conv2d_109/Conv2D_weights", "shape": [3, 3, 72, 72], "dtype": "float32"}, {"name": "StatefulPartitionedCall/hrnet-gaze/conv2d_206/Conv2D_bn_offset", "shape": [72], "dtype": "float32"}, {"name": "StatefulPartitionedCall/hrnet-gaze/conv2d_109/Conv2D_bn_offset", "shape": [72], "dtype": "float32"}, {"name": "StatefulPartitionedCall/hrnet-gaze/conv2d_45/Conv2D_weights", "shape": [3, 3, 18, 18], "dtype": "float32"}, {"name": "StatefulPartitionedCall/hrnet-gaze/conv2d_45/Conv2D_bn_offset", "shape": [18], "dtype": "float32"}, {"name": "StatefulPartitionedCall/hrnet-gaze/conv2d_78/Conv2D_weights", "shape": [3, 3, 36, 36], "dtype": "float32"}, {"name": "StatefulPartitionedCall/hrnet-gaze/conv2d_78/Conv2D_bn_offset", "shape": [36], "dtype": "float32"}, {"name": "StatefulPartitionedCall/hrnet-gaze/conv2d_79/Conv2D_weights", "shape": [3, 3, 36, 36], "dtype": "float32"}, {"name": "StatefulPartitionedCall/hrnet-gaze/conv2d_229/Conv2D_weights", "shape": [3, 3, 144, 144], "dtype": "float32"}, {"name": "StatefulPartitionedCall/hrnet-gaze/conv2d_79/Conv2D_bn_offset", "shape": [36], "dtype": "float32"}, {"name": "StatefulPartitionedCall/hrnet-gaze/conv2d_110/Conv2D_weights", "shape": [3, 3, 72, 72], "dtype": "float32"}, {"name": "StatefulPartitionedCall/hrnet-gaze/conv2d_167/Conv2D_weights", "shape": [3, 3, 18, 18], "dtype": "float32"}, {"name": "StatefulPartitionedCall/hrnet-gaze/conv2d_110/Conv2D_bn_offset", "shape": [72], "dtype": "float32"}, {"name": "StatefulPartitionedCall/hrnet-gaze/conv2d_229/Conv2D_bn_offset", "shape": [144], "dtype": "float32"}, {"name": "StatefulPartitionedCall/hrnet-gaze/conv2d_46/Conv2D_weights", "shape": [3, 3, 18, 18], "dtype": "float32"}, {"name": "StatefulPartitionedCall/hrnet-gaze/conv2d_46/Conv2D_bn_offset", "shape": [18], "dtype": "float32"}, {"name": "StatefulPartitionedCall/hrnet-gaze/conv2d_111/Conv2D_weights", "shape": [3, 3, 72, 72], "dtype": "float32"}, {"name": "StatefulPartitionedCall/hrnet-gaze/conv2d_158/Conv2D_weights", "shape": [3, 3, 18, 18], "dtype": "float32"}, {"name": "StatefulPartitionedCall/hrnet-gaze/conv2d_111/Conv2D_bn_offset", "shape": [72], "dtype": "float32"}, {"name": "StatefulPartitionedCall/hrnet-gaze/conv2d_47/Conv2D_weights", "shape": [3, 3, 18, 18], "dtype": "float32"}, {"name": "StatefulPartitionedCall/hrnet-gaze/conv2d_167/Conv2D_bn_offset", "shape": [18], "dtype": "float32"}, {"name": "StatefulPartitionedCall/hrnet-gaze/conv2d_47/Conv2D_bn_offset", "shape": [18], "dtype": "float32"}, {"name": "StatefulPartitionedCall/hrnet-gaze/conv2d_80/Conv2D_weights", "shape": [3, 3, 36, 36], "dtype": "float32"}, {"name": "StatefulPartitionedCall/hrnet-gaze/conv2d_158/Conv2D_bn_offset", "shape": [18], "dtype": "float32"}, {"name": "StatefulPartitionedCall/hrnet-gaze/conv2d_80/Conv2D_bn_offset", "shape": [36], "dtype": "float32"}, {"name": "StatefulPartitionedCall/hrnet-gaze/conv2d_81/Conv2D_weights", "shape": [3, 3, 36, 36], "dtype": "float32"}, {"name": "StatefulPartitionedCall/hrnet-gaze/conv2d_81/Conv2D_bn_offset", "shape": [36], "dtype": "float32"}, {"name": "StatefulPartitionedCall/hrnet-gaze/conv2d_112/Conv2D_weights", "shape": [3, 3, 72, 72], "dtype": "float32"}, {"name": "StatefulPartitionedCall/hrnet-gaze/conv2d_112/Conv2D_bn_offset", "shape": [72], "dtype": "float32"}, {"name": "StatefulPartitionedCall/hrnet-gaze/conv2d_183/Conv2D_weights", "shape": [3, 3, 36, 36], "dtype": "float32"}, {"name": "StatefulPartitionedCall/hrnet-gaze/conv2d_48/Conv2D_weights", "shape": [3, 3, 18, 18], "dtype": "float32"}, {"name": "StatefulPartitionedCall/hrnet-gaze/conv2d_48/Conv2D_bn_offset", "shape": [18], "dtype": "float32"}, {"name": "StatefulPartitionedCall/hrnet-gaze/conv2d_183/Conv2D_bn_offset", "shape": [36], "dtype": "float32"}, {"name": "StatefulPartitionedCall/hrnet-gaze/conv2d_113/Conv2D_weights", "shape": [3, 3, 72, 72], "dtype": "float32"}, {"name": "StatefulPartitionedCall/hrnet-gaze/conv2d_113/Conv2D_bn_offset", "shape": [72], "dtype": "float32"}, {"name": "StatefulPartitionedCall/hrnet-gaze/conv2d_49/Conv2D_weights", "shape": [3, 3, 18, 18], "dtype": "float32"}, {"name": "StatefulPartitionedCall/hrnet-gaze/conv2d_49/Conv2D_bn_offset", "shape": [18], "dtype": "float32"}, {"name": "StatefulPartitionedCall/hrnet-gaze/conv2d_82/Conv2D_weights", "shape": [3, 3, 36, 36], "dtype": "float32"}, {"name": "StatefulPartitionedCall/hrnet-gaze/conv2d_230/Conv2D_weights", "shape": [3, 3, 144, 144], "dtype": "float32"}, {"name": "StatefulPartitionedCall/hrnet-gaze/conv2d_82/Conv2D_bn_offset", "shape": [36], "dtype": "float32"}, {"name": "StatefulPartitionedCall/hrnet-gaze/conv2d_216/Conv2D_weights", "shape": [3, 3, 72, 72], "dtype": "float32"}, {"name": "StatefulPartitionedCall/hrnet-gaze/conv2d_83/Conv2D_weights", "shape": [3, 3, 36, 36], "dtype": "float32"}, {"name": "StatefulPartitionedCall/hrnet-gaze/conv2d_230/Conv2D_bn_offset", "shape": [144], "dtype": "float32"}, {"name": "StatefulPartitionedCall/hrnet-gaze/conv2d_83/Conv2D_bn_offset", "shape": [36], "dtype": "float32"}, {"name": "StatefulPartitionedCall/hrnet-gaze/conv2d_114/Conv2D_weights", "shape": [3, 3, 72, 72], "dtype": "float32"}, {"name": "StatefulPartitionedCall/hrnet-gaze/conv2d_114/Conv2D_bn_offset", "shape": [72], "dtype": "float32"}, {"name": "StatefulPartitionedCall/hrnet-gaze/conv2d_50/Conv2D_weights", "shape": [3, 3, 18, 18], "dtype": "float32"}, {"name": "StatefulPartitionedCall/hrnet-gaze/conv2d_50/Conv2D_bn_offset", "shape": [18], "dtype": "float32"}, {"name": "StatefulPartitionedCall/hrnet-gaze/conv2d_184/Conv2D_weights", "shape": [3, 3, 36, 36], "dtype": "float32"}, {"name": "StatefulPartitionedCall/hrnet-gaze/conv2d_115/Conv2D_weights", "shape": [3, 3, 72, 72], "dtype": "float32"}, {"name": "StatefulPartitionedCall/hrnet-gaze/batch_normalization_139/FusedBatchNormV3/Offset", "shape": [18], "dtype": "float32"}, {"name": "StatefulPartitionedCall/hrnet-gaze/conv2d_115/Conv2D_bn_offset", "shape": [72], "dtype": "float32"}, {"name": "StatefulPartitionedCall/hrnet-gaze/conv2d_51/Conv2D_weights", "shape": [3, 3, 18, 18], "dtype": "float32"}, {"name": "StatefulPartitionedCall/hrnet-gaze/conv2d_184/Conv2D_bn_offset", "shape": [36], "dtype": "float32"}, {"name": "StatefulPartitionedCall/hrnet-gaze/conv2d_51/Conv2D_bn_offset", "shape": [18], "dtype": "float32"}, {"name": "StatefulPartitionedCall/hrnet-gaze/conv2d_84/Conv2D_weights", "shape": [3, 3, 36, 36], "dtype": "float32"}, {"name": "StatefulPartitionedCall/hrnet-gaze/conv2d_84/Conv2D_bn_offset", "shape": [36], "dtype": "float32"}, {"name": "StatefulPartitionedCall/hrnet-gaze/conv2d_85/Conv2D_weights", "shape": [3, 3, 36, 36], "dtype": "float32"}, {"name": "StatefulPartitionedCall/hrnet-gaze/conv2d_85/Conv2D_bn_offset", "shape": [36], "dtype": "float32"}, {"name": "StatefulPartitionedCall/hrnet-gaze/conv2d_116/Conv2D_weights", "shape": [3, 3, 72, 72], "dtype": "float32"}, {"name": "StatefulPartitionedCall/hrnet-gaze/conv2d_207/Conv2D_weights", "shape": [3, 3, 72, 72], "dtype": "float32"}, {"name": "StatefulPartitionedCall/hrnet-gaze/conv2d_116/Conv2D_bn_offset", "shape": [72], "dtype": "float32"}, {"name": "StatefulPartitionedCall/hrnet-gaze/conv2d_216/Conv2D_bn_offset", "shape": [72], "dtype": "float32"}, {"name": "StatefulPartitionedCall/hrnet-gaze/conv2d_52/Conv2D_weights", "shape": [3, 3, 18, 18], "dtype": "float32"}, {"name": "StatefulPartitionedCall/hrnet-gaze/conv2d_207/Conv2D_bn_offset", "shape": [72], "dtype": "float32"}, {"name": "StatefulPartitionedCall/hrnet-gaze/conv2d_52/Conv2D_bn_offset", "shape": [18], "dtype": "float32"}, {"name": "StatefulPartitionedCall/hrnet-gaze/conv2d_117/Conv2D_weights", "shape": [3, 3, 72, 72], "dtype": "float32"}, {"name": "StatefulPartitionedCall/hrnet-gaze/conv2d_117/Conv2D_bn_offset", "shape": [72], "dtype": "float32"}, {"name": "StatefulPartitionedCall/hrnet-gaze/conv2d_53/Conv2D_weights", "shape": [3, 3, 18, 18], "dtype": "float32"}, {"name": "StatefulPartitionedCall/hrnet-gaze/conv2d_159/Conv2D_weights", "shape": [3, 3, 18, 18], "dtype": "float32"}, {"name": "StatefulPartitionedCall/hrnet-gaze/conv2d_53/Conv2D_bn_offset", "shape": [18], "dtype": "float32"}, {"name": "StatefulPartitionedCall/hrnet-gaze/conv2d_86/Conv2D_weights", "shape": [3, 3, 36, 36], "dtype": "float32"}, {"name": "StatefulPartitionedCall/hrnet-gaze/conv2d_86/Conv2D_bn_offset", "shape": [36], "dtype": "float32"}, {"name": "StatefulPartitionedCall/hrnet-gaze/conv2d_159/Conv2D_bn_offset", "shape": [18], "dtype": "float32"}, {"name": "StatefulPartitionedCall/hrnet-gaze/conv2d_87/Conv2D_weights", "shape": [3, 3, 36, 36], "dtype": "float32"}, {"name": "StatefulPartitionedCall/hrnet-gaze/conv2d_87/Conv2D_bn_offset", "shape": [36], "dtype": "float32"}, {"name": "StatefulPartitionedCall/hrnet-gaze/conv2d_118/Conv2D_weights", "shape": [3, 3, 72, 72], "dtype": "float32"}, {"name": "StatefulPartitionedCall/hrnet-gaze/conv2d_118/Conv2D_bn_offset", "shape": [72], "dtype": "float32"}, {"name": "StatefulPartitionedCall/hrnet-gaze/conv2d_208/Conv2D_weights", "shape": [3, 3, 72, 72], "dtype": "float32"}, {"name": "StatefulPartitionedCall/hrnet-gaze/conv2d_54/Conv2D_weights", "shape": [3, 3, 18, 18], "dtype": "float32"}, {"name": "StatefulPartitionedCall/hrnet-gaze/conv2d_54/Conv2D_bn_offset", "shape": [18], "dtype": "float32"}, {"name": "StatefulPartitionedCall/hrnet-gaze/conv2d_208/Conv2D_bn_offset", "shape": [72], "dtype": "float32"}, {"name": "StatefulPartitionedCall/hrnet-gaze/conv2d_119/Conv2D_weights", "shape": [3, 3, 72, 72], "dtype": "float32"}, {"name": "StatefulPartitionedCall/hrnet-gaze/conv2d_119/Conv2D_bn_offset", "shape": [72], "dtype": "float32"}, {"name": "StatefulPartitionedCall/hrnet-gaze/conv2d_55/Conv2D_weights", "shape": [3, 3, 18, 18], "dtype": "float32"}, {"name": "StatefulPartitionedCall/hrnet-gaze/conv2d_55/Conv2D_bn_offset", "shape": [18], "dtype": "float32"}, {"name": "StatefulPartitionedCall/hrnet-gaze/conv2d_88/Conv2D_weights", "shape": [3, 3, 36, 36], "dtype": "float32"}, {"name": "StatefulPartitionedCall/hrnet-gaze/conv2d_88/Conv2D_bn_offset", "shape": [36], "dtype": "float32"}, {"name": "StatefulPartitionedCall/hrnet-gaze/conv2d_231/Conv2D_weights", "shape": [3, 3, 144, 144], "dtype": "float32"}, {"name": "StatefulPartitionedCall/hrnet-gaze/conv2d_89/Conv2D_weights", "shape": [3, 3, 36, 36], "dtype": "float32"}, {"name": "StatefulPartitionedCall/hrnet-gaze/conv2d_239/Conv2D_weights", "shape": [3, 3, 144, 144], "dtype": "float32"}, {"name": "StatefulPartitionedCall/hrnet-gaze/conv2d_89/Conv2D_bn_offset", "shape": [36], "dtype": "float32"}, {"name": "StatefulPartitionedCall/hrnet-gaze/conv2d_120/Conv2D_weights", "shape": [3, 3, 72, 72], "dtype": "float32"}, {"name": "StatefulPartitionedCall/hrnet-gaze/conv2d_231/Conv2D_bn_offset", "shape": [144], "dtype": "float32"}, {"name": "StatefulPartitionedCall/hrnet-gaze/conv2d_120/Conv2D_bn_offset", "shape": [72], "dtype": "float32"}, {"name": "StatefulPartitionedCall/hrnet-gaze/conv2d_56/Conv2D_weights", "shape": [3, 3, 18, 18], "dtype": "float32"}, {"name": "StatefulPartitionedCall/hrnet-gaze/conv2d_56/Conv2D_bn_offset", "shape": [18], "dtype": "float32"}, {"name": "StatefulPartitionedCall/hrnet-gaze/conv2d_160/Conv2D_weights", "shape": [3, 3, 18, 18], "dtype": "float32"}, {"name": "StatefulPartitionedCall/hrnet-gaze/conv2d_121/Conv2D_weights", "shape": [3, 3, 72, 72], "dtype": "float32"}, {"name": "StatefulPartitionedCall/hrnet-gaze/conv2d_239/Conv2D_bn_offset", "shape": [144], "dtype": "float32"}, {"name": "StatefulPartitionedCall/hrnet-gaze/conv2d_121/Conv2D_bn_offset", "shape": [72], "dtype": "float32"}, {"name": "StatefulPartitionedCall/hrnet-gaze/conv2d_57/Conv2D_weights", "shape": [3, 3, 18, 18], "dtype": "float32"}, {"name": "StatefulPartitionedCall/hrnet-gaze/conv2d_160/Conv2D_bn_offset", "shape": [18], "dtype": "float32"}, {"name": "StatefulPartitionedCall/hrnet-gaze/conv2d_57/Conv2D_bn_offset", "shape": [18], "dtype": "float32"}, {"name": "StatefulPartitionedCall/hrnet-gaze/conv2d_90/Conv2D_weights", "shape": [3, 3, 36, 36], "dtype": "float32"}, {"name": "StatefulPartitionedCall/hrnet-gaze/conv2d_90/Conv2D_bn_offset", "shape": [36], "dtype": "float32"}, {"name": "StatefulPartitionedCall/hrnet-gaze/conv2d_91/Conv2D_weights", "shape": [3, 3, 36, 36], "dtype": "float32"}, {"name": "StatefulPartitionedCall/hrnet-gaze/conv2d_91/Conv2D_bn_offset", "shape": [36], "dtype": "float32"}, {"name": "StatefulPartitionedCall/hrnet-gaze/conv2d_122/Conv2D_weights", "shape": [3, 3, 72, 72], "dtype": "float32"}, {"name": "StatefulPartitionedCall/hrnet-gaze/conv2d_185/Conv2D_weights", "shape": [3, 3, 36, 36], "dtype": "float32"}, {"name": "StatefulPartitionedCall/hrnet-gaze/conv2d_122/Conv2D_bn_offset", "shape": [72], "dtype": "float32"}, {"name": "StatefulPartitionedCall/hrnet-gaze/conv2d_58/Conv2D_weights", "shape": [3, 3, 18, 18], "dtype": "float32"}, {"name": "StatefulPartitionedCall/hrnet-gaze/conv2d_185/Conv2D_bn_offset", "shape": [36], "dtype": "float32"}, {"name": "StatefulPartitionedCall/hrnet-gaze/conv2d_58/Conv2D_bn_offset", "shape": [18], "dtype": "float32"}, {"name": "StatefulPartitionedCall/hrnet-gaze/conv2d_123/Conv2D_weights", "shape": [3, 3, 72, 72], "dtype": "float32"}, {"name": "StatefulPartitionedCall/hrnet-gaze/conv2d_123/Conv2D_bn_offset", "shape": [72], "dtype": "float32"}, {"name": "StatefulPartitionedCall/hrnet-gaze/conv2d_59/Conv2D_weights", "shape": [3, 3, 18, 18], "dtype": "float32"}, {"name": "StatefulPartitionedCall/hrnet-gaze/conv2d_232/Conv2D_weights", "shape": [3, 3, 144, 144], "dtype": "float32"}, {"name": "StatefulPartitionedCall/hrnet-gaze/conv2d_59/Conv2D_bn_offset", "shape": [18], "dtype": "float32"}, {"name": "StatefulPartitionedCall/hrnet-gaze/conv2d_92/Conv2D_weights", "shape": [3, 3, 36, 36], "dtype": "float32"}, {"name": "StatefulPartitionedCall/hrnet-gaze/conv2d_168/Conv2D_weights", "shape": [3, 3, 18, 18], "dtype": "float32"}, {"name": "StatefulPartitionedCall/hrnet-gaze/conv2d_92/Conv2D_bn_offset", "shape": [36], "dtype": "float32"}, {"name": "StatefulPartitionedCall/hrnet-gaze/conv2d_232/Conv2D_bn_offset", "shape": [144], "dtype": "float32"}, {"name": "StatefulPartitionedCall/hrnet-gaze/conv2d_93/Conv2D_weights", "shape": [3, 3, 36, 36], "dtype": "float32"}, {"name": "StatefulPartitionedCall/hrnet-gaze/conv2d_93/Conv2D_bn_offset", "shape": [36], "dtype": "float32"}, {"name": "StatefulPartitionedCall/hrnet-gaze/conv2d_124/Conv2D_weights", "shape": [3, 3, 72, 72], "dtype": "float32"}, {"name": "StatefulPartitionedCall/hrnet-gaze/conv2d_124/Conv2D_bn_offset", "shape": [72], "dtype": "float32"}, {"name": "StatefulPartitionedCall/hrnet-gaze/conv2d_60/Conv2D_weights", "shape": [3, 3, 18, 18], "dtype": "float32"}, {"name": "StatefulPartitionedCall/hrnet-gaze/conv2d_186/Conv2D_weights", "shape": [3, 3, 36, 36], "dtype": "float32"}, {"name": "StatefulPartitionedCall/hrnet-gaze/conv2d_60/Conv2D_bn_offset", "shape": [18], "dtype": "float32"}, {"name": "StatefulPartitionedCall/hrnet-gaze/conv2d_125/Conv2D_weights", "shape": [3, 3, 72, 72], "dtype": "float32"}, {"name": "StatefulPartitionedCall/hrnet-gaze/conv2d_186/Conv2D_bn_offset", "shape": [36], "dtype": "float32"}, {"name": "StatefulPartitionedCall/hrnet-gaze/conv2d_125/Conv2D_bn_offset", "shape": [72], "dtype": "float32"}, {"name": "StatefulPartitionedCall/hrnet-gaze/conv2d_61/Conv2D_weights", "shape": [3, 3, 18, 18], "dtype": "float32"}, {"name": "StatefulPartitionedCall/hrnet-gaze/conv2d_61/Conv2D_bn_offset", "shape": [18], "dtype": "float32"}, {"name": "StatefulPartitionedCall/hrnet-gaze/conv2d_94/Conv2D_weights", "shape": [3, 3, 36, 36], "dtype": "float32"}, {"name": "StatefulPartitionedCall/hrnet-gaze/conv2d_94/Conv2D_bn_offset", "shape": [36], "dtype": "float32"}, {"name": "StatefulPartitionedCall/hrnet-gaze/conv2d_95/Conv2D_weights", "shape": [3, 3, 36, 36], "dtype": "float32"}, {"name": "StatefulPartitionedCall/hrnet-gaze/conv2d_209/Conv2D_weights", "shape": [3, 3, 72, 72], "dtype": "float32"}, {"name": "StatefulPartitionedCall/hrnet-gaze/conv2d_95/Conv2D_bn_offset", "shape": [36], "dtype": "float32"}, {"name": "StatefulPartitionedCall/hrnet-gaze/conv2d_126/Conv2D_weights", "shape": [3, 3, 72, 72], "dtype": "float32"}, {"name": "StatefulPartitionedCall/hrnet-gaze/conv2d_168/Conv2D_bn_offset", "shape": [18], "dtype": "float32"}, {"name": "StatefulPartitionedCall/hrnet-gaze/conv2d_126/Conv2D_bn_offset", "shape": [72], "dtype": "float32"}, {"name": "StatefulPartitionedCall/hrnet-gaze/conv2d_209/Conv2D_bn_offset", "shape": [72], "dtype": "float32"}, {"name": "StatefulPartitionedCall/hrnet-gaze/conv2d_62/Conv2D_weights", "shape": [3, 3, 18, 18], "dtype": "float32"}, {"name": "StatefulPartitionedCall/hrnet-gaze/conv2d_62/Conv2D_bn_offset", "shape": [18], "dtype": "float32"}, {"name": "StatefulPartitionedCall/hrnet-gaze/conv2d_127/Conv2D_weights", "shape": [3, 3, 72, 72], "dtype": "float32"}, {"name": "StatefulPartitionedCall/hrnet-gaze/conv2d_161/Conv2D_weights", "shape": [3, 3, 18, 18], "dtype": "float32"}, {"name": "StatefulPartitionedCall/hrnet-gaze/conv2d_127/Conv2D_bn_offset", "shape": [72], "dtype": "float32"}, {"name": "StatefulPartitionedCall/hrnet-gaze/conv2d_63/Conv2D_weights", "shape": [3, 3, 18, 18], "dtype": "float32"}, {"name": "StatefulPartitionedCall/hrnet-gaze/conv2d_63/Conv2D_bn_offset", "shape": [18], "dtype": "float32"}, {"name": "StatefulPartitionedCall/hrnet-gaze/conv2d_96/Conv2D_weights", "shape": [3, 3, 36, 36], "dtype": "float32"}, {"name": "StatefulPartitionedCall/hrnet-gaze/conv2d_161/Conv2D_bn_offset", "shape": [18], "dtype": "float32"}, {"name": "StatefulPartitionedCall/hrnet-gaze/conv2d_96/Conv2D_bn_offset", "shape": [36], "dtype": "float32"}, {"name": "StatefulPartitionedCall/hrnet-gaze/conv2d_97/Conv2D_weights", "shape": [3, 3, 36, 36], "dtype": "float32"}, {"name": "StatefulPartitionedCall/hrnet-gaze/conv2d_97/Conv2D_bn_offset", "shape": [36], "dtype": "float32"}, {"name": "StatefulPartitionedCall/hrnet-gaze/conv2d_128/Conv2D_weights", "shape": [3, 3, 72, 72], "dtype": "float32"}, {"name": "StatefulPartitionedCall/hrnet-gaze/conv2d_210/Conv2D_weights", "shape": [3, 3, 72, 72], "dtype": "float32"}, {"name": "StatefulPartitionedCall/hrnet-gaze/conv2d_128/Conv2D_bn_offset", "shape": [72], "dtype": "float32"}, {"name": "StatefulPartitionedCall/hrnet-gaze/conv2d_240/Conv2D_weights", "shape": [3, 3, 144, 144], "dtype": "float32"}, {"name": "StatefulPartitionedCall/hrnet-gaze/conv2d_64/Conv2D_weights", "shape": [3, 3, 18, 18], "dtype": "float32"}, {"name": "StatefulPartitionedCall/hrnet-gaze/conv2d_210/Conv2D_bn_offset", "shape": [72], "dtype": "float32"}, {"name": "StatefulPartitionedCall/hrnet-gaze/conv2d_64/Conv2D_bn_offset", "shape": [18], "dtype": "float32"}, {"name": "StatefulPartitionedCall/hrnet-gaze/conv2d_129/Conv2D_weights", "shape": [3, 3, 72, 72], "dtype": "float32"}, {"name": "StatefulPartitionedCall/hrnet-gaze/conv2d_129/Conv2D_bn_offset", "shape": [72], "dtype": "float32"}, {"name": "StatefulPartitionedCall/hrnet-gaze/conv2d_65/Conv2D_weights", "shape": [3, 3, 18, 18], "dtype": "float32"}, {"name": "StatefulPartitionedCall/hrnet-gaze/conv2d_65/Conv2D_bn_offset", "shape": [18], "dtype": "float32"}, {"name": "StatefulPartitionedCall/hrnet-gaze/conv2d_98/Conv2D_weights", "shape": [3, 3, 36, 36], "dtype": "float32"}, {"name": "StatefulPartitionedCall/hrnet-gaze/conv2d_233/Conv2D_weights", "shape": [3, 3, 144, 144], "dtype": "float32"}, {"name": "StatefulPartitionedCall/hrnet-gaze/conv2d_98/Conv2D_bn_offset", "shape": [36], "dtype": "float32"}, {"name": "StatefulPartitionedCall/hrnet-gaze/batch_normalization_38/FusedBatchNormV3/Scaled", "shape": [18], "dtype": "float32"}, {"name": "StatefulPartitionedCall/hrnet-gaze/conv2d_99/Conv2D_weights", "shape": [3, 3, 36, 36], "dtype": "float32"}, {"name": "StatefulPartitionedCall/hrnet-gaze/conv2d_233/Conv2D_bn_offset", "shape": [144], "dtype": "float32"}, {"name": "StatefulPartitionedCall/hrnet-gaze/conv2d_99/Conv2D_bn_offset", "shape": [36], "dtype": "float32"}, {"name": "StatefulPartitionedCall/hrnet-gaze/conv2d_130/Conv2D_weights", "shape": [3, 3, 72, 72], "dtype": "float32"}, {"name": "StatefulPartitionedCall/hrnet-gaze/conv2d_240/Conv2D_bn_offset", "shape": [144], "dtype": "float32"}, {"name": "StatefulPartitionedCall/hrnet-gaze/conv2d_130/Conv2D_bn_offset", "shape": [72], "dtype": "float32"}, {"name": "StatefulPartitionedCall/hrnet-gaze/conv2d_66/Conv2D_weights", "shape": [3, 3, 18, 18], "dtype": "float32"}, {"name": "StatefulPartitionedCall/hrnet-gaze/conv2d_162/Conv2D_weights", "shape": [3, 3, 18, 18], "dtype": "float32"}, {"name": "StatefulPartitionedCall/hrnet-gaze/conv2d_66/Conv2D_bn_offset", "shape": [18], "dtype": "float32"}, {"name": "StatefulPartitionedCall/hrnet-gaze/conv2d_131/Conv2D_weights", "shape": [3, 3, 72, 72], "dtype": "float32"}, {"name": "StatefulPartitionedCall/hrnet-gaze/conv2d_162/Conv2D_bn_offset", "shape": [18], "dtype": "float32"}, {"name": "StatefulPartitionedCall/hrnet-gaze/conv2d_131/Conv2D_bn_offset", "shape": [72], "dtype": "float32"}, {"name": "StatefulPartitionedCall/hrnet-gaze/conv2d_67/Conv2D_weights", "shape": [3, 3, 18, 18], "dtype": "float32"}, {"name": "StatefulPartitionedCall/hrnet-gaze/conv2d_67/Conv2D_bn_offset", "shape": [18], "dtype": "float32"}, {"name": "StatefulPartitionedCall/hrnet-gaze/conv2d_100/Conv2D_weights", "shape": [3, 3, 36, 36], "dtype": "float32"}, {"name": "StatefulPartitionedCall/hrnet-gaze/conv2d_100/Conv2D_bn_offset", "shape": [36], "dtype": "float32"}, {"name": "StatefulPartitionedCall/hrnet-gaze/conv2d_101/Conv2D_weights", "shape": [3, 3, 36, 36], "dtype": "float32"}, {"name": "StatefulPartitionedCall/hrnet-gaze/conv2d_187/Conv2D_weights", "shape": [3, 3, 36, 36], "dtype": "float32"}, {"name": "StatefulPartitionedCall/hrnet-gaze/conv2d_101/Conv2D_bn_offset", "shape": [36], "dtype": "float32"}, {"name": "StatefulPartitionedCall/hrnet-gaze/conv2d_132/Conv2D_weights", "shape": [3, 3, 72, 72], "dtype": "float32"}, {"name": "StatefulPartitionedCall/hrnet-gaze/conv2d_132/Conv2D_bn_offset", "shape": [72], "dtype": "float32"}, {"name": "StatefulPartitionedCall/hrnet-gaze/conv2d_187/Conv2D_bn_offset", "shape": [36], "dtype": "float32"}, {"name": "StatefulPartitionedCall/hrnet-gaze/conv2d_68/Conv2D_weights", "shape": [3, 3, 18, 18], "dtype": "float32"}, {"name": "StatefulPartitionedCall/hrnet-gaze/conv2d_68/Conv2D_bn_offset", "shape": [18], "dtype": "float32"}, {"name": "StatefulPartitionedCall/hrnet-gaze/conv2d_133/Conv2D_weights", "shape": [3, 3, 72, 72], "dtype": "float32"}, {"name": "StatefulPartitionedCall/hrnet-gaze/conv2d_234/Conv2D_weights", "shape": [3, 3, 144, 144], "dtype": "float32"}, {"name": "StatefulPartitionedCall/hrnet-gaze/conv2d_133/Conv2D_bn_offset", "shape": [72], "dtype": "float32"}, {"name": "StatefulPartitionedCall/hrnet-gaze/conv2d_69/Conv2D_weights", "shape": [3, 3, 18, 18], "dtype": "float32"}, {"name": "StatefulPartitionedCall/hrnet-gaze/conv2d_69/Conv2D_bn_offset", "shape": [18], "dtype": "float32"}, {"name": "StatefulPartitionedCall/hrnet-gaze/conv2d_102/Conv2D_weights", "shape": [3, 3, 36, 36], "dtype": "float32"}, {"name": "StatefulPartitionedCall/hrnet-gaze/conv2d_234/Conv2D_bn_offset", "shape": [144], "dtype": "float32"}, {"name": "StatefulPartitionedCall/hrnet-gaze/conv2d_102/Conv2D_bn_offset", "shape": [36], "dtype": "float32"}, {"name": "StatefulPartitionedCall/hrnet-gaze/conv2d_103/Conv2D_weights", "shape": [3, 3, 36, 36], "dtype": "float32"}, {"name": "StatefulPartitionedCall/hrnet-gaze/conv2d_103/Conv2D_bn_offset", "shape": [36], "dtype": "float32"}, {"name": "StatefulPartitionedCall/hrnet-gaze/conv2d_134/Conv2D_weights", "shape": [3, 3, 72, 72], "dtype": "float32"}, {"name": "StatefulPartitionedCall/hrnet-gaze/conv2d_188/Conv2D_weights", "shape": [3, 3, 36, 36], "dtype": "float32"}, {"name": "StatefulPartitionedCall/hrnet-gaze/conv2d_134/Conv2D_bn_offset", "shape": [72], "dtype": "float32"}, {"name": "StatefulPartitionedCall/hrnet-gaze/conv2d_70/Conv2D_weights", "shape": [3, 3, 18, 18], "dtype": "float32"}, {"name": "StatefulPartitionedCall/hrnet-gaze/conv2d_188/Conv2D_bn_offset", "shape": [36], "dtype": "float32"}, {"name": "StatefulPartitionedCall/hrnet-gaze/conv2d_70/Conv2D_bn_offset", "shape": [18], "dtype": "float32"}, {"name": "StatefulPartitionedCall/hrnet-gaze/conv2d_135/Conv2D_weights", "shape": [3, 3, 72, 72], "dtype": "float32"}, {"name": "StatefulPartitionedCall/hrnet-gaze/conv2d_135/Conv2D_bn_offset", "shape": [72], "dtype": "float32"}, {"name": "StatefulPartitionedCall/hrnet-gaze/conv2d_211/Conv2D_weights", "shape": [3, 3, 72, 72], "dtype": "float32"}, {"name": "StatefulPartitionedCall/hrnet-gaze/conv2d_71/Conv2D_weights", "shape": [3, 3, 18, 18], "dtype": "float32"}, {"name": "StatefulPartitionedCall/hrnet-gaze/conv2d_241/Conv2D_weights", "shape": [1, 1, 270, 270], "dtype": "float32"}, {"name": "StatefulPartitionedCall/hrnet-gaze/conv2d_71/Conv2D_bn_offset", "shape": [18], "dtype": "float32"}, {"name": "StatefulPartitionedCall/hrnet-gaze/conv2d_140/Conv2D_weights", "shape": [3, 3, 36, 72], "dtype": "float32"}, {"name": "StatefulPartitionedCall/hrnet-gaze/conv2d_211/Conv2D_bn_offset", "shape": [72], "dtype": "float32"}, {"name": "StatefulPartitionedCall/hrnet-gaze/conv2d_140/Conv2D_bn_offset", "shape": [72], "dtype": "float32"}, {"name": "StatefulPartitionedCall/hrnet-gaze/conv2d_141/Conv2D_weights", "shape": [3, 3, 72, 144], "dtype": "float32"}, {"name": "StatefulPartitionedCall/hrnet-gaze/conv2d_141/Conv2D_bn_offset", "shape": [144], "dtype": "float32"}, {"name": "StatefulPartitionedCall/hrnet-gaze/conv2d_163/Conv2D_weights", "shape": [3, 3, 18, 18], "dtype": "float32"}, {"name": "StatefulPartitionedCall/hrnet-gaze/conv2d_144/Conv2D_weights", "shape": [3, 3, 72, 144], "dtype": "float32"}, {"name": "StatefulPartitionedCall/hrnet-gaze/conv2d_241/Conv2D_bn_offset", "shape": [270], "dtype": "float32"}, {"name": "StatefulPartitionedCall/hrnet-gaze/conv2d_144/Conv2D_bn_offset", "shape": [144], "dtype": "float32"}, {"name": "StatefulPartitionedCall/hrnet-gaze/conv2d_163/Conv2D_bn_offset", "shape": [18], "dtype": "float32"}, {"name": "StatefulPartitionedCall/hrnet-gaze/conv2d_136/Conv2D_weights", "shape": [3, 3, 18, 36], "dtype": "float32"}, {"name": "StatefulPartitionedCall/hrnet-gaze/conv2d_136/Conv2D_bn_offset", "shape": [36], "dtype": "float32"}, {"name": "StatefulPartitionedCall/hrnet-gaze/conv2d_137/Conv2D_weights", "shape": [3, 3, 36, 72], "dtype": "float32"}, {"name": "StatefulPartitionedCall/hrnet-gaze/conv2d_212/Conv2D_weights", "shape": [3, 3, 72, 72], "dtype": "float32"}, {"name": "StatefulPartitionedCall/hrnet-gaze/conv2d_137/Conv2D_bn_offset", "shape": [72], "dtype": "float32"}, {"name": "StatefulPartitionedCall/hrnet-gaze/conv2d_169/Conv2D_weights", "shape": [3, 3, 36, 36], "dtype": "float32"}, {"name": "StatefulPartitionedCall/hrnet-gaze/conv2d_212/Conv2D_bn_offset", "shape": [72], "dtype": "float32"}, {"name": "StatefulPartitionedCall/hrnet-gaze/conv2d_169/Conv2D_bn_offset", "shape": [36], "dtype": "float32"}, {"name": "StatefulPartitionedCall/hrnet-gaze/conv2d_138/Conv2D_weights", "shape": [3, 3, 72, 144], "dtype": "float32"}, {"name": "StatefulPartitionedCall/hrnet-gaze/conv2d_138/Conv2D_bn_offset", "shape": [144], "dtype": "float32"}, {"name": "StatefulPartitionedCall/hrnet-gaze/conv2d_170/Conv2D_weights", "shape": [3, 3, 36, 36], "dtype": "float32"}, {"name": "StatefulPartitionedCall/hrnet-gaze/conv2d_235/Conv2D_weights", "shape": [3, 3, 144, 144], "dtype": "float32"}, {"name": "StatefulPartitionedCall/hrnet-gaze/conv2d_170/Conv2D_bn_offset", "shape": [36], "dtype": "float32"}, {"name": "StatefulPartitionedCall/hrnet-gaze/conv2d_193/Conv2D_weights", "shape": [3, 3, 72, 72], "dtype": "float32"}, {"name": "StatefulPartitionedCall/hrnet-gaze/batch_normalization_38/FusedBatchNormV3/Offset", "shape": [18], "dtype": "float32"}, {"name": "StatefulPartitionedCall/hrnet-gaze/conv2d_193/Conv2D_bn_offset", "shape": [72], "dtype": "float32"}, {"name": "StatefulPartitionedCall/hrnet-gaze/conv2d_235/Conv2D_bn_offset", "shape": [144], "dtype": "float32"}, {"name": "StatefulPartitionedCall/hrnet-gaze/conv2d_145/Conv2D_weights", "shape": [3, 3, 18, 18], "dtype": "float32"}, {"name": "StatefulPartitionedCall/hrnet-gaze/conv2d_145/Conv2D_bn_offset", "shape": [18], "dtype": "float32"}, {"name": "StatefulPartitionedCall/hrnet-gaze/conv2d_194/Conv2D_weights", "shape": [3, 3, 72, 72], "dtype": "float32"}, {"name": "StatefulPartitionedCall/hrnet-gaze/conv2d_164/Conv2D_weights", "shape": [3, 3, 18, 18], "dtype": "float32"}, {"name": "StatefulPartitionedCall/hrnet-gaze/conv2d_194/Conv2D_bn_offset", "shape": [72], "dtype": "float32"}, {"name": "StatefulPartitionedCall/hrnet-gaze/conv2d_217/Conv2D_weights", "shape": [3, 3, 144, 144], "dtype": "float32"}, {"name": "StatefulPartitionedCall/hrnet-gaze/conv2d_217/Conv2D_bn_offset", "shape": [144], "dtype": "float32"}, {"name": "StatefulPartitionedCall/hrnet-gaze/conv2d_164/Conv2D_bn_offset", "shape": [18], "dtype": "float32"}, {"name": "StatefulPartitionedCall/hrnet-gaze/conv2d_146/Conv2D_weights", "shape": [3, 3, 18, 18], "dtype": "float32"}, {"name": "StatefulPartitionedCall/hrnet-gaze/conv2d_146/Conv2D_bn_offset", "shape": [18], "dtype": "float32"}, {"name": "StatefulPartitionedCall/hrnet-gaze/conv2d_171/Conv2D_weights", "shape": [3, 3, 36, 36], "dtype": "float32"}, {"name": "StatefulPartitionedCall/hrnet-gaze/conv2d_171/Conv2D_bn_offset", "shape": [36], "dtype": "float32"}, {"name": "StatefulPartitionedCall/hrnet-gaze/conv2d_218/Conv2D_weights", "shape": [3, 3, 144, 144], "dtype": "float32"}, {"name": "StatefulPartitionedCall/hrnet-gaze/conv2d_189/Conv2D_weights", "shape": [3, 3, 36, 36], "dtype": "float32"}, {"name": "StatefulPartitionedCall/hrnet-gaze/conv2d_218/Conv2D_bn_offset", "shape": [144], "dtype": "float32"}, {"name": "StatefulPartitionedCall/hrnet-gaze/conv2d_172/Conv2D_weights", "shape": [3, 3, 36, 36], "dtype": "float32"}, {"name": "StatefulPartitionedCall/hrnet-gaze/conv2d_172/Conv2D_bn_offset", "shape": [36], "dtype": "float32"}, {"name": "StatefulPartitionedCall/hrnet-gaze/conv2d_195/Conv2D_weights", "shape": [3, 3, 72, 72], "dtype": "float32"}, {"name": "StatefulPartitionedCall/hrnet-gaze/conv2d_189/Conv2D_bn_offset", "shape": [36], "dtype": "float32"}, {"name": "StatefulPartitionedCall/hrnet-gaze/conv2d_195/Conv2D_bn_offset", "shape": [72], "dtype": "float32"}, {"name": "StatefulPartitionedCall/hrnet-gaze/conv2d_147/Conv2D_weights", "shape": [3, 3, 18, 18], "dtype": "float32"}, {"name": "StatefulPartitionedCall/hrnet-gaze/conv2d_147/Conv2D_bn_offset", "shape": [18], "dtype": "float32"}, {"name": "StatefulPartitionedCall/hrnet-gaze/conv2d_236/Conv2D_weights", "shape": [3, 3, 144, 144], "dtype": "float32"}, {"name": "StatefulPartitionedCall/hrnet-gaze/conv2d_196/Conv2D_weights", "shape": [3, 3, 72, 72], "dtype": "float32"}, {"name": "StatefulPartitionedCall/hrnet-gaze/conv2d_196/Conv2D_bn_offset", "shape": [72], "dtype": "float32"}, {"name": "StatefulPartitionedCall/hrnet-gaze/conv2d_219/Conv2D_weights", "shape": [3, 3, 144, 144], "dtype": "float32"}, {"name": "StatefulPartitionedCall/hrnet-gaze/conv2d_236/Conv2D_bn_offset", "shape": [144], "dtype": "float32"}, {"name": "StatefulPartitionedCall/hrnet-gaze/conv2d_219/Conv2D_bn_offset", "shape": [144], "dtype": "float32"}, {"name": "StatefulPartitionedCall/hrnet-gaze/conv2d_148/Conv2D_weights", "shape": [3, 3, 18, 18], "dtype": "float32"}, {"name": "StatefulPartitionedCall/hrnet-gaze/conv2d_148/Conv2D_bn_offset", "shape": [18], "dtype": "float32"}, {"name": "StatefulPartitionedCall/hrnet-gaze/conv2d_173/Conv2D_weights", "shape": [3, 3, 36, 36], "dtype": "float32"}, {"name": "StatefulPartitionedCall/hrnet-gaze/conv2d_173/Conv2D_bn_offset", "shape": [36], "dtype": "float32"}, {"name": "StatefulPartitionedCall/hrnet-gaze/conv2d_190/Conv2D_weights", "shape": [3, 3, 36, 36], "dtype": "float32"}, {"name": "StatefulPartitionedCall/hrnet-gaze/conv2d_220/Conv2D_weights", "shape": [3, 3, 144, 144], "dtype": "float32"}, {"name": "StatefulPartitionedCall/hrnet-gaze/batch_normalization_142/FusedBatchNormV3/Scaled", "shape": [18], "dtype": "float32"}, {"name": "StatefulPartitionedCall/hrnet-gaze/conv2d_220/Conv2D_bn_offset", "shape": [144], "dtype": "float32"}, {"name": "StatefulPartitionedCall/hrnet-gaze/conv2d_174/Conv2D_weights", "shape": [3, 3, 36, 36], "dtype": "float32"}, {"name": "StatefulPartitionedCall/hrnet-gaze/conv2d_190/Conv2D_bn_offset", "shape": [36], "dtype": "float32"}, {"name": "StatefulPartitionedCall/hrnet-gaze/conv2d_174/Conv2D_bn_offset", "shape": [36], "dtype": "float32"}, {"name": "StatefulPartitionedCall/hrnet-gaze/conv2d_197/Conv2D_weights", "shape": [3, 3, 72, 72], "dtype": "float32"}, {"name": "StatefulPartitionedCall/hrnet-gaze/conv2d_197/Conv2D_bn_offset", "shape": [72], "dtype": "float32"}, {"name": "StatefulPartitionedCall/hrnet-gaze/conv2d_149/Conv2D_weights", "shape": [3, 3, 18, 18], "dtype": "float32"}, {"name": "StatefulPartitionedCall/hrnet-gaze/conv2d_149/Conv2D_bn_offset", "shape": [18], "dtype": "float32"}, {"name": "StatefulPartitionedCall/hrnet-gaze/conv2d_213/Conv2D_weights", "shape": [3, 3, 72, 72], "dtype": "float32"}, {"name": "StatefulPartitionedCall/hrnet-gaze/conv2d_198/Conv2D_weights", "shape": [3, 3, 72, 72], "dtype": "float32"}, {"name": "StatefulPartitionedCall/hrnet-gaze/conv2d_198/Conv2D_bn_offset", "shape": [72], "dtype": "float32"}, {"name": "StatefulPartitionedCall/hrnet-gaze/conv2d_221/Conv2D_weights", "shape": [3, 3, 144, 144], "dtype": "float32"}, {"name": "StatefulPartitionedCall/hrnet-gaze/conv2d_213/Conv2D_bn_offset", "shape": [72], "dtype": "float32"}, {"name": "StatefulPartitionedCall/hrnet-gaze/conv2d_221/Conv2D_bn_offset", "shape": [144], "dtype": "float32"}, {"name": "StatefulPartitionedCall/hrnet-gaze/conv2d_150/Conv2D_weights", "shape": [3, 3, 18, 18], "dtype": "float32"}, {"name": "StatefulPartitionedCall/hrnet-gaze/conv2d_150/Conv2D_bn_offset", "shape": [18], "dtype": "float32"}, {"name": "StatefulPartitionedCall/hrnet-gaze/conv2d_175/Conv2D_weights", "shape": [3, 3, 36, 36], "dtype": "float32"}, {"name": "StatefulPartitionedCall/hrnet-gaze/conv2d_165/Conv2D_weights", "shape": [3, 3, 18, 18], "dtype": "float32"}, {"name": "StatefulPartitionedCall/hrnet-gaze/conv2d_175/Conv2D_bn_offset", "shape": [36], "dtype": "float32"}, {"name": "StatefulPartitionedCall/hrnet-gaze/batch_normalization_142/FusedBatchNormV3/Offset", "shape": [18], "dtype": "float32"}, {"name": "StatefulPartitionedCall/hrnet-gaze/conv2d_222/Conv2D_weights", "shape": [3, 3, 144, 144], "dtype": "float32"}, {"name": "StatefulPartitionedCall/hrnet-gaze/conv2d_165/Conv2D_bn_offset", "shape": [18], "dtype": "float32"}, {"name": "StatefulPartitionedCall/hrnet-gaze/conv2d_222/Conv2D_bn_offset", "shape": [144], "dtype": "float32"}, {"name": "StatefulPartitionedCall/hrnet-gaze/conv2d_176/Conv2D_weights", "shape": [3, 3, 36, 36], "dtype": "float32"}, {"name": "StatefulPartitionedCall/hrnet-gaze/conv2d_176/Conv2D_bn_offset", "shape": [36], "dtype": "float32"}, {"name": "StatefulPartitionedCall/hrnet-gaze/conv2d_199/Conv2D_weights", "shape": [3, 3, 72, 72], "dtype": "float32"}, {"name": "StatefulPartitionedCall/hrnet-gaze/conv2d_199/Conv2D_bn_offset", "shape": [72], "dtype": "float32"}, {"name": "StatefulPartitionedCall/hrnet-gaze/conv2d_214/Conv2D_weights", "shape": [3, 3, 72, 72], "dtype": "float32"}, {"name": "StatefulPartitionedCall/hrnet-gaze/conv2d_151/Conv2D_weights", "shape": [3, 3, 18, 18], "dtype": "float32"}, {"name": "StatefulPartitionedCall/hrnet-gaze/conv2d_151/Conv2D_bn_offset", "shape": [18], "dtype": "float32"}, {"name": "StatefulPartitionedCall/hrnet-gaze/conv2d_214/Conv2D_bn_offset", "shape": [72], "dtype": "float32"}, {"name": "StatefulPartitionedCall/hrnet-gaze/conv2d_200/Conv2D_weights", "shape": [3, 3, 72, 72], "dtype": "float32"}, {"name": "StatefulPartitionedCall/hrnet-gaze/conv2d_200/Conv2D_bn_offset", "shape": [72], "dtype": "float32"}, {"name": "StatefulPartitionedCall/hrnet-gaze/conv2d_223/Conv2D_weights", "shape": [3, 3, 144, 144], "dtype": "float32"}, {"name": "StatefulPartitionedCall/hrnet-gaze/conv2d_223/Conv2D_bn_offset", "shape": [144], "dtype": "float32"}, {"name": "StatefulPartitionedCall/hrnet-gaze/conv2d_152/Conv2D_weights", "shape": [3, 3, 18, 18], "dtype": "float32"}, {"name": "StatefulPartitionedCall/hrnet-gaze/conv2d_237/Conv2D_weights", "shape": [3, 3, 144, 144], "dtype": "float32"}, {"name": "StatefulPartitionedCall/hrnet-gaze/conv2d_152/Conv2D_bn_offset", "shape": [18], "dtype": "float32"}, {"name": "StatefulPartitionedCall/hrnet-gaze/conv2d_177/Conv2D_weights", "shape": [3, 3, 36, 36], "dtype": "float32"}, {"name": "StatefulPartitionedCall/hrnet-gaze/conv2d_177/Conv2D_bn_offset", "shape": [36], "dtype": "float32"}, {"name": "StatefulPartitionedCall/hrnet-gaze/conv2d_237/Conv2D_bn_offset", "shape": [144], "dtype": "float32"}, {"name": "StatefulPartitionedCall/hrnet-gaze/conv2d_224/Conv2D_weights", "shape": [3, 3, 144, 144], "dtype": "float32"}, {"name": "StatefulPartitionedCall/hrnet-gaze/batch_normalization_143/FusedBatchNormV3/Scaled", "shape": [36], "dtype": "float32"}, {"name": "StatefulPartitionedCall/hrnet-gaze/conv2d_224/Conv2D_bn_offset", "shape": [144], "dtype": "float32"}, {"name": "StatefulPartitionedCall/hrnet-gaze/conv2d_178/Conv2D_weights", "shape": [3, 3, 36, 36], "dtype": "float32"}, {"name": "StatefulPartitionedCall/hrnet-gaze/conv2d_178/Conv2D_bn_offset", "shape": [36], "dtype": "float32"}, {"name": "StatefulPartitionedCall/hrnet-gaze/conv2d_201/Conv2D_weights", "shape": [3, 3, 72, 72], "dtype": "float32"}, {"name": "StatefulPartitionedCall/hrnet-gaze/conv2d_166/Conv2D_weights", "shape": [3, 3, 18, 18], "dtype": "float32"}, {"name": "StatefulPartitionedCall/hrnet-gaze/conv2d_201/Conv2D_bn_offset", "shape": [72], "dtype": "float32"}, {"name": "StatefulPartitionedCall/hrnet-gaze/conv2d_153/Conv2D_weights", "shape": [3, 3, 18, 18], "dtype": "float32"}, {"name": "StatefulPartitionedCall/hrnet-gaze/conv2d_166/Conv2D_bn_offset", "shape": [18], "dtype": "float32"}, {"name": "StatefulPartitionedCall/hrnet-gaze/conv2d_153/Conv2D_bn_offset", "shape": [18], "dtype": "float32"}, {"name": "StatefulPartitionedCall/hrnet-gaze/conv2d_202/Conv2D_weights", "shape": [3, 3, 72, 72], "dtype": "float32"}, {"name": "StatefulPartitionedCall/hrnet-gaze/conv2d_202/Conv2D_bn_offset", "shape": [72], "dtype": "float32"}]}]}